HloModule jit__threefry_fold_in, entry_computation_layout={(u32[2]{0:T(128)}, u32[]{:T(128)})->u32[2]{0:T(128)}}, allow_spmd_sharding_propagation_to_parameters={true,true}, allow_spmd_sharding_propagation_to_output={true}

%threefry2x32.163 (jit__threefry_fold_in_.11: u32[], jit__threefry_fold_in_.12: u32[], jit__threefry_fold_in_.13: u32[1], jit__threefry_fold_in_.14: u32[1]) -> (u32[1], u32[1]) {
  %jit__threefry_fold_in_.13 = u32[1]{0} parameter(2), metadata={op_name="jit(_threefry_fold_in)"}
  %jit__threefry_fold_in_.11 = u32[] parameter(0), metadata={op_name="jit(_threefry_fold_in)"}
  %add.33 = u32[1]{0} reshape(%jit__threefry_fold_in_.11), metadata={op_name="add" source_file="/home/eporat/benchmarking_qwen_omni_tpu/.venv/lib/python3.11/site-packages/flax/nnx/rnglib.py" source_line=76 source_end_line=76 source_column=10 source_end_column=60}
  %add.34 = u32[1]{0} add(%jit__threefry_fold_in_.13, %add.33), metadata={op_name="add" source_file="/home/eporat/benchmarking_qwen_omni_tpu/.venv/lib/python3.11/site-packages/flax/nnx/rnglib.py" source_line=76 source_end_line=76 source_column=10 source_end_column=60}
  %jit__threefry_fold_in_.14 = u32[1]{0} parameter(3), metadata={op_name="jit(_threefry_fold_in)"}
  %jit__threefry_fold_in_.12 = u32[] parameter(1), metadata={op_name="jit(_threefry_fold_in)"}
  %add.35 = u32[1]{0} reshape(%jit__threefry_fold_in_.12), metadata={op_name="add" source_file="/home/eporat/benchmarking_qwen_omni_tpu/.venv/lib/python3.11/site-packages/flax/nnx/rnglib.py" source_line=76 source_end_line=76 source_column=10 source_end_column=60}
  %add.36 = u32[1]{0} add(%jit__threefry_fold_in_.14, %add.35), metadata={op_name="add" source_file="/home/eporat/benchmarking_qwen_omni_tpu/.venv/lib/python3.11/site-packages/flax/nnx/rnglib.py" source_line=76 source_end_line=76 source_column=10 source_end_column=60}
  %add.37 = u32[1]{0} add(%add.34, %add.36), metadata={op_name="add" source_file="/home/eporat/benchmarking_qwen_omni_tpu/.venv/lib/python3.11/site-packages/flax/nnx/rnglib.py" source_line=76 source_end_line=76 source_column=10 source_end_column=60}
  %constant.29 = u32[1]{0} constant({13})
  %shift_left.38 = u32[1]{0} shift-left(%add.36, %constant.29), metadata={op_name="shift_left" source_file="/home/eporat/benchmarking_qwen_omni_tpu/.venv/lib/python3.11/site-packages/flax/nnx/rnglib.py" source_line=76 source_end_line=76 source_column=10 source_end_column=60}
  %constant.28 = u32[1]{0} constant({19})
  %shift_right_logical.39 = u32[1]{0} shift-right-logical(%add.36, %constant.28), metadata={op_name="shift_right_logical" source_file="/home/eporat/benchmarking_qwen_omni_tpu/.venv/lib/python3.11/site-packages/flax/nnx/rnglib.py" source_line=76 source_end_line=76 source_column=10 source_end_column=60}
  %or.40 = u32[1]{0} or(%shift_left.38, %shift_right_logical.39), metadata={op_name="or" source_file="/home/eporat/benchmarking_qwen_omni_tpu/.venv/lib/python3.11/site-packages/flax/nnx/rnglib.py" source_line=76 source_end_line=76 source_column=10 source_end_column=60}
  %xor.41 = u32[1]{0} xor(%add.37, %or.40), metadata={op_name="xor" source_file="/home/eporat/benchmarking_qwen_omni_tpu/.venv/lib/python3.11/site-packages/flax/nnx/rnglib.py" source_line=76 source_end_line=76 source_column=10 source_end_column=60}
  %add.42 = u32[1]{0} add(%add.37, %xor.41), metadata={op_name="add" source_file="/home/eporat/benchmarking_qwen_omni_tpu/.venv/lib/python3.11/site-packages/flax/nnx/rnglib.py" source_line=76 source_end_line=76 source_column=10 source_end_column=60}
  %constant.27 = u32[1]{0} constant({15})
  %shift_left.43 = u32[1]{0} shift-left(%xor.41, %constant.27), metadata={op_name="shift_left" source_file="/home/eporat/benchmarking_qwen_omni_tpu/.venv/lib/python3.11/site-packages/flax/nnx/rnglib.py" source_line=76 source_end_line=76 source_column=10 source_end_column=60}
  %constant.26 = u32[1]{0} constant({17})
  %shift_right_logical.44 = u32[1]{0} shift-right-logical(%xor.41, %constant.26), metadata={op_name="shift_right_logical" source_file="/home/eporat/benchmarking_qwen_omni_tpu/.venv/lib/python3.11/site-packages/flax/nnx/rnglib.py" source_line=76 source_end_line=76 source_column=10 source_end_column=60}
  %or.45 = u32[1]{0} or(%shift_left.43, %shift_right_logical.44), metadata={op_name="or" source_file="/home/eporat/benchmarking_qwen_omni_tpu/.venv/lib/python3.11/site-packages/flax/nnx/rnglib.py" source_line=76 source_end_line=76 source_column=10 source_end_column=60}
  %xor.46 = u32[1]{0} xor(%add.42, %or.45), metadata={op_name="xor" source_file="/home/eporat/benchmarking_qwen_omni_tpu/.venv/lib/python3.11/site-packages/flax/nnx/rnglib.py" source_line=76 source_end_line=76 source_column=10 source_end_column=60}
  %add.47 = u32[1]{0} add(%add.42, %xor.46), metadata={op_name="add" source_file="/home/eporat/benchmarking_qwen_omni_tpu/.venv/lib/python3.11/site-packages/flax/nnx/rnglib.py" source_line=76 source_end_line=76 source_column=10 source_end_column=60}
  %constant.25 = u32[1]{0} constant({26})
  %shift_left.48 = u32[1]{0} shift-left(%xor.46, %constant.25), metadata={op_name="shift_left" source_file="/home/eporat/benchmarking_qwen_omni_tpu/.venv/lib/python3.11/site-packages/flax/nnx/rnglib.py" source_line=76 source_end_line=76 source_column=10 source_end_column=60}
  %constant.24 = u32[1]{0} constant({6})
  %shift_right_logical.49 = u32[1]{0} shift-right-logical(%xor.46, %constant.24), metadata={op_name="shift_right_logical" source_file="/home/eporat/benchmarking_qwen_omni_tpu/.venv/lib/python3.11/site-packages/flax/nnx/rnglib.py" source_line=76 source_end_line=76 source_column=10 source_end_column=60}
  %or.50 = u32[1]{0} or(%shift_left.48, %shift_right_logical.49), metadata={op_name="or" source_file="/home/eporat/benchmarking_qwen_omni_tpu/.venv/lib/python3.11/site-packages/flax/nnx/rnglib.py" source_line=76 source_end_line=76 source_column=10 source_end_column=60}
  %xor.51 = u32[1]{0} xor(%add.47, %or.50), metadata={op_name="xor" source_file="/home/eporat/benchmarking_qwen_omni_tpu/.venv/lib/python3.11/site-packages/flax/nnx/rnglib.py" source_line=76 source_end_line=76 source_column=10 source_end_column=60}
  %add.52 = u32[1]{0} add(%add.47, %xor.51), metadata={op_name="add" source_file="/home/eporat/benchmarking_qwen_omni_tpu/.venv/lib/python3.11/site-packages/flax/nnx/rnglib.py" source_line=76 source_end_line=76 source_column=10 source_end_column=60}
  %add.57 = u32[1]{0} reshape(%jit__threefry_fold_in_.12), metadata={op_name="add" source_file="/home/eporat/benchmarking_qwen_omni_tpu/.venv/lib/python3.11/site-packages/flax/nnx/rnglib.py" source_line=76 source_end_line=76 source_column=10 source_end_column=60}
  %add.58 = u32[1]{0} add(%add.52, %add.57), metadata={op_name="add" source_file="/home/eporat/benchmarking_qwen_omni_tpu/.venv/lib/python3.11/site-packages/flax/nnx/rnglib.py" source_line=76 source_end_line=76 source_column=10 source_end_column=60}
  %shift_left.53 = u32[1]{0} shift-left(%xor.51, %constant.24), metadata={op_name="shift_left" source_file="/home/eporat/benchmarking_qwen_omni_tpu/.venv/lib/python3.11/site-packages/flax/nnx/rnglib.py" source_line=76 source_end_line=76 source_column=10 source_end_column=60}
  %shift_right_logical.54 = u32[1]{0} shift-right-logical(%xor.51, %constant.25), metadata={op_name="shift_right_logical" source_file="/home/eporat/benchmarking_qwen_omni_tpu/.venv/lib/python3.11/site-packages/flax/nnx/rnglib.py" source_line=76 source_end_line=76 source_column=10 source_end_column=60}
  %or.55 = u32[1]{0} or(%shift_left.53, %shift_right_logical.54), metadata={op_name="or" source_file="/home/eporat/benchmarking_qwen_omni_tpu/.venv/lib/python3.11/site-packages/flax/nnx/rnglib.py" source_line=76 source_end_line=76 source_column=10 source_end_column=60}
  %xor.56 = u32[1]{0} xor(%add.52, %or.55), metadata={op_name="xor" source_file="/home/eporat/benchmarking_qwen_omni_tpu/.venv/lib/python3.11/site-packages/flax/nnx/rnglib.py" source_line=76 source_end_line=76 source_column=10 source_end_column=60}
  %xor.31 = u32[] xor(%jit__threefry_fold_in_.11, %jit__threefry_fold_in_.12), metadata={op_name="xor" source_file="/home/eporat/benchmarking_qwen_omni_tpu/.venv/lib/python3.11/site-packages/flax/nnx/rnglib.py" source_line=76 source_end_line=76 source_column=10 source_end_column=60}
  %constant.30 = u32[] constant(466688986)
  %xor.32 = u32[] xor(%xor.31, %constant.30), metadata={op_name="xor" source_file="/home/eporat/benchmarking_qwen_omni_tpu/.venv/lib/python3.11/site-packages/flax/nnx/rnglib.py" source_line=76 source_end_line=76 source_column=10 source_end_column=60}
  %add.59 = u32[1]{0} reshape(%xor.32), metadata={op_name="add" source_file="/home/eporat/benchmarking_qwen_omni_tpu/.venv/lib/python3.11/site-packages/flax/nnx/rnglib.py" source_line=76 source_end_line=76 source_column=10 source_end_column=60}
  %add.60 = u32[1]{0} add(%xor.56, %add.59), metadata={op_name="add" source_file="/home/eporat/benchmarking_qwen_omni_tpu/.venv/lib/python3.11/site-packages/flax/nnx/rnglib.py" source_line=76 source_end_line=76 source_column=10 source_end_column=60}
  %constant.23 = u32[1]{0} constant({1})
  %add.61 = u32[1]{0} add(%add.60, %constant.23), metadata={op_name="add" source_file="/home/eporat/benchmarking_qwen_omni_tpu/.venv/lib/python3.11/site-packages/flax/nnx/rnglib.py" source_line=76 source_end_line=76 source_column=10 source_end_column=60}
  %add.62 = u32[1]{0} add(%add.58, %add.61), metadata={op_name="add" source_file="/home/eporat/benchmarking_qwen_omni_tpu/.venv/lib/python3.11/site-packages/flax/nnx/rnglib.py" source_line=76 source_end_line=76 source_column=10 source_end_column=60}
  %shift_left.63 = u32[1]{0} shift-left(%add.61, %constant.26), metadata={op_name="shift_left" source_file="/home/eporat/benchmarking_qwen_omni_tpu/.venv/lib/python3.11/site-packages/flax/nnx/rnglib.py" source_line=76 source_end_line=76 source_column=10 source_end_column=60}
  %shift_right_logical.64 = u32[1]{0} shift-right-logical(%add.61, %constant.27), metadata={op_name="shift_right_logical" source_file="/home/eporat/benchmarking_qwen_omni_tpu/.venv/lib/python3.11/site-packages/flax/nnx/rnglib.py" source_line=76 source_end_line=76 source_column=10 source_end_column=60}
  %or.65 = u32[1]{0} or(%shift_left.63, %shift_right_logical.64), metadata={op_name="or" source_file="/home/eporat/benchmarking_qwen_omni_tpu/.venv/lib/python3.11/site-packages/flax/nnx/rnglib.py" source_line=76 source_end_line=76 source_column=10 source_end_column=60}
  %xor.66 = u32[1]{0} xor(%add.62, %or.65), metadata={op_name="xor" source_file="/home/eporat/benchmarking_qwen_omni_tpu/.venv/lib/python3.11/site-packages/flax/nnx/rnglib.py" source_line=76 source_end_line=76 source_column=10 source_end_column=60}
  %add.67 = u32[1]{0} add(%add.62, %xor.66), metadata={op_name="add" source_file="/home/eporat/benchmarking_qwen_omni_tpu/.venv/lib/python3.11/site-packages/flax/nnx/rnglib.py" source_line=76 source_end_line=76 source_column=10 source_end_column=60}
  %constant.22 = u32[1]{0} constant({29})
  %shift_left.68 = u32[1]{0} shift-left(%xor.66, %constant.22), metadata={op_name="shift_left" source_file="/home/eporat/benchmarking_qwen_omni_tpu/.venv/lib/python3.11/site-packages/flax/nnx/rnglib.py" source_line=76 source_end_line=76 source_column=10 source_end_column=60}
  %constant.21 = u32[1]{0} constant({3})
  %shift_right_logical.69 = u32[1]{0} shift-right-logical(%xor.66, %constant.21), metadata={op_name="shift_right_logical" source_file="/home/eporat/benchmarking_qwen_omni_tpu/.venv/lib/python3.11/site-packages/flax/nnx/rnglib.py" source_line=76 source_end_line=76 source_column=10 source_end_column=60}
  %or.70 = u32[1]{0} or(%shift_left.68, %shift_right_logical.69), metadata={op_name="or" source_file="/home/eporat/benchmarking_qwen_omni_tpu/.venv/lib/python3.11/site-packages/flax/nnx/rnglib.py" source_line=76 source_end_line=76 source_column=10 source_end_column=60}
  %xor.71 = u32[1]{0} xor(%add.67, %or.70), metadata={op_name="xor" source_file="/home/eporat/benchmarking_qwen_omni_tpu/.venv/lib/python3.11/site-packages/flax/nnx/rnglib.py" source_line=76 source_end_line=76 source_column=10 source_end_column=60}
  %add.72 = u32[1]{0} add(%add.67, %xor.71), metadata={op_name="add" source_file="/home/eporat/benchmarking_qwen_omni_tpu/.venv/lib/python3.11/site-packages/flax/nnx/rnglib.py" source_line=76 source_end_line=76 source_column=10 source_end_column=60}
  %constant.20 = u32[1]{0} constant({16})
  %shift_left.73 = u32[1]{0} shift-left(%xor.71, %constant.20), metadata={op_name="shift_left" source_file="/home/eporat/benchmarking_qwen_omni_tpu/.venv/lib/python3.11/site-packages/flax/nnx/rnglib.py" source_line=76 source_end_line=76 source_column=10 source_end_column=60}
  %shift_right_logical.74 = u32[1]{0} shift-right-logical(%xor.71, %constant.20), metadata={op_name="shift_right_logical" source_file="/home/eporat/benchmarking_qwen_omni_tpu/.venv/lib/python3.11/site-packages/flax/nnx/rnglib.py" source_line=76 source_end_line=76 source_column=10 source_end_column=60}
  %or.75 = u32[1]{0} or(%shift_left.73, %shift_right_logical.74), metadata={op_name="or" source_file="/home/eporat/benchmarking_qwen_omni_tpu/.venv/lib/python3.11/site-packages/flax/nnx/rnglib.py" source_line=76 source_end_line=76 source_column=10 source_end_column=60}
  %xor.76 = u32[1]{0} xor(%add.72, %or.75), metadata={op_name="xor" source_file="/home/eporat/benchmarking_qwen_omni_tpu/.venv/lib/python3.11/site-packages/flax/nnx/rnglib.py" source_line=76 source_end_line=76 source_column=10 source_end_column=60}
  %add.77 = u32[1]{0} add(%add.72, %xor.76), metadata={op_name="add" source_file="/home/eporat/benchmarking_qwen_omni_tpu/.venv/lib/python3.11/site-packages/flax/nnx/rnglib.py" source_line=76 source_end_line=76 source_column=10 source_end_column=60}
  %add.82 = u32[1]{0} reshape(%xor.32), metadata={op_name="add" source_file="/home/eporat/benchmarking_qwen_omni_tpu/.venv/lib/python3.11/site-packages/flax/nnx/rnglib.py" source_line=76 source_end_line=76 source_column=10 source_end_column=60}
  %add.83 = u32[1]{0} add(%add.77, %add.82), metadata={op_name="add" source_file="/home/eporat/benchmarking_qwen_omni_tpu/.venv/lib/python3.11/site-packages/flax/nnx/rnglib.py" source_line=76 source_end_line=76 source_column=10 source_end_column=60}
  %constant.19 = u32[1]{0} constant({24})
  %shift_left.78 = u32[1]{0} shift-left(%xor.76, %constant.19), metadata={op_name="shift_left" source_file="/home/eporat/benchmarking_qwen_omni_tpu/.venv/lib/python3.11/site-packages/flax/nnx/rnglib.py" source_line=76 source_end_line=76 source_column=10 source_end_column=60}
  %constant.18 = u32[1]{0} constant({8})
  %shift_right_logical.79 = u32[1]{0} shift-right-logical(%xor.76, %constant.18), metadata={op_name="shift_right_logical" source_file="/home/eporat/benchmarking_qwen_omni_tpu/.venv/lib/python3.11/site-packages/flax/nnx/rnglib.py" source_line=76 source_end_line=76 source_column=10 source_end_column=60}
  %or.80 = u32[1]{0} or(%shift_left.78, %shift_right_logical.79), metadata={op_name="or" source_file="/home/eporat/benchmarking_qwen_omni_tpu/.venv/lib/python3.11/site-packages/flax/nnx/rnglib.py" source_line=76 source_end_line=76 source_column=10 source_end_column=60}
  %xor.81 = u32[1]{0} xor(%add.77, %or.80), metadata={op_name="xor" source_file="/home/eporat/benchmarking_qwen_omni_tpu/.venv/lib/python3.11/site-packages/flax/nnx/rnglib.py" source_line=76 source_end_line=76 source_column=10 source_end_column=60}
  %add.84 = u32[1]{0} reshape(%jit__threefry_fold_in_.11), metadata={op_name="add" source_file="/home/eporat/benchmarking_qwen_omni_tpu/.venv/lib/python3.11/site-packages/flax/nnx/rnglib.py" source_line=76 source_end_line=76 source_column=10 source_end_column=60}
  %add.85 = u32[1]{0} add(%xor.81, %add.84), metadata={op_name="add" source_file="/home/eporat/benchmarking_qwen_omni_tpu/.venv/lib/python3.11/site-packages/flax/nnx/rnglib.py" source_line=76 source_end_line=76 source_column=10 source_end_column=60}
  %constant.17 = u32[1]{0} constant({2})
  %add.86 = u32[1]{0} add(%add.85, %constant.17), metadata={op_name="add" source_file="/home/eporat/benchmarking_qwen_omni_tpu/.venv/lib/python3.11/site-packages/flax/nnx/rnglib.py" source_line=76 source_end_line=76 source_column=10 source_end_column=60}
  %add.87 = u32[1]{0} add(%add.83, %add.86), metadata={op_name="add" source_file="/home/eporat/benchmarking_qwen_omni_tpu/.venv/lib/python3.11/site-packages/flax/nnx/rnglib.py" source_line=76 source_end_line=76 source_column=10 source_end_column=60}
  %shift_left.88 = u32[1]{0} shift-left(%add.86, %constant.29), metadata={op_name="shift_left" source_file="/home/eporat/benchmarking_qwen_omni_tpu/.venv/lib/python3.11/site-packages/flax/nnx/rnglib.py" source_line=76 source_end_line=76 source_column=10 source_end_column=60}
  %shift_right_logical.89 = u32[1]{0} shift-right-logical(%add.86, %constant.28), metadata={op_name="shift_right_logical" source_file="/home/eporat/benchmarking_qwen_omni_tpu/.venv/lib/python3.11/site-packages/flax/nnx/rnglib.py" source_line=76 source_end_line=76 source_column=10 source_end_column=60}
  %or.90 = u32[1]{0} or(%shift_left.88, %shift_right_logical.89), metadata={op_name="or" source_file="/home/eporat/benchmarking_qwen_omni_tpu/.venv/lib/python3.11/site-packages/flax/nnx/rnglib.py" source_line=76 source_end_line=76 source_column=10 source_end_column=60}
  %xor.91 = u32[1]{0} xor(%add.87, %or.90), metadata={op_name="xor" source_file="/home/eporat/benchmarking_qwen_omni_tpu/.venv/lib/python3.11/site-packages/flax/nnx/rnglib.py" source_line=76 source_end_line=76 source_column=10 source_end_column=60}
  %add.92 = u32[1]{0} add(%add.87, %xor.91), metadata={op_name="add" source_file="/home/eporat/benchmarking_qwen_omni_tpu/.venv/lib/python3.11/site-packages/flax/nnx/rnglib.py" source_line=76 source_end_line=76 source_column=10 source_end_column=60}
  %shift_left.93 = u32[1]{0} shift-left(%xor.91, %constant.27), metadata={op_name="shift_left" source_file="/home/eporat/benchmarking_qwen_omni_tpu/.venv/lib/python3.11/site-packages/flax/nnx/rnglib.py" source_line=76 source_end_line=76 source_column=10 source_end_column=60}
  %shift_right_logical.94 = u32[1]{0} shift-right-logical(%xor.91, %constant.26), metadata={op_name="shift_right_logical" source_file="/home/eporat/benchmarking_qwen_omni_tpu/.venv/lib/python3.11/site-packages/flax/nnx/rnglib.py" source_line=76 source_end_line=76 source_column=10 source_end_column=60}
  %or.95 = u32[1]{0} or(%shift_left.93, %shift_right_logical.94), metadata={op_name="or" source_file="/home/eporat/benchmarking_qwen_omni_tpu/.venv/lib/python3.11/site-packages/flax/nnx/rnglib.py" source_line=76 source_end_line=76 source_column=10 source_end_column=60}
  %xor.96 = u32[1]{0} xor(%add.92, %or.95), metadata={op_name="xor" source_file="/home/eporat/benchmarking_qwen_omni_tpu/.venv/lib/python3.11/site-packages/flax/nnx/rnglib.py" source_line=76 source_end_line=76 source_column=10 source_end_column=60}
  %add.97 = u32[1]{0} add(%add.92, %xor.96), metadata={op_name="add" source_file="/home/eporat/benchmarking_qwen_omni_tpu/.venv/lib/python3.11/site-packages/flax/nnx/rnglib.py" source_line=76 source_end_line=76 source_column=10 source_end_column=60}
  %shift_left.98 = u32[1]{0} shift-left(%xor.96, %constant.25), metadata={op_name="shift_left" source_file="/home/eporat/benchmarking_qwen_omni_tpu/.venv/lib/python3.11/site-packages/flax/nnx/rnglib.py" source_line=76 source_end_line=76 source_column=10 source_end_column=60}
  %shift_right_logical.99 = u32[1]{0} shift-right-logical(%xor.96, %constant.24), metadata={op_name="shift_right_logical" source_file="/home/eporat/benchmarking_qwen_omni_tpu/.venv/lib/python3.11/site-packages/flax/nnx/rnglib.py" source_line=76 source_end_line=76 source_column=10 source_end_column=60}
  %or.100 = u32[1]{0} or(%shift_left.98, %shift_right_logical.99), metadata={op_name="or" source_file="/home/eporat/benchmarking_qwen_omni_tpu/.venv/lib/python3.11/site-packages/flax/nnx/rnglib.py" source_line=76 source_end_line=76 source_column=10 source_end_column=60}
  %xor.101 = u32[1]{0} xor(%add.97, %or.100), metadata={op_name="xor" source_file="/home/eporat/benchmarking_qwen_omni_tpu/.venv/lib/python3.11/site-packages/flax/nnx/rnglib.py" source_line=76 source_end_line=76 source_column=10 source_end_column=60}
  %add.102 = u32[1]{0} add(%add.97, %xor.101), metadata={op_name="add" source_file="/home/eporat/benchmarking_qwen_omni_tpu/.venv/lib/python3.11/site-packages/flax/nnx/rnglib.py" source_line=76 source_end_line=76 source_column=10 source_end_column=60}
  %add.107 = u32[1]{0} reshape(%jit__threefry_fold_in_.11), metadata={op_name="add" source_file="/home/eporat/benchmarking_qwen_omni_tpu/.venv/lib/python3.11/site-packages/flax/nnx/rnglib.py" source_line=76 source_end_line=76 source_column=10 source_end_column=60}
  %add.108 = u32[1]{0} add(%add.102, %add.107), metadata={op_name="add" source_file="/home/eporat/benchmarking_qwen_omni_tpu/.venv/lib/python3.11/site-packages/flax/nnx/rnglib.py" source_line=76 source_end_line=76 source_column=10 source_end_column=60}
  %shift_left.103 = u32[1]{0} shift-left(%xor.101, %constant.24), metadata={op_name="shift_left" source_file="/home/eporat/benchmarking_qwen_omni_tpu/.venv/lib/python3.11/site-packages/flax/nnx/rnglib.py" source_line=76 source_end_line=76 source_column=10 source_end_column=60}
  %shift_right_logical.104 = u32[1]{0} shift-right-logical(%xor.101, %constant.25), metadata={op_name="shift_right_logical" source_file="/home/eporat/benchmarking_qwen_omni_tpu/.venv/lib/python3.11/site-packages/flax/nnx/rnglib.py" source_line=76 source_end_line=76 source_column=10 source_end_column=60}
  %or.105 = u32[1]{0} or(%shift_left.103, %shift_right_logical.104), metadata={op_name="or" source_file="/home/eporat/benchmarking_qwen_omni_tpu/.venv/lib/python3.11/site-packages/flax/nnx/rnglib.py" source_line=76 source_end_line=76 source_column=10 source_end_column=60}
  %xor.106 = u32[1]{0} xor(%add.102, %or.105), metadata={op_name="xor" source_file="/home/eporat/benchmarking_qwen_omni_tpu/.venv/lib/python3.11/site-packages/flax/nnx/rnglib.py" source_line=76 source_end_line=76 source_column=10 source_end_column=60}
  %add.109 = u32[1]{0} reshape(%jit__threefry_fold_in_.12), metadata={op_name="add" source_file="/home/eporat/benchmarking_qwen_omni_tpu/.venv/lib/python3.11/site-packages/flax/nnx/rnglib.py" source_line=76 source_end_line=76 source_column=10 source_end_column=60}
  %add.110 = u32[1]{0} add(%xor.106, %add.109), metadata={op_name="add" source_file="/home/eporat/benchmarking_qwen_omni_tpu/.venv/lib/python3.11/site-packages/flax/nnx/rnglib.py" source_line=76 source_end_line=76 source_column=10 source_end_column=60}
  %add.111 = u32[1]{0} add(%add.110, %constant.21), metadata={op_name="add" source_file="/home/eporat/benchmarking_qwen_omni_tpu/.venv/lib/python3.11/site-packages/flax/nnx/rnglib.py" source_line=76 source_end_line=76 source_column=10 source_end_column=60}
  %add.112 = u32[1]{0} add(%add.108, %add.111), metadata={op_name="add" source_file="/home/eporat/benchmarking_qwen_omni_tpu/.venv/lib/python3.11/site-packages/flax/nnx/rnglib.py" source_line=76 source_end_line=76 source_column=10 source_end_column=60}
  %shift_left.113 = u32[1]{0} shift-left(%add.111, %constant.26), metadata={op_name="shift_left" source_file="/home/eporat/benchmarking_qwen_omni_tpu/.venv/lib/python3.11/site-packages/flax/nnx/rnglib.py" source_line=76 source_end_line=76 source_column=10 source_end_column=60}
  %shift_right_logical.114 = u32[1]{0} shift-right-logical(%add.111, %constant.27), metadata={op_name="shift_right_logical" source_file="/home/eporat/benchmarking_qwen_omni_tpu/.venv/lib/python3.11/site-packages/flax/nnx/rnglib.py" source_line=76 source_end_line=76 source_column=10 source_end_column=60}
  %or.115 = u32[1]{0} or(%shift_left.113, %shift_right_logical.114), metadata={op_name="or" source_file="/home/eporat/benchmarking_qwen_omni_tpu/.venv/lib/python3.11/site-packages/flax/nnx/rnglib.py" source_line=76 source_end_line=76 source_column=10 source_end_column=60}
  %xor.116 = u32[1]{0} xor(%add.112, %or.115), metadata={op_name="xor" source_file="/home/eporat/benchmarking_qwen_omni_tpu/.venv/lib/python3.11/site-packages/flax/nnx/rnglib.py" source_line=76 source_end_line=76 source_column=10 source_end_column=60}
  %add.117 = u32[1]{0} add(%add.112, %xor.116), metadata={op_name="add" source_file="/home/eporat/benchmarking_qwen_omni_tpu/.venv/lib/python3.11/site-packages/flax/nnx/rnglib.py" source_line=76 source_end_line=76 source_column=10 source_end_column=60}
  %shift_left.118 = u32[1]{0} shift-left(%xor.116, %constant.22), metadata={op_name="shift_left" source_file="/home/eporat/benchmarking_qwen_omni_tpu/.venv/lib/python3.11/site-packages/flax/nnx/rnglib.py" source_line=76 source_end_line=76 source_column=10 source_end_column=60}
  %shift_right_logical.119 = u32[1]{0} shift-right-logical(%xor.116, %constant.21), metadata={op_name="shift_right_logical" source_file="/home/eporat/benchmarking_qwen_omni_tpu/.venv/lib/python3.11/site-packages/flax/nnx/rnglib.py" source_line=76 source_end_line=76 source_column=10 source_end_column=60}
  %or.120 = u32[1]{0} or(%shift_left.118, %shift_right_logical.119), metadata={op_name="or" source_file="/home/eporat/benchmarking_qwen_omni_tpu/.venv/lib/python3.11/site-packages/flax/nnx/rnglib.py" source_line=76 source_end_line=76 source_column=10 source_end_column=60}
  %xor.121 = u32[1]{0} xor(%add.117, %or.120), metadata={op_name="xor" source_file="/home/eporat/benchmarking_qwen_omni_tpu/.venv/lib/python3.11/site-packages/flax/nnx/rnglib.py" source_line=76 source_end_line=76 source_column=10 source_end_column=60}
  %add.122 = u32[1]{0} add(%add.117, %xor.121), metadata={op_name="add" source_file="/home/eporat/benchmarking_qwen_omni_tpu/.venv/lib/python3.11/site-packages/flax/nnx/rnglib.py" source_line=76 source_end_line=76 source_column=10 source_end_column=60}
  %shift_left.123 = u32[1]{0} shift-left(%xor.121, %constant.20), metadata={op_name="shift_left" source_file="/home/eporat/benchmarking_qwen_omni_tpu/.venv/lib/python3.11/site-packages/flax/nnx/rnglib.py" source_line=76 source_end_line=76 source_column=10 source_end_column=60}
  %shift_right_logical.124 = u32[1]{0} shift-right-logical(%xor.121, %constant.20), metadata={op_name="shift_right_logical" source_file="/home/eporat/benchmarking_qwen_omni_tpu/.venv/lib/python3.11/site-packages/flax/nnx/rnglib.py" source_line=76 source_end_line=76 source_column=10 source_end_column=60}
  %or.125 = u32[1]{0} or(%shift_left.123, %shift_right_logical.124), metadata={op_name="or" source_file="/home/eporat/benchmarking_qwen_omni_tpu/.venv/lib/python3.11/site-packages/flax/nnx/rnglib.py" source_line=76 source_end_line=76 source_column=10 source_end_column=60}
  %xor.126 = u32[1]{0} xor(%add.122, %or.125), metadata={op_name="xor" source_file="/home/eporat/benchmarking_qwen_omni_tpu/.venv/lib/python3.11/site-packages/flax/nnx/rnglib.py" source_line=76 source_end_line=76 source_column=10 source_end_column=60}
  %add.127 = u32[1]{0} add(%add.122, %xor.126), metadata={op_name="add" source_file="/home/eporat/benchmarking_qwen_omni_tpu/.venv/lib/python3.11/site-packages/flax/nnx/rnglib.py" source_line=76 source_end_line=76 source_column=10 source_end_column=60}
  %add.132 = u32[1]{0} reshape(%jit__threefry_fold_in_.12), metadata={op_name="add" source_file="/home/eporat/benchmarking_qwen_omni_tpu/.venv/lib/python3.11/site-packages/flax/nnx/rnglib.py" source_line=76 source_end_line=76 source_column=10 source_end_column=60}
  %add.133 = u32[1]{0} add(%add.127, %add.132), metadata={op_name="add" source_file="/home/eporat/benchmarking_qwen_omni_tpu/.venv/lib/python3.11/site-packages/flax/nnx/rnglib.py" source_line=76 source_end_line=76 source_column=10 source_end_column=60}
  %shift_left.128 = u32[1]{0} shift-left(%xor.126, %constant.19), metadata={op_name="shift_left" source_file="/home/eporat/benchmarking_qwen_omni_tpu/.venv/lib/python3.11/site-packages/flax/nnx/rnglib.py" source_line=76 source_end_line=76 source_column=10 source_end_column=60}
  %shift_right_logical.129 = u32[1]{0} shift-right-logical(%xor.126, %constant.18), metadata={op_name="shift_right_logical" source_file="/home/eporat/benchmarking_qwen_omni_tpu/.venv/lib/python3.11/site-packages/flax/nnx/rnglib.py" source_line=76 source_end_line=76 source_column=10 source_end_column=60}
  %or.130 = u32[1]{0} or(%shift_left.128, %shift_right_logical.129), metadata={op_name="or" source_file="/home/eporat/benchmarking_qwen_omni_tpu/.venv/lib/python3.11/site-packages/flax/nnx/rnglib.py" source_line=76 source_end_line=76 source_column=10 source_end_column=60}
  %xor.131 = u32[1]{0} xor(%add.127, %or.130), metadata={op_name="xor" source_file="/home/eporat/benchmarking_qwen_omni_tpu/.venv/lib/python3.11/site-packages/flax/nnx/rnglib.py" source_line=76 source_end_line=76 source_column=10 source_end_column=60}
  %add.134 = u32[1]{0} reshape(%xor.32), metadata={op_name="add" source_file="/home/eporat/benchmarking_qwen_omni_tpu/.venv/lib/python3.11/site-packages/flax/nnx/rnglib.py" source_line=76 source_end_line=76 source_column=10 source_end_column=60}
  %add.135 = u32[1]{0} add(%xor.131, %add.134), metadata={op_name="add" source_file="/home/eporat/benchmarking_qwen_omni_tpu/.venv/lib/python3.11/site-packages/flax/nnx/rnglib.py" source_line=76 source_end_line=76 source_column=10 source_end_column=60}
  %constant.16 = u32[1]{0} constant({4})
  %add.136 = u32[1]{0} add(%add.135, %constant.16), metadata={op_name="add" source_file="/home/eporat/benchmarking_qwen_omni_tpu/.venv/lib/python3.11/site-packages/flax/nnx/rnglib.py" source_line=76 source_end_line=76 source_column=10 source_end_column=60}
  %add.137 = u32[1]{0} add(%add.133, %add.136), metadata={op_name="add" source_file="/home/eporat/benchmarking_qwen_omni_tpu/.venv/lib/python3.11/site-packages/flax/nnx/rnglib.py" source_line=76 source_end_line=76 source_column=10 source_end_column=60}
  %shift_left.138 = u32[1]{0} shift-left(%add.136, %constant.29), metadata={op_name="shift_left" source_file="/home/eporat/benchmarking_qwen_omni_tpu/.venv/lib/python3.11/site-packages/flax/nnx/rnglib.py" source_line=76 source_end_line=76 source_column=10 source_end_column=60}
  %shift_right_logical.139 = u32[1]{0} shift-right-logical(%add.136, %constant.28), metadata={op_name="shift_right_logical" source_file="/home/eporat/benchmarking_qwen_omni_tpu/.venv/lib/python3.11/site-packages/flax/nnx/rnglib.py" source_line=76 source_end_line=76 source_column=10 source_end_column=60}
  %or.140 = u32[1]{0} or(%shift_left.138, %shift_right_logical.139), metadata={op_name="or" source_file="/home/eporat/benchmarking_qwen_omni_tpu/.venv/lib/python3.11/site-packages/flax/nnx/rnglib.py" source_line=76 source_end_line=76 source_column=10 source_end_column=60}
  %xor.141 = u32[1]{0} xor(%add.137, %or.140), metadata={op_name="xor" source_file="/home/eporat/benchmarking_qwen_omni_tpu/.venv/lib/python3.11/site-packages/flax/nnx/rnglib.py" source_line=76 source_end_line=76 source_column=10 source_end_column=60}
  %add.142 = u32[1]{0} add(%add.137, %xor.141), metadata={op_name="add" source_file="/home/eporat/benchmarking_qwen_omni_tpu/.venv/lib/python3.11/site-packages/flax/nnx/rnglib.py" source_line=76 source_end_line=76 source_column=10 source_end_column=60}
  %shift_left.143 = u32[1]{0} shift-left(%xor.141, %constant.27), metadata={op_name="shift_left" source_file="/home/eporat/benchmarking_qwen_omni_tpu/.venv/lib/python3.11/site-packages/flax/nnx/rnglib.py" source_line=76 source_end_line=76 source_column=10 source_end_column=60}
  %shift_right_logical.144 = u32[1]{0} shift-right-logical(%xor.141, %constant.26), metadata={op_name="shift_right_logical" source_file="/home/eporat/benchmarking_qwen_omni_tpu/.venv/lib/python3.11/site-packages/flax/nnx/rnglib.py" source_line=76 source_end_line=76 source_column=10 source_end_column=60}
  %or.145 = u32[1]{0} or(%shift_left.143, %shift_right_logical.144), metadata={op_name="or" source_file="/home/eporat/benchmarking_qwen_omni_tpu/.venv/lib/python3.11/site-packages/flax/nnx/rnglib.py" source_line=76 source_end_line=76 source_column=10 source_end_column=60}
  %xor.146 = u32[1]{0} xor(%add.142, %or.145), metadata={op_name="xor" source_file="/home/eporat/benchmarking_qwen_omni_tpu/.venv/lib/python3.11/site-packages/flax/nnx/rnglib.py" source_line=76 source_end_line=76 source_column=10 source_end_column=60}
  %add.147 = u32[1]{0} add(%add.142, %xor.146), metadata={op_name="add" source_file="/home/eporat/benchmarking_qwen_omni_tpu/.venv/lib/python3.11/site-packages/flax/nnx/rnglib.py" source_line=76 source_end_line=76 source_column=10 source_end_column=60}
  %shift_left.148 = u32[1]{0} shift-left(%xor.146, %constant.25), metadata={op_name="shift_left" source_file="/home/eporat/benchmarking_qwen_omni_tpu/.venv/lib/python3.11/site-packages/flax/nnx/rnglib.py" source_line=76 source_end_line=76 source_column=10 source_end_column=60}
  %shift_right_logical.149 = u32[1]{0} shift-right-logical(%xor.146, %constant.24), metadata={op_name="shift_right_logical" source_file="/home/eporat/benchmarking_qwen_omni_tpu/.venv/lib/python3.11/site-packages/flax/nnx/rnglib.py" source_line=76 source_end_line=76 source_column=10 source_end_column=60}
  %or.150 = u32[1]{0} or(%shift_left.148, %shift_right_logical.149), metadata={op_name="or" source_file="/home/eporat/benchmarking_qwen_omni_tpu/.venv/lib/python3.11/site-packages/flax/nnx/rnglib.py" source_line=76 source_end_line=76 source_column=10 source_end_column=60}
  %xor.151 = u32[1]{0} xor(%add.147, %or.150), metadata={op_name="xor" source_file="/home/eporat/benchmarking_qwen_omni_tpu/.venv/lib/python3.11/site-packages/flax/nnx/rnglib.py" source_line=76 source_end_line=76 source_column=10 source_end_column=60}
  %add.152 = u32[1]{0} add(%add.147, %xor.151), metadata={op_name="add" source_file="/home/eporat/benchmarking_qwen_omni_tpu/.venv/lib/python3.11/site-packages/flax/nnx/rnglib.py" source_line=76 source_end_line=76 source_column=10 source_end_column=60}
  %add.157 = u32[1]{0} reshape(%xor.32), metadata={op_name="add" source_file="/home/eporat/benchmarking_qwen_omni_tpu/.venv/lib/python3.11/site-packages/flax/nnx/rnglib.py" source_line=76 source_end_line=76 source_column=10 source_end_column=60}
  %add.158 = u32[1]{0} add(%add.152, %add.157), metadata={op_name="add" source_file="/home/eporat/benchmarking_qwen_omni_tpu/.venv/lib/python3.11/site-packages/flax/nnx/rnglib.py" source_line=76 source_end_line=76 source_column=10 source_end_column=60}
  %shift_left.153 = u32[1]{0} shift-left(%xor.151, %constant.24), metadata={op_name="shift_left" source_file="/home/eporat/benchmarking_qwen_omni_tpu/.venv/lib/python3.11/site-packages/flax/nnx/rnglib.py" source_line=76 source_end_line=76 source_column=10 source_end_column=60}
  %shift_right_logical.154 = u32[1]{0} shift-right-logical(%xor.151, %constant.25), metadata={op_name="shift_right_logical" source_file="/home/eporat/benchmarking_qwen_omni_tpu/.venv/lib/python3.11/site-packages/flax/nnx/rnglib.py" source_line=76 source_end_line=76 source_column=10 source_end_column=60}
  %or.155 = u32[1]{0} or(%shift_left.153, %shift_right_logical.154), metadata={op_name="or" source_file="/home/eporat/benchmarking_qwen_omni_tpu/.venv/lib/python3.11/site-packages/flax/nnx/rnglib.py" source_line=76 source_end_line=76 source_column=10 source_end_column=60}
  %xor.156 = u32[1]{0} xor(%add.152, %or.155), metadata={op_name="xor" source_file="/home/eporat/benchmarking_qwen_omni_tpu/.venv/lib/python3.11/site-packages/flax/nnx/rnglib.py" source_line=76 source_end_line=76 source_column=10 source_end_column=60}
  %add.159 = u32[1]{0} reshape(%jit__threefry_fold_in_.11), metadata={op_name="add" source_file="/home/eporat/benchmarking_qwen_omni_tpu/.venv/lib/python3.11/site-packages/flax/nnx/rnglib.py" source_line=76 source_end_line=76 source_column=10 source_end_column=60}
  %add.160 = u32[1]{0} add(%xor.156, %add.159), metadata={op_name="add" source_file="/home/eporat/benchmarking_qwen_omni_tpu/.venv/lib/python3.11/site-packages/flax/nnx/rnglib.py" source_line=76 source_end_line=76 source_column=10 source_end_column=60}
  %constant.15 = u32[1]{0} constant({5})
  %add.161 = u32[1]{0} add(%add.160, %constant.15), metadata={op_name="add" source_file="/home/eporat/benchmarking_qwen_omni_tpu/.venv/lib/python3.11/site-packages/flax/nnx/rnglib.py" source_line=76 source_end_line=76 source_column=10 source_end_column=60}
  ROOT %tuple.162 = (u32[1]{0}, u32[1]{0}) tuple(%add.158, %add.161)
}

ENTRY %main.168 (key.1: u32[2], data.2: u32[]) -> u32[2] {
  %key.1 = u32[2]{0} parameter(0), metadata={op_name="key"}
  %slice.7 = u32[1]{0} slice(%key.1), slice={[0:1]}, metadata={op_name="jit(_threefry_fold_in)/slice" source_file="/home/eporat/benchmarking_qwen_omni_tpu/.venv/lib/python3.11/site-packages/flax/nnx/rnglib.py" source_line=76 source_end_line=76 source_column=10 source_end_column=60}
  %squeeze.8 = u32[] reshape(%slice.7), metadata={op_name="jit(_threefry_fold_in)/squeeze" source_file="/home/eporat/benchmarking_qwen_omni_tpu/.venv/lib/python3.11/site-packages/flax/nnx/rnglib.py" source_line=76 source_end_line=76 source_column=10 source_end_column=60}
  %slice.9 = u32[1]{0} slice(%key.1), slice={[1:2]}, metadata={op_name="jit(_threefry_fold_in)/slice" source_file="/home/eporat/benchmarking_qwen_omni_tpu/.venv/lib/python3.11/site-packages/flax/nnx/rnglib.py" source_line=76 source_end_line=76 source_column=10 source_end_column=60}
  %squeeze.10 = u32[] reshape(%slice.9), metadata={op_name="jit(_threefry_fold_in)/squeeze" source_file="/home/eporat/benchmarking_qwen_omni_tpu/.venv/lib/python3.11/site-packages/flax/nnx/rnglib.py" source_line=76 source_end_line=76 source_column=10 source_end_column=60}
  %data.2 = u32[] parameter(1), metadata={op_name="data"}
  %constant.3 = u32[] constant(32)
  %shift_right_logical.4 = u32[] shift-right-logical(%data.2, %constant.3), metadata={op_name="jit(_threefry_fold_in)/shift_right_logical" source_file="/home/eporat/benchmarking_qwen_omni_tpu/.venv/lib/python3.11/site-packages/flax/nnx/rnglib.py" source_line=76 source_end_line=76 source_column=10 source_end_column=60}
  %broadcast_in_dim.5 = u32[1]{0} reshape(%shift_right_logical.4), metadata={op_name="jit(_threefry_fold_in)/broadcast_in_dim" source_file="/home/eporat/benchmarking_qwen_omni_tpu/.venv/lib/python3.11/site-packages/flax/nnx/rnglib.py" source_line=76 source_end_line=76 source_column=10 source_end_column=60}
  %broadcast_in_dim.6 = u32[1]{0} reshape(%data.2), metadata={op_name="jit(_threefry_fold_in)/broadcast_in_dim" source_file="/home/eporat/benchmarking_qwen_omni_tpu/.venv/lib/python3.11/site-packages/flax/nnx/rnglib.py" source_line=76 source_end_line=76 source_column=10 source_end_column=60}
  %jit__threefry_fold_in_.164 = (u32[1]{0}, u32[1]{0}) call(%squeeze.8, %squeeze.10, %broadcast_in_dim.5, %broadcast_in_dim.6), to_apply=%threefry2x32.163, metadata={op_name="jit(_threefry_fold_in)" source_file="/home/eporat/benchmarking_qwen_omni_tpu/.venv/lib/python3.11/site-packages/flax/nnx/rnglib.py" source_line=76 source_end_line=76 source_column=10 source_end_column=60}
  %jit__threefry_fold_in_.165 = u32[1]{0} get-tuple-element(%jit__threefry_fold_in_.164), index=0, metadata={op_name="jit(_threefry_fold_in)" source_file="/home/eporat/benchmarking_qwen_omni_tpu/.venv/lib/python3.11/site-packages/flax/nnx/rnglib.py" source_line=76 source_end_line=76 source_column=10 source_end_column=60}
  %jit__threefry_fold_in_.166 = u32[1]{0} get-tuple-element(%jit__threefry_fold_in_.164), index=1, metadata={op_name="jit(_threefry_fold_in)" source_file="/home/eporat/benchmarking_qwen_omni_tpu/.venv/lib/python3.11/site-packages/flax/nnx/rnglib.py" source_line=76 source_end_line=76 source_column=10 source_end_column=60}
  ROOT %concatenate.167 = u32[2]{0} concatenate(%jit__threefry_fold_in_.165, %jit__threefry_fold_in_.166), dimensions={0}, metadata={op_name="jit(_threefry_fold_in)/concatenate" source_file="/home/eporat/benchmarking_qwen_omni_tpu/.venv/lib/python3.11/site-packages/flax/nnx/rnglib.py" source_line=76 source_end_line=76 source_column=10 source_end_column=60}
}

