HloModule jit_step_fun, buffer_donor={ (435, {}), (436, {}), (437, {}), (438, {}), (439, {}), (440, {}), (441, {}), (442, {}), (443, {}), (444, {}), (445, {}), (446, {}), (447, {}), (448, {}), (449, {}), (450, {}), (451, {}), (452, {}), (453, {}), (454, {}), (455, {}), (456, {}), (457, {}), (458, {}), (459, {}), (460, {}), (461, {}), (462, {}), (463, {}), (464, {}), (465, {}), (466, {}), (467, {}), (468, {}), (469, {}), (470, {}), (471, {}), (472, {}), (473, {}), (474, {}), (475, {}), (476, {}), (477, {}), (478, {}), (479, {}), (480, {}), (481, {}), (482, {}) }, entry_computation_layout={(bf16[152064,2048]{1,0:T(8,128)(2,1)}, bf16[2048]{0:T(1024)(128)(2,1)}, bf16[128,1536,2048]{2,1,0:T(8,128)(2,1)}, bf16[128,2048,768]{2,1,0:T(8,128)(2,1)}, bf16[128,2048]{1,0:T(8,128)(2,1)}, /*index=5*/bf16[2048]{0:T(1024)(128)(2,1)}, bf16[128]{0:T(256)(128)(2,1)}, bf16[2048,4096]{1,0:T(8,128)(2,1)}, bf16[128]{0:T(256)(128)(2,1)}, bf16[5120,2048]{1,0:T(8,128)(2,1)}, /*index=10*/bf16[262144,128]{1,0:T(8,128)(2,1)}, bf16[2048]{0:T(1024)(128)(2,1)}, bf16[128,1536,2048]{2,1,0:T(8,128)(2,1)}, bf16[128,2048,768]{2,1,0:T(8,128)(2,1)}, bf16[128,2048]{1,0:T(8,128)(2,1)}, /*index=15*/bf16[2048]{0:T(1024)(128)(2,1)}, bf16[128]{0:T(256)(128)(2,1)}, bf16[2048,4096]{1,0:T(8,128)(2,1)}, bf16[128]{0:T(256)(128)(2,1)}, bf16[5120,2048]{1,0:T(8,128)(2,1)}, /*index=20*/bf16[2048]{0:T(1024)(128)(2,1)}, bf16[128,1536,2048]{2,1,0:T(8,128)(2,1)}, bf16[128,2048,768]{2,1,0:T(8,128)(2,1)}, bf16[128,2048]{1,0:T(8,128)(2,1)}, bf16[2048]{0:T(1024)(128)(2,1)}, /*index=25*/bf16[128]{0:T(256)(128)(2,1)}, bf16[2048,4096]{1,0:T(8,128)(2,1)}, bf16[128]{0:T(256)(128)(2,1)}, bf16[5120,2048]{1,0:T(8,128)(2,1)}, bf16[2048]{0:T(1024)(128)(2,1)}, /*index=30*/bf16[128,1536,2048]{2,1,0:T(8,128)(2,1)}, bf16[128,2048,768]{2,1,0:T(8,128)(2,1)}, bf16[128,2048]{1,0:T(8,128)(2,1)}, bf16[2048]{0:T(1024)(128)(2,1)}, bf16[128]{0:T(256)(128)(2,1)}, /*index=35*/bf16[2048,4096]{1,0:T(8,128)(2,1)}, bf16[128]{0:T(256)(128)(2,1)}, bf16[5120,2048]{1,0:T(8,128)(2,1)}, bf16[2048]{0:T(1024)(128)(2,1)}, bf16[128,1536,2048]{2,1,0:T(8,128)(2,1)}, /*index=40*/bf16[128,2048,768]{2,1,0:T(8,128)(2,1)}, bf16[128,2048]{1,0:T(8,128)(2,1)}, bf16[2048]{0:T(1024)(128)(2,1)}, bf16[128]{0:T(256)(128)(2,1)}, bf16[2048,4096]{1,0:T(8,128)(2,1)}, /*index=45*/bf16[128]{0:T(256)(128)(2,1)}, bf16[5120,2048]{1,0:T(8,128)(2,1)}, bf16[2048]{0:T(1024)(128)(2,1)}, bf16[128,1536,2048]{2,1,0:T(8,128)(2,1)}, bf16[128,2048,768]{2,1,0:T(8,128)(2,1)}, /*index=50*/bf16[128,2048]{1,0:T(8,128)(2,1)}, bf16[2048]{0:T(1024)(128)(2,1)}, bf16[128]{0:T(256)(128)(2,1)}, bf16[2048,4096]{1,0:T(8,128)(2,1)}, bf16[128]{0:T(256)(128)(2,1)}, /*index=55*/bf16[5120,2048]{1,0:T(8,128)(2,1)}, bf16[2048]{0:T(1024)(128)(2,1)}, bf16[128,1536,2048]{2,1,0:T(8,128)(2,1)}, bf16[128,2048,768]{2,1,0:T(8,128)(2,1)}, bf16[128,2048]{1,0:T(8,128)(2,1)}, /*index=60*/bf16[2048]{0:T(1024)(128)(2,1)}, bf16[128]{0:T(256)(128)(2,1)}, bf16[2048,4096]{1,0:T(8,128)(2,1)}, bf16[128]{0:T(256)(128)(2,1)}, bf16[5120,2048]{1,0:T(8,128)(2,1)}, /*index=65*/bf16[2048]{0:T(1024)(128)(2,1)}, bf16[128,1536,2048]{2,1,0:T(8,128)(2,1)}, bf16[128,2048,768]{2,1,0:T(8,128)(2,1)}, bf16[128,2048]{1,0:T(8,128)(2,1)}, bf16[2048]{0:T(1024)(128)(2,1)}, /*index=70*/bf16[128]{0:T(256)(128)(2,1)}, bf16[2048,4096]{1,0:T(8,128)(2,1)}, bf16[128]{0:T(256)(128)(2,1)}, bf16[5120,2048]{1,0:T(8,128)(2,1)}, bf16[2048]{0:T(1024)(128)(2,1)}, /*index=75*/bf16[128,1536,2048]{2,1,0:T(8,128)(2,1)}, bf16[128,2048,768]{2,1,0:T(8,128)(2,1)}, bf16[128,2048]{1,0:T(8,128)(2,1)}, bf16[2048]{0:T(1024)(128)(2,1)}, bf16[128]{0:T(256)(128)(2,1)}, /*index=80*/bf16[2048,4096]{1,0:T(8,128)(2,1)}, bf16[128]{0:T(256)(128)(2,1)}, bf16[5120,2048]{1,0:T(8,128)(2,1)}, bf16[2048]{0:T(1024)(128)(2,1)}, bf16[128,1536,2048]{2,1,0:T(8,128)(2,1)}, /*index=85*/bf16[128,2048,768]{2,1,0:T(8,128)(2,1)}, bf16[128,2048]{1,0:T(8,128)(2,1)}, bf16[2048]{0:T(1024)(128)(2,1)}, bf16[128]{0:T(256)(128)(2,1)}, bf16[2048,4096]{1,0:T(8,128)(2,1)}, /*index=90*/bf16[128]{0:T(256)(128)(2,1)}, bf16[5120,2048]{1,0:T(8,128)(2,1)}, bf16[2048]{0:T(1024)(128)(2,1)}, bf16[128,1536,2048]{2,1,0:T(8,128)(2,1)}, bf16[128,2048,768]{2,1,0:T(8,128)(2,1)}, /*index=95*/bf16[128,2048]{1,0:T(8,128)(2,1)}, bf16[2048]{0:T(1024)(128)(2,1)}, bf16[128]{0:T(256)(128)(2,1)}, bf16[2048,4096]{1,0:T(8,128)(2,1)}, bf16[128]{0:T(256)(128)(2,1)}, /*index=100*/bf16[5120,2048]{1,0:T(8,128)(2,1)}, bf16[2048]{0:T(1024)(128)(2,1)}, bf16[128,1536,2048]{2,1,0:T(8,128)(2,1)}, bf16[128,2048,768]{2,1,0:T(8,128)(2,1)}, bf16[128,2048]{1,0:T(8,128)(2,1)}, /*index=105*/bf16[2048]{0:T(1024)(128)(2,1)}, bf16[128]{0:T(256)(128)(2,1)}, bf16[2048,4096]{1,0:T(8,128)(2,1)}, bf16[128]{0:T(256)(128)(2,1)}, bf16[5120,2048]{1,0:T(8,128)(2,1)}, /*index=110*/bf16[2048]{0:T(1024)(128)(2,1)}, bf16[128,1536,2048]{2,1,0:T(8,128)(2,1)}, bf16[128,2048,768]{2,1,0:T(8,128)(2,1)}, bf16[128,2048]{1,0:T(8,128)(2,1)}, bf16[2048]{0:T(1024)(128)(2,1)}, /*index=115*/bf16[128]{0:T(256)(128)(2,1)}, bf16[2048,4096]{1,0:T(8,128)(2,1)}, bf16[128]{0:T(256)(128)(2,1)}, bf16[5120,2048]{1,0:T(8,128)(2,1)}, bf16[2048]{0:T(1024)(128)(2,1)}, /*index=120*/bf16[128,1536,2048]{2,1,0:T(8,128)(2,1)}, bf16[128,2048,768]{2,1,0:T(8,128)(2,1)}, bf16[128,2048]{1,0:T(8,128)(2,1)}, bf16[2048]{0:T(1024)(128)(2,1)}, bf16[128]{0:T(256)(128)(2,1)}, /*index=125*/bf16[2048,4096]{1,0:T(8,128)(2,1)}, bf16[128]{0:T(256)(128)(2,1)}, bf16[5120,2048]{1,0:T(8,128)(2,1)}, bf16[2048]{0:T(1024)(128)(2,1)}, bf16[128,1536,2048]{2,1,0:T(8,128)(2,1)}, /*index=130*/bf16[128,2048,768]{2,1,0:T(8,128)(2,1)}, bf16[128,2048]{1,0:T(8,128)(2,1)}, bf16[2048]{0:T(1024)(128)(2,1)}, bf16[128]{0:T(256)(128)(2,1)}, bf16[2048,4096]{1,0:T(8,128)(2,1)}, /*index=135*/bf16[128]{0:T(256)(128)(2,1)}, bf16[5120,2048]{1,0:T(8,128)(2,1)}, bf16[2048]{0:T(1024)(128)(2,1)}, bf16[128,1536,2048]{2,1,0:T(8,128)(2,1)}, bf16[128,2048,768]{2,1,0:T(8,128)(2,1)}, /*index=140*/bf16[128,2048]{1,0:T(8,128)(2,1)}, bf16[2048]{0:T(1024)(128)(2,1)}, bf16[128]{0:T(256)(128)(2,1)}, bf16[2048,4096]{1,0:T(8,128)(2,1)}, bf16[128]{0:T(256)(128)(2,1)}, /*index=145*/bf16[5120,2048]{1,0:T(8,128)(2,1)}, bf16[2048]{0:T(1024)(128)(2,1)}, bf16[128,1536,2048]{2,1,0:T(8,128)(2,1)}, bf16[128,2048,768]{2,1,0:T(8,128)(2,1)}, bf16[128,2048]{1,0:T(8,128)(2,1)}, /*index=150*/bf16[2048]{0:T(1024)(128)(2,1)}, bf16[128]{0:T(256)(128)(2,1)}, bf16[2048,4096]{1,0:T(8,128)(2,1)}, bf16[128]{0:T(256)(128)(2,1)}, bf16[5120,2048]{1,0:T(8,128)(2,1)}, /*index=155*/bf16[2048]{0:T(1024)(128)(2,1)}, bf16[128,1536,2048]{2,1,0:T(8,128)(2,1)}, bf16[128,2048,768]{2,1,0:T(8,128)(2,1)}, bf16[128,2048]{1,0:T(8,128)(2,1)}, bf16[2048]{0:T(1024)(128)(2,1)}, /*index=160*/bf16[128]{0:T(256)(128)(2,1)}, bf16[2048,4096]{1,0:T(8,128)(2,1)}, bf16[128]{0:T(256)(128)(2,1)}, bf16[5120,2048]{1,0:T(8,128)(2,1)}, bf16[2048]{0:T(1024)(128)(2,1)}, /*index=165*/bf16[128,1536,2048]{2,1,0:T(8,128)(2,1)}, bf16[128,2048,768]{2,1,0:T(8,128)(2,1)}, bf16[128,2048]{1,0:T(8,128)(2,1)}, bf16[2048]{0:T(1024)(128)(2,1)}, bf16[128]{0:T(256)(128)(2,1)}, /*index=170*/bf16[2048,4096]{1,0:T(8,128)(2,1)}, bf16[128]{0:T(256)(128)(2,1)}, bf16[5120,2048]{1,0:T(8,128)(2,1)}, bf16[2048]{0:T(1024)(128)(2,1)}, bf16[128,1536,2048]{2,1,0:T(8,128)(2,1)}, /*index=175*/bf16[128,2048,768]{2,1,0:T(8,128)(2,1)}, bf16[128,2048]{1,0:T(8,128)(2,1)}, bf16[2048]{0:T(1024)(128)(2,1)}, bf16[128]{0:T(256)(128)(2,1)}, bf16[2048,4096]{1,0:T(8,128)(2,1)}, /*index=180*/bf16[128]{0:T(256)(128)(2,1)}, bf16[5120,2048]{1,0:T(8,128)(2,1)}, bf16[2048]{0:T(1024)(128)(2,1)}, bf16[128,1536,2048]{2,1,0:T(8,128)(2,1)}, bf16[128,2048,768]{2,1,0:T(8,128)(2,1)}, /*index=185*/bf16[128,2048]{1,0:T(8,128)(2,1)}, bf16[2048]{0:T(1024)(128)(2,1)}, bf16[128]{0:T(256)(128)(2,1)}, bf16[2048,4096]{1,0:T(8,128)(2,1)}, bf16[128]{0:T(256)(128)(2,1)}, /*index=190*/bf16[5120,2048]{1,0:T(8,128)(2,1)}, bf16[2048]{0:T(1024)(128)(2,1)}, bf16[128,1536,2048]{2,1,0:T(8,128)(2,1)}, bf16[128,2048,768]{2,1,0:T(8,128)(2,1)}, bf16[128,2048]{1,0:T(8,128)(2,1)}, /*index=195*/bf16[2048]{0:T(1024)(128)(2,1)}, bf16[128]{0:T(256)(128)(2,1)}, bf16[2048,4096]{1,0:T(8,128)(2,1)}, bf16[128]{0:T(256)(128)(2,1)}, bf16[5120,2048]{1,0:T(8,128)(2,1)}, /*index=200*/bf16[2048]{0:T(1024)(128)(2,1)}, bf16[128,1536,2048]{2,1,0:T(8,128)(2,1)}, bf16[128,2048,768]{2,1,0:T(8,128)(2,1)}, bf16[128,2048]{1,0:T(8,128)(2,1)}, bf16[2048]{0:T(1024)(128)(2,1)}, /*index=205*/bf16[128]{0:T(256)(128)(2,1)}, bf16[2048,4096]{1,0:T(8,128)(2,1)}, bf16[128]{0:T(256)(128)(2,1)}, bf16[5120,2048]{1,0:T(8,128)(2,1)}, bf16[2048]{0:T(1024)(128)(2,1)}, /*index=210*/bf16[128,1536,2048]{2,1,0:T(8,128)(2,1)}, bf16[128,2048,768]{2,1,0:T(8,128)(2,1)}, bf16[128,2048]{1,0:T(8,128)(2,1)}, bf16[2048]{0:T(1024)(128)(2,1)}, bf16[128]{0:T(256)(128)(2,1)}, /*index=215*/bf16[2048,4096]{1,0:T(8,128)(2,1)}, bf16[128]{0:T(256)(128)(2,1)}, bf16[5120,2048]{1,0:T(8,128)(2,1)}, bf16[2048]{0:T(1024)(128)(2,1)}, bf16[128,1536,2048]{2,1,0:T(8,128)(2,1)}, /*index=220*/bf16[128,2048,768]{2,1,0:T(8,128)(2,1)}, bf16[128,2048]{1,0:T(8,128)(2,1)}, bf16[2048]{0:T(1024)(128)(2,1)}, bf16[128]{0:T(256)(128)(2,1)}, bf16[2048,4096]{1,0:T(8,128)(2,1)}, /*index=225*/bf16[128]{0:T(256)(128)(2,1)}, bf16[5120,2048]{1,0:T(8,128)(2,1)}, bf16[2048]{0:T(1024)(128)(2,1)}, bf16[128,1536,2048]{2,1,0:T(8,128)(2,1)}, bf16[128,2048,768]{2,1,0:T(8,128)(2,1)}, /*index=230*/bf16[128,2048]{1,0:T(8,128)(2,1)}, bf16[2048]{0:T(1024)(128)(2,1)}, bf16[128]{0:T(256)(128)(2,1)}, bf16[2048,4096]{1,0:T(8,128)(2,1)}, bf16[128]{0:T(256)(128)(2,1)}, /*index=235*/bf16[5120,2048]{1,0:T(8,128)(2,1)}, bf16[2048]{0:T(1024)(128)(2,1)}, bf16[128,1536,2048]{2,1,0:T(8,128)(2,1)}, bf16[128,2048,768]{2,1,0:T(8,128)(2,1)}, bf16[128,2048]{1,0:T(8,128)(2,1)}, /*index=240*/bf16[2048]{0:T(1024)(128)(2,1)}, bf16[128]{0:T(256)(128)(2,1)}, bf16[2048,4096]{1,0:T(8,128)(2,1)}, bf16[128]{0:T(256)(128)(2,1)}, bf16[5120,2048]{1,0:T(8,128)(2,1)}, /*index=245*/bf16[2048]{0:T(1024)(128)(2,1)}, bf16[128,1536,2048]{2,1,0:T(8,128)(2,1)}, bf16[128,2048,768]{2,1,0:T(8,128)(2,1)}, bf16[128,2048]{1,0:T(8,128)(2,1)}, bf16[2048]{0:T(1024)(128)(2,1)}, /*index=250*/bf16[128]{0:T(256)(128)(2,1)}, bf16[2048,4096]{1,0:T(8,128)(2,1)}, bf16[128]{0:T(256)(128)(2,1)}, bf16[5120,2048]{1,0:T(8,128)(2,1)}, bf16[2048]{0:T(1024)(128)(2,1)}, /*index=255*/bf16[128,1536,2048]{2,1,0:T(8,128)(2,1)}, bf16[128,2048,768]{2,1,0:T(8,128)(2,1)}, bf16[128,2048]{1,0:T(8,128)(2,1)}, bf16[2048]{0:T(1024)(128)(2,1)}, bf16[128]{0:T(256)(128)(2,1)}, /*index=260*/bf16[2048,4096]{1,0:T(8,128)(2,1)}, bf16[128]{0:T(256)(128)(2,1)}, bf16[5120,2048]{1,0:T(8,128)(2,1)}, bf16[2048]{0:T(1024)(128)(2,1)}, bf16[128,1536,2048]{2,1,0:T(8,128)(2,1)}, /*index=265*/bf16[128,2048,768]{2,1,0:T(8,128)(2,1)}, bf16[128,2048]{1,0:T(8,128)(2,1)}, bf16[2048]{0:T(1024)(128)(2,1)}, bf16[128]{0:T(256)(128)(2,1)}, bf16[2048,4096]{1,0:T(8,128)(2,1)}, /*index=270*/bf16[128]{0:T(256)(128)(2,1)}, bf16[5120,2048]{1,0:T(8,128)(2,1)}, bf16[2048]{0:T(1024)(128)(2,1)}, bf16[128,1536,2048]{2,1,0:T(8,128)(2,1)}, bf16[128,2048,768]{2,1,0:T(8,128)(2,1)}, /*index=275*/bf16[128,2048]{1,0:T(8,128)(2,1)}, bf16[2048]{0:T(1024)(128)(2,1)}, bf16[128]{0:T(256)(128)(2,1)}, bf16[2048,4096]{1,0:T(8,128)(2,1)}, bf16[128]{0:T(256)(128)(2,1)}, /*index=280*/bf16[5120,2048]{1,0:T(8,128)(2,1)}, bf16[2048]{0:T(1024)(128)(2,1)}, bf16[128,1536,2048]{2,1,0:T(8,128)(2,1)}, bf16[128,2048,768]{2,1,0:T(8,128)(2,1)}, bf16[128,2048]{1,0:T(8,128)(2,1)}, /*index=285*/bf16[2048]{0:T(1024)(128)(2,1)}, bf16[128]{0:T(256)(128)(2,1)}, bf16[2048,4096]{1,0:T(8,128)(2,1)}, bf16[128]{0:T(256)(128)(2,1)}, bf16[5120,2048]{1,0:T(8,128)(2,1)}, /*index=290*/bf16[2048]{0:T(1024)(128)(2,1)}, bf16[128,1536,2048]{2,1,0:T(8,128)(2,1)}, bf16[128,2048,768]{2,1,0:T(8,128)(2,1)}, bf16[128,2048]{1,0:T(8,128)(2,1)}, bf16[2048]{0:T(1024)(128)(2,1)}, /*index=295*/bf16[128]{0:T(256)(128)(2,1)}, bf16[2048,4096]{1,0:T(8,128)(2,1)}, bf16[128]{0:T(256)(128)(2,1)}, bf16[5120,2048]{1,0:T(8,128)(2,1)}, bf16[2048]{0:T(1024)(128)(2,1)}, /*index=300*/bf16[128,1536,2048]{2,1,0:T(8,128)(2,1)}, bf16[128,2048,768]{2,1,0:T(8,128)(2,1)}, bf16[128,2048]{1,0:T(8,128)(2,1)}, bf16[2048]{0:T(1024)(128)(2,1)}, bf16[128]{0:T(256)(128)(2,1)}, /*index=305*/bf16[2048,4096]{1,0:T(8,128)(2,1)}, bf16[128]{0:T(256)(128)(2,1)}, bf16[5120,2048]{1,0:T(8,128)(2,1)}, bf16[2048]{0:T(1024)(128)(2,1)}, bf16[128,1536,2048]{2,1,0:T(8,128)(2,1)}, /*index=310*/bf16[128,2048,768]{2,1,0:T(8,128)(2,1)}, bf16[128,2048]{1,0:T(8,128)(2,1)}, bf16[2048]{0:T(1024)(128)(2,1)}, bf16[128]{0:T(256)(128)(2,1)}, bf16[2048,4096]{1,0:T(8,128)(2,1)}, /*index=315*/bf16[128]{0:T(256)(128)(2,1)}, bf16[5120,2048]{1,0:T(8,128)(2,1)}, bf16[2048]{0:T(1024)(128)(2,1)}, bf16[128,1536,2048]{2,1,0:T(8,128)(2,1)}, bf16[128,2048,768]{2,1,0:T(8,128)(2,1)}, /*index=320*/bf16[128,2048]{1,0:T(8,128)(2,1)}, bf16[2048]{0:T(1024)(128)(2,1)}, bf16[128]{0:T(256)(128)(2,1)}, bf16[2048,4096]{1,0:T(8,128)(2,1)}, bf16[128]{0:T(256)(128)(2,1)}, /*index=325*/bf16[5120,2048]{1,0:T(8,128)(2,1)}, bf16[2048]{0:T(1024)(128)(2,1)}, bf16[128,1536,2048]{2,1,0:T(8,128)(2,1)}, bf16[128,2048,768]{2,1,0:T(8,128)(2,1)}, bf16[128,2048]{1,0:T(8,128)(2,1)}, /*index=330*/bf16[2048]{0:T(1024)(128)(2,1)}, bf16[128]{0:T(256)(128)(2,1)}, bf16[2048,4096]{1,0:T(8,128)(2,1)}, bf16[128]{0:T(256)(128)(2,1)}, bf16[5120,2048]{1,0:T(8,128)(2,1)}, /*index=335*/bf16[2048]{0:T(1024)(128)(2,1)}, bf16[128,1536,2048]{2,1,0:T(8,128)(2,1)}, bf16[128,2048,768]{2,1,0:T(8,128)(2,1)}, bf16[128,2048]{1,0:T(8,128)(2,1)}, bf16[2048]{0:T(1024)(128)(2,1)}, /*index=340*/bf16[128]{0:T(256)(128)(2,1)}, bf16[2048,4096]{1,0:T(8,128)(2,1)}, bf16[128]{0:T(256)(128)(2,1)}, bf16[5120,2048]{1,0:T(8,128)(2,1)}, bf16[2048]{0:T(1024)(128)(2,1)}, /*index=345*/bf16[128,1536,2048]{2,1,0:T(8,128)(2,1)}, bf16[128,2048,768]{2,1,0:T(8,128)(2,1)}, bf16[128,2048]{1,0:T(8,128)(2,1)}, bf16[2048]{0:T(1024)(128)(2,1)}, bf16[128]{0:T(256)(128)(2,1)}, /*index=350*/bf16[2048,4096]{1,0:T(8,128)(2,1)}, bf16[128]{0:T(256)(128)(2,1)}, bf16[5120,2048]{1,0:T(8,128)(2,1)}, bf16[2048]{0:T(1024)(128)(2,1)}, bf16[128,1536,2048]{2,1,0:T(8,128)(2,1)}, /*index=355*/bf16[128,2048,768]{2,1,0:T(8,128)(2,1)}, bf16[128,2048]{1,0:T(8,128)(2,1)}, bf16[2048]{0:T(1024)(128)(2,1)}, bf16[128]{0:T(256)(128)(2,1)}, bf16[2048,4096]{1,0:T(8,128)(2,1)}, /*index=360*/bf16[128]{0:T(256)(128)(2,1)}, bf16[5120,2048]{1,0:T(8,128)(2,1)}, bf16[2048]{0:T(1024)(128)(2,1)}, bf16[128,1536,2048]{2,1,0:T(8,128)(2,1)}, bf16[128,2048,768]{2,1,0:T(8,128)(2,1)}, /*index=365*/bf16[128,2048]{1,0:T(8,128)(2,1)}, bf16[2048]{0:T(1024)(128)(2,1)}, bf16[128]{0:T(256)(128)(2,1)}, bf16[2048,4096]{1,0:T(8,128)(2,1)}, bf16[128]{0:T(256)(128)(2,1)}, /*index=370*/bf16[5120,2048]{1,0:T(8,128)(2,1)}, bf16[2048]{0:T(1024)(128)(2,1)}, bf16[128,1536,2048]{2,1,0:T(8,128)(2,1)}, bf16[128,2048,768]{2,1,0:T(8,128)(2,1)}, bf16[128,2048]{1,0:T(8,128)(2,1)}, /*index=375*/bf16[2048]{0:T(1024)(128)(2,1)}, bf16[128]{0:T(256)(128)(2,1)}, bf16[2048,4096]{1,0:T(8,128)(2,1)}, bf16[128]{0:T(256)(128)(2,1)}, bf16[5120,2048]{1,0:T(8,128)(2,1)}, /*index=380*/bf16[2048]{0:T(1024)(128)(2,1)}, bf16[128,1536,2048]{2,1,0:T(8,128)(2,1)}, bf16[128,2048,768]{2,1,0:T(8,128)(2,1)}, bf16[128,2048]{1,0:T(8,128)(2,1)}, bf16[2048]{0:T(1024)(128)(2,1)}, /*index=385*/bf16[128]{0:T(256)(128)(2,1)}, bf16[2048,4096]{1,0:T(8,128)(2,1)}, bf16[128]{0:T(256)(128)(2,1)}, bf16[5120,2048]{1,0:T(8,128)(2,1)}, bf16[2048]{0:T(1024)(128)(2,1)}, /*index=390*/bf16[128,1536,2048]{2,1,0:T(8,128)(2,1)}, bf16[128,2048,768]{2,1,0:T(8,128)(2,1)}, bf16[128,2048]{1,0:T(8,128)(2,1)}, bf16[2048]{0:T(1024)(128)(2,1)}, bf16[128]{0:T(256)(128)(2,1)}, /*index=395*/bf16[2048,4096]{1,0:T(8,128)(2,1)}, bf16[128]{0:T(256)(128)(2,1)}, bf16[5120,2048]{1,0:T(8,128)(2,1)}, bf16[2048]{0:T(1024)(128)(2,1)}, bf16[128,1536,2048]{2,1,0:T(8,128)(2,1)}, /*index=400*/bf16[128,2048,768]{2,1,0:T(8,128)(2,1)}, bf16[128,2048]{1,0:T(8,128)(2,1)}, bf16[2048]{0:T(1024)(128)(2,1)}, bf16[128]{0:T(256)(128)(2,1)}, bf16[2048,4096]{1,0:T(8,128)(2,1)}, /*index=405*/bf16[128]{0:T(256)(128)(2,1)}, bf16[5120,2048]{1,0:T(8,128)(2,1)}, bf16[2048]{0:T(1024)(128)(2,1)}, bf16[128,1536,2048]{2,1,0:T(8,128)(2,1)}, bf16[128,2048,768]{2,1,0:T(8,128)(2,1)}, /*index=410*/bf16[128,2048]{1,0:T(8,128)(2,1)}, bf16[2048]{0:T(1024)(128)(2,1)}, bf16[128]{0:T(256)(128)(2,1)}, bf16[2048,4096]{1,0:T(8,128)(2,1)}, bf16[128]{0:T(256)(128)(2,1)}, /*index=415*/bf16[5120,2048]{1,0:T(8,128)(2,1)}, bf16[2048]{0:T(1024)(128)(2,1)}, bf16[128,1536,2048]{2,1,0:T(8,128)(2,1)}, bf16[128,2048,768]{2,1,0:T(8,128)(2,1)}, bf16[128,2048]{1,0:T(8,128)(2,1)}, /*index=420*/bf16[2048]{0:T(1024)(128)(2,1)}, bf16[128]{0:T(256)(128)(2,1)}, bf16[2048,4096]{1,0:T(8,128)(2,1)}, bf16[128]{0:T(256)(128)(2,1)}, bf16[5120,2048]{1,0:T(8,128)(2,1)}, /*index=425*/bf16[2048]{0:T(1024)(128)(2,1)}, bf16[128,1536,2048]{2,1,0:T(8,128)(2,1)}, bf16[128,2048,768]{2,1,0:T(8,128)(2,1)}, bf16[128,2048]{1,0:T(8,128)(2,1)}, bf16[2048]{0:T(1024)(128)(2,1)}, /*index=430*/bf16[128]{0:T(256)(128)(2,1)}, bf16[2048,4096]{1,0:T(8,128)(2,1)}, bf16[128]{0:T(256)(128)(2,1)}, bf16[5120,2048]{1,0:T(8,128)(2,1)}, bf16[2048]{0:T(1024)(128)(2,1)}, /*index=435*/bf16[14813,32,4,2,128]{4,3,2,1,0:T(2,128)(2,1)}, bf16[14813,32,4,2,128]{4,3,2,1,0:T(2,128)(2,1)}, bf16[14813,32,4,2,128]{4,3,2,1,0:T(2,128)(2,1)}, bf16[14813,32,4,2,128]{4,3,2,1,0:T(2,128)(2,1)}, bf16[14813,32,4,2,128]{4,3,2,1,0:T(2,128)(2,1)}, /*index=440*/bf16[14813,32,4,2,128]{4,3,2,1,0:T(2,128)(2,1)}, bf16[14813,32,4,2,128]{4,3,2,1,0:T(2,128)(2,1)}, bf16[14813,32,4,2,128]{4,3,2,1,0:T(2,128)(2,1)}, bf16[14813,32,4,2,128]{4,3,2,1,0:T(2,128)(2,1)}, bf16[14813,32,4,2,128]{4,3,2,1,0:T(2,128)(2,1)}, /*index=445*/bf16[14813,32,4,2,128]{4,3,2,1,0:T(2,128)(2,1)}, bf16[14813,32,4,2,128]{4,3,2,1,0:T(2,128)(2,1)}, bf16[14813,32,4,2,128]{4,3,2,1,0:T(2,128)(2,1)}, bf16[14813,32,4,2,128]{4,3,2,1,0:T(2,128)(2,1)}, bf16[14813,32,4,2,128]{4,3,2,1,0:T(2,128)(2,1)}, /*index=450*/bf16[14813,32,4,2,128]{4,3,2,1,0:T(2,128)(2,1)}, bf16[14813,32,4,2,128]{4,3,2,1,0:T(2,128)(2,1)}, bf16[14813,32,4,2,128]{4,3,2,1,0:T(2,128)(2,1)}, bf16[14813,32,4,2,128]{4,3,2,1,0:T(2,128)(2,1)}, bf16[14813,32,4,2,128]{4,3,2,1,0:T(2,128)(2,1)}, /*index=455*/bf16[14813,32,4,2,128]{4,3,2,1,0:T(2,128)(2,1)}, bf16[14813,32,4,2,128]{4,3,2,1,0:T(2,128)(2,1)}, bf16[14813,32,4,2,128]{4,3,2,1,0:T(2,128)(2,1)}, bf16[14813,32,4,2,128]{4,3,2,1,0:T(2,128)(2,1)}, bf16[14813,32,4,2,128]{4,3,2,1,0:T(2,128)(2,1)}, /*index=460*/bf16[14813,32,4,2,128]{4,3,2,1,0:T(2,128)(2,1)}, bf16[14813,32,4,2,128]{4,3,2,1,0:T(2,128)(2,1)}, bf16[14813,32,4,2,128]{4,3,2,1,0:T(2,128)(2,1)}, bf16[14813,32,4,2,128]{4,3,2,1,0:T(2,128)(2,1)}, bf16[14813,32,4,2,128]{4,3,2,1,0:T(2,128)(2,1)}, /*index=465*/bf16[14813,32,4,2,128]{4,3,2,1,0:T(2,128)(2,1)}, bf16[14813,32,4,2,128]{4,3,2,1,0:T(2,128)(2,1)}, bf16[14813,32,4,2,128]{4,3,2,1,0:T(2,128)(2,1)}, bf16[14813,32,4,2,128]{4,3,2,1,0:T(2,128)(2,1)}, bf16[14813,32,4,2,128]{4,3,2,1,0:T(2,128)(2,1)}, /*index=470*/bf16[14813,32,4,2,128]{4,3,2,1,0:T(2,128)(2,1)}, bf16[14813,32,4,2,128]{4,3,2,1,0:T(2,128)(2,1)}, bf16[14813,32,4,2,128]{4,3,2,1,0:T(2,128)(2,1)}, bf16[14813,32,4,2,128]{4,3,2,1,0:T(2,128)(2,1)}, bf16[14813,32,4,2,128]{4,3,2,1,0:T(2,128)(2,1)}, /*index=475*/bf16[14813,32,4,2,128]{4,3,2,1,0:T(2,128)(2,1)}, bf16[14813,32,4,2,128]{4,3,2,1,0:T(2,128)(2,1)}, bf16[14813,32,4,2,128]{4,3,2,1,0:T(2,128)(2,1)}, bf16[14813,32,4,2,128]{4,3,2,1,0:T(2,128)(2,1)}, bf16[14813,32,4,2,128]{4,3,2,1,0:T(2,128)(2,1)}, /*index=480*/bf16[14813,32,4,2,128]{4,3,2,1,0:T(2,128)(2,1)}, bf16[14813,32,4,2,128]{4,3,2,1,0:T(2,128)(2,1)}, bf16[14813,32,4,2,128]{4,3,2,1,0:T(2,128)(2,1)}, s32[16]{0:T(128)}, s32[16]{0:T(128)}, /*index=485*/s32[131072]{0:T(1024)}, s32[256]{0:T(256)}, s32[257]{0:T(512)}, s32[3]{0:T(128)})->(bf16[14813,32,4,2,128]{4,3,2,1,0:T(2,128)(2,1)}, bf16[14813,32,4,2,128]{4,3,2,1,0:T(2,128)(2,1)}, bf16[14813,32,4,2,128]{4,3,2,1,0:T(2,128)(2,1)}, bf16[14813,32,4,2,128]{4,3,2,1,0:T(2,128)(2,1)}, bf16[14813,32,4,2,128]{4,3,2,1,0:T(2,128)(2,1)}, /*index=5*/bf16[14813,32,4,2,128]{4,3,2,1,0:T(2,128)(2,1)}, bf16[14813,32,4,2,128]{4,3,2,1,0:T(2,128)(2,1)}, bf16[14813,32,4,2,128]{4,3,2,1,0:T(2,128)(2,1)}, bf16[14813,32,4,2,128]{4,3,2,1,0:T(2,128)(2,1)}, bf16[14813,32,4,2,128]{4,3,2,1,0:T(2,128)(2,1)}, /*index=10*/bf16[14813,32,4,2,128]{4,3,2,1,0:T(2,128)(2,1)}, bf16[14813,32,4,2,128]{4,3,2,1,0:T(2,128)(2,1)}, bf16[14813,32,4,2,128]{4,3,2,1,0:T(2,128)(2,1)}, bf16[14813,32,4,2,128]{4,3,2,1,0:T(2,128)(2,1)}, bf16[14813,32,4,2,128]{4,3,2,1,0:T(2,128)(2,1)}, /*index=15*/bf16[14813,32,4,2,128]{4,3,2,1,0:T(2,128)(2,1)}, bf16[14813,32,4,2,128]{4,3,2,1,0:T(2,128)(2,1)}, bf16[14813,32,4,2,128]{4,3,2,1,0:T(2,128)(2,1)}, bf16[14813,32,4,2,128]{4,3,2,1,0:T(2,128)(2,1)}, bf16[14813,32,4,2,128]{4,3,2,1,0:T(2,128)(2,1)}, /*index=20*/bf16[14813,32,4,2,128]{4,3,2,1,0:T(2,128)(2,1)}, bf16[14813,32,4,2,128]{4,3,2,1,0:T(2,128)(2,1)}, bf16[14813,32,4,2,128]{4,3,2,1,0:T(2,128)(2,1)}, bf16[14813,32,4,2,128]{4,3,2,1,0:T(2,128)(2,1)}, bf16[14813,32,4,2,128]{4,3,2,1,0:T(2,128)(2,1)}, /*index=25*/bf16[14813,32,4,2,128]{4,3,2,1,0:T(2,128)(2,1)}, bf16[14813,32,4,2,128]{4,3,2,1,0:T(2,128)(2,1)}, bf16[14813,32,4,2,128]{4,3,2,1,0:T(2,128)(2,1)}, bf16[14813,32,4,2,128]{4,3,2,1,0:T(2,128)(2,1)}, bf16[14813,32,4,2,128]{4,3,2,1,0:T(2,128)(2,1)}, /*index=30*/bf16[14813,32,4,2,128]{4,3,2,1,0:T(2,128)(2,1)}, bf16[14813,32,4,2,128]{4,3,2,1,0:T(2,128)(2,1)}, bf16[14813,32,4,2,128]{4,3,2,1,0:T(2,128)(2,1)}, bf16[14813,32,4,2,128]{4,3,2,1,0:T(2,128)(2,1)}, bf16[14813,32,4,2,128]{4,3,2,1,0:T(2,128)(2,1)}, /*index=35*/bf16[14813,32,4,2,128]{4,3,2,1,0:T(2,128)(2,1)}, bf16[14813,32,4,2,128]{4,3,2,1,0:T(2,128)(2,1)}, bf16[14813,32,4,2,128]{4,3,2,1,0:T(2,128)(2,1)}, bf16[14813,32,4,2,128]{4,3,2,1,0:T(2,128)(2,1)}, bf16[14813,32,4,2,128]{4,3,2,1,0:T(2,128)(2,1)}, /*index=40*/bf16[14813,32,4,2,128]{4,3,2,1,0:T(2,128)(2,1)}, bf16[14813,32,4,2,128]{4,3,2,1,0:T(2,128)(2,1)}, bf16[14813,32,4,2,128]{4,3,2,1,0:T(2,128)(2,1)}, bf16[14813,32,4,2,128]{4,3,2,1,0:T(2,128)(2,1)}, bf16[14813,32,4,2,128]{4,3,2,1,0:T(2,128)(2,1)}, /*index=45*/bf16[14813,32,4,2,128]{4,3,2,1,0:T(2,128)(2,1)}, bf16[14813,32,4,2,128]{4,3,2,1,0:T(2,128)(2,1)}, bf16[14813,32,4,2,128]{4,3,2,1,0:T(2,128)(2,1)}, bf16[16,2048]{1,0:T(8,128)(2,1)})}, allow_spmd_sharding_propagation_to_parameters={false,false,false,false,false,false,false,false,false,false,false,false,false,false,false,false,false,false,false,false,false,false,false,false,false,false,false,false,false,false,false,false,false,false,false,false,false,false,false,false,false,false,false,false,false,false,false,false,false,false,false,false,false,false,false,false,false,false,false,false,false,false,false,false,false,false,false,false,false,false,false,false,false,false,false,false,false,false,false,false,false,false,false,false,false,false,false,false,false,false,false,false,false,false,false,false,false,false,false,false,false,false,false,false,false,false,false,false,false,false,false,false,false,false,false,false,false,false,false,false,false,false,false,false,false,false,false,false,false,false,false,false,false,false,false,false,false,false,false,false,false,false,false,false,false,false,false,false,false,false,false,false,false,false,false,false,false,false,false,false,false,false,false,false,false,false,false,false,false,false,false,false,false,false,false,false,false,false,false,false,false,false,false,false,false,false,false,false,false,false,false,false,false,false,false,false,false,false,false,false,false,false,false,false,false,false,false,false,false,false,false,false,false,false,false,false,false,false,false,false,false,false,false,false,false,false,false,false,false,false,false,false,false,false,false,false,false,false,false,false,false,false,false,false,false,false,false,false,false,false,false,false,false,false,false,false,false,false,false,false,false,false,false,false,false,false,false,false,false,false,false,false,false,false,false,false,false,false,false,false,false,false,false,false,false,false,false,false,false,false,false,false,false,false,false,false,false,false,false,false,false,false,false,false,false,false,false,false,false,false,false,false,false,false,false,false,false,false,false,false,false,false,false,false,false,false,false,false,false,false,false,false,false,false,false,false,false,false,false,false,false,false,false,false,false,false,false,false,false,false,false,false,false,false,false,false,false,false,false,false,false,false,false,false,false,false,false,false,false,false,false,false,false,false,false,false,false,false,false,false,false,false,false,false,false,false,false,false,false,false,false,false,false,false,false,false,false,false,false,false,false,false,false,false,false,false,false,false,false,false,false,false,false,false,false,false,false,false,false,false,false,false,false,false,false,false,false,false,false,false,false,false,false,false,false,false,false,false,false,false,false,false,false,false,false,false,false,false,false,false,false,false,false,false,false,false,false,false,false,false,false,false,false,false,false,false,false,false,false,false,false,false,false,false,false,false,false,false,false,false,false,false,false,false,false,false,false,false,false}, allow_spmd_sharding_propagation_to_output={true,true,true,true,true,true,true,true,true,true,true,true,true,true,true,true,true,true,true,true,true,true,true,true,true,true,true,true,true,true,true,true,true,true,true,true,true,true,true,true,true,true,true,true,true,true,true,true,true}, num_partitions=4, frontend_attributes={xla.sdy.meshes={mesh = #sdy.mesh<["data"=1, "model"=4]>}}

%_where.532 (Arg_0.528: pred[16], Arg_1.529: s32[16], Arg_2.530: s32[16]) -> s32[16] {
  %Arg_0.528 = pred[16]{0} parameter(0)
  %Arg_1.529 = s32[16]{0} parameter(1)
  %Arg_2.530 = s32[16]{0} parameter(2)
  ROOT %select_n.531 = s32[16]{0} select(%Arg_0.528, %Arg_1.529, %Arg_2.530), metadata={op_name="select_n" source_file="/home/eporat/benchmarking_qwen_omni_tpu/.venv/lib/python3.11/site-packages/torchax/ops/jaten.py" source_line=552 source_end_line=552 source_column=9 source_end_column=31}
}

%region_0.541 (reduce_and.538: pred[], reduce_and.539: pred[]) -> pred[] {
  %reduce_and.538 = pred[] parameter(0), metadata={op_name="reduce_and"}
  %reduce_and.539 = pred[] parameter(1), metadata={op_name="reduce_and"}
  ROOT %reduce_and.540 = pred[] and(%reduce_and.538, %reduce_and.539), metadata={op_name="reduce_and" source_file="/home/eporat/benchmarking_qwen_omni_tpu/.venv/lib/python3.11/site-packages/torchax/ops/jaten.py" source_line=552 source_end_line=552 source_column=9 source_end_column=31}
}

%_take.546 (Arg_0.513: bf16[152064,2048], Arg_1.514: s32[16]) -> bf16[16,2048] {
  %Arg_1.514 = s32[16]{0} parameter(1)
  %constant.524 = s32[] constant(0)
  %broadcast.525 = s32[16]{0} broadcast(%constant.524), dimensions={}
  %lt.526 = pred[16]{0} compare(%Arg_1.514, %broadcast.525), direction=LT, metadata={op_name="lt" source_file="/home/eporat/benchmarking_qwen_omni_tpu/.venv/lib/python3.11/site-packages/torchax/ops/jaten.py" source_line=552 source_end_line=552 source_column=9 source_end_column=31}
  %constant.521 = s32[] constant(152064)
  %broadcast.522 = s32[16]{0} broadcast(%constant.521), dimensions={}
  %add.527 = s32[16]{0} add(%Arg_1.514, %broadcast.522), metadata={op_name="add" source_file="/home/eporat/benchmarking_qwen_omni_tpu/.venv/lib/python3.11/site-packages/torchax/ops/jaten.py" source_line=552 source_end_line=552 source_column=9 source_end_column=31}
  %jit__where_.533 = s32[16]{0} call(%lt.526, %add.527, %Arg_1.514), to_apply=%_where.532, metadata={op_name="jit(_where)" source_file="/home/eporat/benchmarking_qwen_omni_tpu/.venv/lib/python3.11/site-packages/torchax/ops/jaten.py" source_line=552 source_end_line=552 source_column=9 source_end_column=31}
  %broadcast_in_dim.534 = s32[16,1]{1,0} reshape(%jit__where_.533), metadata={op_name="broadcast_in_dim" source_file="/home/eporat/benchmarking_qwen_omni_tpu/.venv/lib/python3.11/site-packages/torchax/ops/jaten.py" source_line=552 source_end_line=552 source_column=9 source_end_column=31}
  %constant.519 = s32[] constant(0)
  %broadcast.520 = s32[16,1]{1,0} broadcast(%constant.519), dimensions={}
  %ge.535 = pred[16,1]{1,0} compare(%broadcast_in_dim.534, %broadcast.520), direction=GE, metadata={op_name="ge" source_file="/home/eporat/benchmarking_qwen_omni_tpu/.venv/lib/python3.11/site-packages/torchax/ops/jaten.py" source_line=552 source_end_line=552 source_column=9 source_end_column=31}
  %constant.517 = s32[] constant(152063)
  %broadcast.518 = s32[16,1]{1,0} broadcast(%constant.517), dimensions={}
  %le.536 = pred[16,1]{1,0} compare(%broadcast_in_dim.534, %broadcast.518), direction=LE, metadata={op_name="le" source_file="/home/eporat/benchmarking_qwen_omni_tpu/.venv/lib/python3.11/site-packages/torchax/ops/jaten.py" source_line=552 source_end_line=552 source_column=9 source_end_column=31}
  %and.537 = pred[16,1]{1,0} and(%ge.535, %le.536), metadata={op_name="and" source_file="/home/eporat/benchmarking_qwen_omni_tpu/.venv/lib/python3.11/site-packages/torchax/ops/jaten.py" source_line=552 source_end_line=552 source_column=9 source_end_column=31}
  %constant.523 = pred[] constant(true)
  %reduce_and.542 = pred[16]{0} reduce(%and.537, %constant.523), dimensions={1}, to_apply=%region_0.541, metadata={op_name="reduce_and" source_file="/home/eporat/benchmarking_qwen_omni_tpu/.venv/lib/python3.11/site-packages/torchax/ops/jaten.py" source_line=552 source_end_line=552 source_column=9 source_end_column=31}
  %broadcast_in_dim.544 = pred[16,2048]{1,0} broadcast(%reduce_and.542), dimensions={0}, metadata={op_name="broadcast_in_dim" source_file="/home/eporat/benchmarking_qwen_omni_tpu/.venv/lib/python3.11/site-packages/torchax/ops/jaten.py" source_line=552 source_end_line=552 source_column=9 source_end_column=31}
  %Arg_0.513 = bf16[152064,2048]{1,0} parameter(0)
  %gather.543 = bf16[16,2048]{1,0} gather(%Arg_0.513, %broadcast_in_dim.534), offset_dims={1}, collapsed_slice_dims={0}, start_index_map={0}, index_vector_dim=1, slice_sizes={1,2048}, metadata={op_name="gather" source_file="/home/eporat/benchmarking_qwen_omni_tpu/.venv/lib/python3.11/site-packages/torchax/ops/jaten.py" source_line=552 source_end_line=552 source_column=9 source_end_column=31}
  %constant.515 = bf16[] constant(nan)
  %broadcast_in_dim.516 = bf16[16,2048]{1,0} broadcast(%constant.515), dimensions={}, metadata={op_name="broadcast_in_dim" source_file="/home/eporat/benchmarking_qwen_omni_tpu/.venv/lib/python3.11/site-packages/torchax/ops/jaten.py" source_line=552 source_end_line=552 source_column=9 source_end_column=31}
  ROOT %select_n.545 = bf16[16,2048]{1,0} select(%broadcast_in_dim.544, %gather.543, %broadcast_in_dim.516), metadata={op_name="select_n" source_file="/home/eporat/benchmarking_qwen_omni_tpu/.venv/lib/python3.11/site-packages/torchax/ops/jaten.py" source_line=552 source_end_line=552 source_column=9 source_end_column=31}
}

%region_1.553 (reduce_sum.550: f32[], reduce_sum.551: f32[]) -> f32[] {
  %reduce_sum.550 = f32[] parameter(0), metadata={op_name="reduce_sum"}
  %reduce_sum.551 = f32[] parameter(1), metadata={op_name="reduce_sum"}
  ROOT %reduce_sum.552 = f32[] add(%reduce_sum.550, %reduce_sum.551), metadata={op_name="jit(step_fun)/aten::mean.dim/reduce_sum" source_file="/home/eporat/benchmarking_qwen_omni_tpu/.venv/lib/python3.11/site-packages/torchax/ops/jaten.py" source_line=265 source_end_line=265 source_column=9 source_end_column=43}
}

%region_2.581 (reduce_sum.578: f32[], reduce_sum.579: f32[]) -> f32[] {
  %reduce_sum.578 = f32[] parameter(0), metadata={op_name="reduce_sum"}
  %reduce_sum.579 = f32[] parameter(1), metadata={op_name="reduce_sum"}
  ROOT %reduce_sum.580 = f32[] add(%reduce_sum.578, %reduce_sum.579), metadata={op_name="jit(step_fun)/aten::mean.dim/reduce_sum" source_file="/home/eporat/benchmarking_qwen_omni_tpu/.venv/lib/python3.11/site-packages/torchax/ops/jaten.py" source_line=265 source_end_line=265 source_column=9 source_end_column=43}
}

%region_3.602 (reduce_sum.599: f32[], reduce_sum.600: f32[]) -> f32[] {
  %reduce_sum.599 = f32[] parameter(0), metadata={op_name="reduce_sum"}
  %reduce_sum.600 = f32[] parameter(1), metadata={op_name="reduce_sum"}
  ROOT %reduce_sum.601 = f32[] add(%reduce_sum.599, %reduce_sum.600), metadata={op_name="jit(step_fun)/aten::mean.dim/reduce_sum" source_file="/home/eporat/benchmarking_qwen_omni_tpu/.venv/lib/python3.11/site-packages/torchax/ops/jaten.py" source_line=265 source_end_line=265 source_column=9 source_end_column=43}
}

%_pad.727 (Arg_0.725: bf16[16,1,8,128], Arg_1.726: s32[]) -> bf16[16,1,8,128] {
  ROOT %Arg_0.725 = bf16[16,1,8,128]{3,2,1,0} parameter(0)
  %Arg_1.726 = s32[] parameter(1)
}

%_pad_67.734 (Arg_0.732: bf16[16,2,128], Arg_1.733: s32[]) -> bf16[16,2,128] {
  ROOT %Arg_0.732 = bf16[16,2,128]{2,1,0} parameter(0)
  %Arg_1.733 = s32[] parameter(1)
}

%ragged_paged_attention.744 (Arg_0.709: bf16[16,8,128], Arg_1.710: bf16[16,1,128], Arg_2.711: bf16[16,1,128], Arg_3.712: bf16[14813,32,1,2,128], Arg_4.713: s32[256], Arg_5.714: s32[131072], Arg_6.715: s32[257], Arg_7.716: s32[3]) -> (bf16[16,8,128], bf16[14813,32,1,2,128]) {
  %Arg_7.716 = s32[3]{0} parameter(7)
  %slice.737 = s32[1]{0} slice(%Arg_7.716), slice={[2:3]}, metadata={op_name="slice" source_file="/home/eporat/benchmarking_qwen_omni_tpu/.venv/lib/python3.11/site-packages/tpu_inference/kernels/ragged_paged_attention/v3/kernel.py" source_line=1338 source_end_line=1338 source_column=12 source_end_column=27}
  %squeeze.738 = s32[] reshape(%slice.737), metadata={op_name="squeeze" source_file="/home/eporat/benchmarking_qwen_omni_tpu/.venv/lib/python3.11/site-packages/tpu_inference/kernels/ragged_paged_attention/v3/kernel.py" source_line=1338 source_end_line=1338 source_column=12 source_end_column=27}
  %Arg_4.713 = s32[256]{0} parameter(4)
  %Arg_5.714 = s32[131072]{0} parameter(5)
  %Arg_6.715 = s32[257]{0} parameter(6)
  %constant.721 = s32[] constant(0)
  %broadcast.722 = s32[3]{0} broadcast(%constant.721), dimensions={}
  %constant.719 = s32[] constant(-1)
  %broadcast.720 = s32[4]{0} broadcast(%constant.719), dimensions={}
  %constant.717 = s32[] constant(-1)
  %broadcast.718 = s32[6]{0} broadcast(%constant.717), dimensions={}
  %Arg_0.709 = bf16[16,8,128]{2,1,0} parameter(0)
  %reshape.724 = bf16[16,1,8,128]{3,2,1,0} reshape(%Arg_0.709), metadata={op_name="reshape" source_file="/home/eporat/benchmarking_qwen_omni_tpu/.venv/lib/python3.11/site-packages/tpu_inference/kernels/ragged_paged_attention/v3/kernel.py" source_line=920 source_end_line=925 source_column=12 source_end_column=13}
  %constant.723 = s32[] constant(0)
  %jit__pad_.728 = bf16[16,1,8,128]{3,2,1,0} call(%reshape.724, %constant.723), to_apply=%_pad.727, metadata={op_name="jit(_pad)" source_file="/home/eporat/benchmarking_qwen_omni_tpu/.venv/lib/python3.11/site-packages/tpu_inference/kernels/ragged_paged_attention/v3/kernel.py" source_line=919 source_end_line=933 source_column=8 source_end_column=9}
  %transpose.729 = bf16[1,16,4,2,128]{4,3,2,1,0} reshape(%jit__pad_.728), metadata={op_name="transpose" source_file="/home/eporat/benchmarking_qwen_omni_tpu/.venv/lib/python3.11/site-packages/tpu_inference/kernels/ragged_paged_attention/v3/kernel.py" source_line=941 source_end_line=941 source_column=9 source_end_column=23}
  %Arg_1.710 = bf16[16,1,128]{2,1,0} parameter(1)
  %Arg_2.711 = bf16[16,1,128]{2,1,0} parameter(2)
  %concatenate.730 = bf16[16,1,256]{2,1,0} concatenate(%Arg_1.710, %Arg_2.711), dimensions={2}, metadata={op_name="concatenate" source_file="/home/eporat/benchmarking_qwen_omni_tpu/.venv/lib/python3.11/site-packages/tpu_inference/kernels/ragged_paged_attention/v3/kernel.py" source_line=885 source_end_line=886 source_column=8 source_end_column=27}
  %reshape.731 = bf16[16,2,128]{2,1,0} reshape(%concatenate.730), metadata={op_name="reshape" source_file="/home/eporat/benchmarking_qwen_omni_tpu/.venv/lib/python3.11/site-packages/tpu_inference/kernels/ragged_paged_attention/v3/kernel.py" source_line=886 source_end_line=887 source_column=28 source_end_column=52}
  %jit__pad_.735 = bf16[16,2,128]{2,1,0} call(%reshape.731, %constant.723), to_apply=%_pad_67.734, metadata={op_name="jit(_pad)" source_file="/home/eporat/benchmarking_qwen_omni_tpu/.venv/lib/python3.11/site-packages/tpu_inference/kernels/ragged_paged_attention/v3/kernel.py" source_line=884 source_end_line=894 source_column=9 source_end_column=5}
  %reshape.736 = bf16[16,1,2,128]{3,2,1,0} reshape(%jit__pad_.735), metadata={op_name="reshape" source_file="/home/eporat/benchmarking_qwen_omni_tpu/.venv/lib/python3.11/site-packages/tpu_inference/kernels/ragged_paged_attention/v3/kernel.py" source_line=894 source_end_line=899 source_column=6 source_end_column=5}
  %Arg_3.712 = bf16[14813,32,1,2,128]{4,3,2,1,0} parameter(3)
  %pallas_call.739 = (bf16[1,16,4,2,128]{4,3,2,1,0}, bf16[14813,32,1,2,128]{4,3,2,1,0}) custom-call(%squeeze.738, %Arg_4.713, %Arg_5.714, %Arg_6.715, %Arg_7.716, /*index=5*/%broadcast.722, %broadcast.720, %broadcast.718, %transpose.729, %reshape.736, /*index=10*/%Arg_3.712), custom_call_target="tpu_custom_call", operand_layout_constraints={s32[], s32[256]{0}, s32[131072]{0}, s32[257]{0}, s32[3]{0}, s32[3]{0}, s32[4]{0}, s32[6]{0}, bf16[1,16,4,2,128]{4,3,2,1,0}, bf16[16,1,2,128]{3,2,1,0}, bf16[14813,32,1,2,128]{4,3,2,1,0}}, output_to_operand_aliasing={{0}: (8, {}), {1}: (10, {})}, metadata={op_name="RPA-bq_16-bkvp_64-p_32/pallas_call" source_file="/home/eporat/benchmarking_qwen_omni_tpu/.venv/lib/python3.11/site-packages/tpu_inference/kernels/ragged_paged_attention/v3/kernel.py" source_line=1442 source_end_line=1442 source_column=31 source_end_column=74}, backend_config={"custom_call_config": {"body": "…", "serialization_format": 1, "needs_layout_passes": true}, "scoped_memory_configs": [{"memory_space":1, "offset": 0, "size": 104857600}]}
  %pallas_call.740 = bf16[1,16,4,2,128]{4,3,2,1,0} get-tuple-element(%pallas_call.739), index=0, metadata={op_name="RPA-bq_16-bkvp_64-p_32/pallas_call" source_file="/home/eporat/benchmarking_qwen_omni_tpu/.venv/lib/python3.11/site-packages/tpu_inference/kernels/ragged_paged_attention/v3/kernel.py" source_line=1442 source_end_line=1442 source_column=31 source_end_column=74}
  %reshape.742 = bf16[16,8,128]{2,1,0} reshape(%pallas_call.740), metadata={op_name="reshape" source_file="/home/eporat/benchmarking_qwen_omni_tpu/.venv/lib/python3.11/site-packages/tpu_inference/kernels/ragged_paged_attention/v3/kernel.py" source_line=965 source_end_line=966 source_column=63 source_end_column=60}
  %pallas_call.741 = bf16[14813,32,1,2,128]{4,3,2,1,0} get-tuple-element(%pallas_call.739), index=1, metadata={op_name="RPA-bq_16-bkvp_64-p_32/pallas_call" source_file="/home/eporat/benchmarking_qwen_omni_tpu/.venv/lib/python3.11/site-packages/tpu_inference/kernels/ragged_paged_attention/v3/kernel.py" source_line=1442 source_end_line=1442 source_column=31 source_end_column=74}
  ROOT %tuple.743 = (bf16[16,8,128]{2,1,0}, bf16[14813,32,1,2,128]{4,3,2,1,0}) tuple(%reshape.742, %pallas_call.741)
}

%xla.sdy.manual_computation_body.749 (shard_map.701: bf16[16,8,128], shard_map.702: bf16[16,1,128], shard_map.703: bf16[16,1,128], shard_map.704: bf16[14813,32,1,2,128], shard_map.705: s32[256], shard_map.706: s32[131072], shard_map.707: s32[257], shard_map.708: s32[3]) -> (bf16[16,8,128], bf16[14813,32,1,2,128]) {
  %shard_map.701 = bf16[16,8,128]{2,1,0} parameter(0), metadata={op_name="shard_map"}
  %shard_map.702 = bf16[16,1,128]{2,1,0} parameter(1), metadata={op_name="shard_map"}
  %shard_map.703 = bf16[16,1,128]{2,1,0} parameter(2), metadata={op_name="shard_map"}
  %shard_map.704 = bf16[14813,32,1,2,128]{4,3,2,1,0} parameter(3), metadata={op_name="shard_map"}
  %shard_map.705 = s32[256]{0} parameter(4), metadata={op_name="shard_map"}
  %shard_map.706 = s32[131072]{0} parameter(5), metadata={op_name="shard_map"}
  %shard_map.707 = s32[257]{0} parameter(6), metadata={op_name="shard_map"}
  %shard_map.708 = s32[3]{0} parameter(7), metadata={op_name="shard_map"}
  %jit_ragged_paged_attention_.745 = (bf16[16,8,128]{2,1,0}, bf16[14813,32,1,2,128]{4,3,2,1,0}) call(%shard_map.701, %shard_map.702, %shard_map.703, %shard_map.704, %shard_map.705, /*index=5*/%shard_map.706, %shard_map.707, %shard_map.708), to_apply=%ragged_paged_attention.744, metadata={op_name="jit(ragged_paged_attention)" source_file="/home/eporat/benchmarking_qwen_omni_tpu/.venv/lib/python3.11/site-packages/tpu_inference/layers/jax/attention_interface.py" source_line=293 source_end_line=300 source_column=15 source_end_column=9}
  %jit_ragged_paged_attention_.746 = bf16[16,8,128]{2,1,0} get-tuple-element(%jit_ragged_paged_attention_.745), index=0, metadata={op_name="jit(ragged_paged_attention)" source_file="/home/eporat/benchmarking_qwen_omni_tpu/.venv/lib/python3.11/site-packages/tpu_inference/layers/jax/attention_interface.py" source_line=293 source_end_line=300 source_column=15 source_end_column=9}
  %jit_ragged_paged_attention_.747 = bf16[14813,32,1,2,128]{4,3,2,1,0} get-tuple-element(%jit_ragged_paged_attention_.745), index=1, metadata={op_name="jit(ragged_paged_attention)" source_file="/home/eporat/benchmarking_qwen_omni_tpu/.venv/lib/python3.11/site-packages/tpu_inference/layers/jax/attention_interface.py" source_line=293 source_end_line=300 source_column=15 source_end_column=9}
  ROOT %tuple.748 = (bf16[16,8,128]{2,1,0}, bf16[14813,32,1,2,128]{4,3,2,1,0}) tuple(%jit_ragged_paged_attention_.746, %jit_ragged_paged_attention_.747)
}

%_ragged_paged_attention.757 (Arg_0.684: bf16[16,32,128], Arg_1.685: bf16[16,4,128], Arg_2.686: bf16[16,4,128], Arg_3.687: bf16[14813,32,4,2,128], Arg_4.688: s32[256], Arg_5.689: s32[131072], Arg_6.690: s32[257], Arg_7.691: s32[3]) -> (bf16[16,32,128], bf16[14813,32,4,2,128]) {
  %Arg_0.684 = bf16[16,32,128]{2,1,0} parameter(0)
  %Arg_1.685 = bf16[16,4,128]{2,1,0} parameter(1)
  %Arg_2.686 = bf16[16,4,128]{2,1,0} parameter(2)
  %Arg_3.687 = bf16[14813,32,4,2,128]{4,3,2,1,0} parameter(3)
  %Arg_4.688 = s32[256]{0} parameter(4)
  %Arg_5.689 = s32[131072]{0} parameter(5)
  %Arg_6.690 = s32[257]{0} parameter(6)
  %Arg_7.691 = s32[3]{0} parameter(7)
  %shard_map.692 = (bf16[16,8,128]{2,1,0}, bf16[16,1,128]{2,1,0}, bf16[16,1,128]{2,1,0}, bf16[14813,32,1,2,128]{4,3,2,1,0}, s32[256]{0}, /*index=5*/s32[131072]{0}, s32[257]{0}, s32[3]{0}) custom-call(%Arg_0.684, %Arg_1.685, %Arg_2.686, %Arg_3.687, %Arg_4.688, /*index=5*/%Arg_5.689, %Arg_6.690, %Arg_7.691), custom_call_target="xla.sdy.GlobalToLocalShape", custom_call_has_side_effect=true, frontend_attributes={xla.sdy.in_shardings="#sdy.sharding_per_value<[<@mesh, [{}, {\"model\"}, {}]>, <@mesh, [{}, {\"model\"}, {}]>, <@mesh, [{}, {\"model\"}, {}]>, <@mesh, [{}, {}, {\"model\"}, {}, {}]>, <@mesh, [{}]>, <@mesh, [{}]>, <@mesh, [{}]>, <@mesh, [{}]>]>",xla.sdy.manual_axes="#sdy<manual_axes{\"data\", \"model\"}>"}, metadata={op_name="shard_map" source_file="/home/eporat/benchmarking_qwen_omni_tpu/.venv/lib/python3.11/site-packages/tpu_inference/layers/jax/attention_interface.py" source_line=343 source_end_line=354 source_column=23 source_end_column=9}
  %shard_map.693 = bf16[16,8,128]{2,1,0} get-tuple-element(%shard_map.692), index=0, frontend_attributes={xla.sdy.in_shardings="#sdy.sharding_per_value<[<@mesh, [{}, {\"model\"}, {}]>, <@mesh, [{}, {\"model\"}, {}]>, <@mesh, [{}, {\"model\"}, {}]>, <@mesh, [{}, {}, {\"model\"}, {}, {}]>, <@mesh, [{}]>, <@mesh, [{}]>, <@mesh, [{}]>, <@mesh, [{}]>]>",xla.sdy.manual_axes="#sdy<manual_axes{\"data\", \"model\"}>"}, metadata={op_name="shard_map" source_file="/home/eporat/benchmarking_qwen_omni_tpu/.venv/lib/python3.11/site-packages/tpu_inference/layers/jax/attention_interface.py" source_line=343 source_end_line=354 source_column=23 source_end_column=9}
  %shard_map.694 = bf16[16,1,128]{2,1,0} get-tuple-element(%shard_map.692), index=1, frontend_attributes={xla.sdy.in_shardings="#sdy.sharding_per_value<[<@mesh, [{}, {\"model\"}, {}]>, <@mesh, [{}, {\"model\"}, {}]>, <@mesh, [{}, {\"model\"}, {}]>, <@mesh, [{}, {}, {\"model\"}, {}, {}]>, <@mesh, [{}]>, <@mesh, [{}]>, <@mesh, [{}]>, <@mesh, [{}]>]>",xla.sdy.manual_axes="#sdy<manual_axes{\"data\", \"model\"}>"}, metadata={op_name="shard_map" source_file="/home/eporat/benchmarking_qwen_omni_tpu/.venv/lib/python3.11/site-packages/tpu_inference/layers/jax/attention_interface.py" source_line=343 source_end_line=354 source_column=23 source_end_column=9}
  %shard_map.695 = bf16[16,1,128]{2,1,0} get-tuple-element(%shard_map.692), index=2, frontend_attributes={xla.sdy.in_shardings="#sdy.sharding_per_value<[<@mesh, [{}, {\"model\"}, {}]>, <@mesh, [{}, {\"model\"}, {}]>, <@mesh, [{}, {\"model\"}, {}]>, <@mesh, [{}, {}, {\"model\"}, {}, {}]>, <@mesh, [{}]>, <@mesh, [{}]>, <@mesh, [{}]>, <@mesh, [{}]>]>",xla.sdy.manual_axes="#sdy<manual_axes{\"data\", \"model\"}>"}, metadata={op_name="shard_map" source_file="/home/eporat/benchmarking_qwen_omni_tpu/.venv/lib/python3.11/site-packages/tpu_inference/layers/jax/attention_interface.py" source_line=343 source_end_line=354 source_column=23 source_end_column=9}
  %shard_map.696 = bf16[14813,32,1,2,128]{4,3,2,1,0} get-tuple-element(%shard_map.692), index=3, frontend_attributes={xla.sdy.in_shardings="#sdy.sharding_per_value<[<@mesh, [{}, {\"model\"}, {}]>, <@mesh, [{}, {\"model\"}, {}]>, <@mesh, [{}, {\"model\"}, {}]>, <@mesh, [{}, {}, {\"model\"}, {}, {}]>, <@mesh, [{}]>, <@mesh, [{}]>, <@mesh, [{}]>, <@mesh, [{}]>]>",xla.sdy.manual_axes="#sdy<manual_axes{\"data\", \"model\"}>"}, metadata={op_name="shard_map" source_file="/home/eporat/benchmarking_qwen_omni_tpu/.venv/lib/python3.11/site-packages/tpu_inference/layers/jax/attention_interface.py" source_line=343 source_end_line=354 source_column=23 source_end_column=9}
  %shard_map.697 = s32[256]{0} get-tuple-element(%shard_map.692), index=4, frontend_attributes={xla.sdy.in_shardings="#sdy.sharding_per_value<[<@mesh, [{}, {\"model\"}, {}]>, <@mesh, [{}, {\"model\"}, {}]>, <@mesh, [{}, {\"model\"}, {}]>, <@mesh, [{}, {}, {\"model\"}, {}, {}]>, <@mesh, [{}]>, <@mesh, [{}]>, <@mesh, [{}]>, <@mesh, [{}]>]>",xla.sdy.manual_axes="#sdy<manual_axes{\"data\", \"model\"}>"}, metadata={op_name="shard_map" source_file="/home/eporat/benchmarking_qwen_omni_tpu/.venv/lib/python3.11/site-packages/tpu_inference/layers/jax/attention_interface.py" source_line=343 source_end_line=354 source_column=23 source_end_column=9}
  %shard_map.698 = s32[131072]{0} get-tuple-element(%shard_map.692), index=5, frontend_attributes={xla.sdy.in_shardings="#sdy.sharding_per_value<[<@mesh, [{}, {\"model\"}, {}]>, <@mesh, [{}, {\"model\"}, {}]>, <@mesh, [{}, {\"model\"}, {}]>, <@mesh, [{}, {}, {\"model\"}, {}, {}]>, <@mesh, [{}]>, <@mesh, [{}]>, <@mesh, [{}]>, <@mesh, [{}]>]>",xla.sdy.manual_axes="#sdy<manual_axes{\"data\", \"model\"}>"}, metadata={op_name="shard_map" source_file="/home/eporat/benchmarking_qwen_omni_tpu/.venv/lib/python3.11/site-packages/tpu_inference/layers/jax/attention_interface.py" source_line=343 source_end_line=354 source_column=23 source_end_column=9}
  %shard_map.699 = s32[257]{0} get-tuple-element(%shard_map.692), index=6, frontend_attributes={xla.sdy.in_shardings="#sdy.sharding_per_value<[<@mesh, [{}, {\"model\"}, {}]>, <@mesh, [{}, {\"model\"}, {}]>, <@mesh, [{}, {\"model\"}, {}]>, <@mesh, [{}, {}, {\"model\"}, {}, {}]>, <@mesh, [{}]>, <@mesh, [{}]>, <@mesh, [{}]>, <@mesh, [{}]>]>",xla.sdy.manual_axes="#sdy<manual_axes{\"data\", \"model\"}>"}, metadata={op_name="shard_map" source_file="/home/eporat/benchmarking_qwen_omni_tpu/.venv/lib/python3.11/site-packages/tpu_inference/layers/jax/attention_interface.py" source_line=343 source_end_line=354 source_column=23 source_end_column=9}
  %shard_map.700 = s32[3]{0} get-tuple-element(%shard_map.692), index=7, frontend_attributes={xla.sdy.in_shardings="#sdy.sharding_per_value<[<@mesh, [{}, {\"model\"}, {}]>, <@mesh, [{}, {\"model\"}, {}]>, <@mesh, [{}, {\"model\"}, {}]>, <@mesh, [{}, {}, {\"model\"}, {}, {}]>, <@mesh, [{}]>, <@mesh, [{}]>, <@mesh, [{}]>, <@mesh, [{}]>]>",xla.sdy.manual_axes="#sdy<manual_axes{\"data\", \"model\"}>"}, metadata={op_name="shard_map" source_file="/home/eporat/benchmarking_qwen_omni_tpu/.venv/lib/python3.11/site-packages/tpu_inference/layers/jax/attention_interface.py" source_line=343 source_end_line=354 source_column=23 source_end_column=9}
  %shard_map.750 = (bf16[16,8,128]{2,1,0}, bf16[14813,32,1,2,128]{4,3,2,1,0}) call(%shard_map.693, %shard_map.694, %shard_map.695, %shard_map.696, %shard_map.697, /*index=5*/%shard_map.698, %shard_map.699, %shard_map.700), to_apply=%xla.sdy.manual_computation_body.749, frontend_attributes={inlineable="false"}, metadata={op_name="shard_map" source_file="/home/eporat/benchmarking_qwen_omni_tpu/.venv/lib/python3.11/site-packages/tpu_inference/layers/jax/attention_interface.py" source_line=343 source_end_line=354 source_column=23 source_end_column=9}
  %shard_map.751 = bf16[16,8,128]{2,1,0} get-tuple-element(%shard_map.750), index=0, frontend_attributes={inlineable="false"}, metadata={op_name="shard_map" source_file="/home/eporat/benchmarking_qwen_omni_tpu/.venv/lib/python3.11/site-packages/tpu_inference/layers/jax/attention_interface.py" source_line=343 source_end_line=354 source_column=23 source_end_column=9}
  %shard_map.752 = bf16[14813,32,1,2,128]{4,3,2,1,0} get-tuple-element(%shard_map.750), index=1, frontend_attributes={inlineable="false"}, metadata={op_name="shard_map" source_file="/home/eporat/benchmarking_qwen_omni_tpu/.venv/lib/python3.11/site-packages/tpu_inference/layers/jax/attention_interface.py" source_line=343 source_end_line=354 source_column=23 source_end_column=9}
  %shard_map.753 = (bf16[16,32,128]{2,1,0}, bf16[14813,32,4,2,128]{4,3,2,1,0}) custom-call(%shard_map.751, %shard_map.752), custom_call_target="xla.sdy.LocalToGlobalShape", custom_call_has_side_effect=true, frontend_attributes={xla.sdy.manual_axes="#sdy<manual_axes{\"data\", \"model\"}>",xla.sdy.out_shardings="#sdy.sharding_per_value<[<@mesh, [{}, {\"model\"}, {}]>, <@mesh, [{}, {}, {\"model\"}, {}, {}]>]>"}, metadata={op_name="shard_map" source_file="/home/eporat/benchmarking_qwen_omni_tpu/.venv/lib/python3.11/site-packages/tpu_inference/layers/jax/attention_interface.py" source_line=343 source_end_line=354 source_column=23 source_end_column=9}
  %shard_map.754 = bf16[16,32,128]{2,1,0} get-tuple-element(%shard_map.753), index=0, frontend_attributes={xla.sdy.manual_axes="#sdy<manual_axes{\"data\", \"model\"}>",xla.sdy.out_shardings="#sdy.sharding_per_value<[<@mesh, [{}, {\"model\"}, {}]>, <@mesh, [{}, {}, {\"model\"}, {}, {}]>]>"}, metadata={op_name="shard_map" source_file="/home/eporat/benchmarking_qwen_omni_tpu/.venv/lib/python3.11/site-packages/tpu_inference/layers/jax/attention_interface.py" source_line=343 source_end_line=354 source_column=23 source_end_column=9}
  %shard_map.755 = bf16[14813,32,4,2,128]{4,3,2,1,0} get-tuple-element(%shard_map.753), index=1, frontend_attributes={xla.sdy.manual_axes="#sdy<manual_axes{\"data\", \"model\"}>",xla.sdy.out_shardings="#sdy.sharding_per_value<[<@mesh, [{}, {\"model\"}, {}]>, <@mesh, [{}, {}, {\"model\"}, {}, {}]>]>"}, metadata={op_name="shard_map" source_file="/home/eporat/benchmarking_qwen_omni_tpu/.venv/lib/python3.11/site-packages/tpu_inference/layers/jax/attention_interface.py" source_line=343 source_end_line=354 source_column=23 source_end_column=9}
  ROOT %tuple.756 = (bf16[16,32,128]{2,1,0}, bf16[14813,32,4,2,128]{4,3,2,1,0}) tuple(%shard_map.754, %shard_map.755)
}

%_jax_attn_func.763 (Arg_0.673: bf16[14813,32,4,2,128], Arg_1.674: bf16[16,4096], Arg_2.675: bf16[16,512], Arg_3.676: bf16[16,512], Arg_4.677: s32[131072], Arg_5.678: s32[256], Arg_6.679: s32[257], Arg_7.680: s32[3]) -> (bf16[14813,32,4,2,128], bf16[16,4096]) {
  %Arg_1.674 = bf16[16,4096]{1,0} parameter(1)
  %reshape.681 = bf16[16,32,128]{2,1,0} reshape(%Arg_1.674), metadata={op_name="reshape" source_file="/home/eporat/benchmarking_qwen_omni_tpu/.venv/lib/python3.11/site-packages/tpu_inference/layers/vllm/attention.py" source_line=161 source_end_line=161 source_column=8 source_end_column=46}
  %Arg_2.675 = bf16[16,512]{1,0} parameter(2)
  %reshape.682 = bf16[16,4,128]{2,1,0} reshape(%Arg_2.675), metadata={op_name="reshape" source_file="/home/eporat/benchmarking_qwen_omni_tpu/.venv/lib/python3.11/site-packages/tpu_inference/layers/vllm/attention.py" source_line=163 source_end_line=163 source_column=8 source_end_column=49}
  %Arg_3.676 = bf16[16,512]{1,0} parameter(3)
  %reshape.683 = bf16[16,4,128]{2,1,0} reshape(%Arg_3.676), metadata={op_name="reshape" source_file="/home/eporat/benchmarking_qwen_omni_tpu/.venv/lib/python3.11/site-packages/tpu_inference/layers/vllm/attention.py" source_line=164 source_end_line=164 source_column=8 source_end_column=49}
  %Arg_0.673 = bf16[14813,32,4,2,128]{4,3,2,1,0} parameter(0)
  %Arg_5.678 = s32[256]{0} parameter(5)
  %Arg_4.677 = s32[131072]{0} parameter(4)
  %Arg_6.679 = s32[257]{0} parameter(6)
  %Arg_7.680 = s32[3]{0} parameter(7)
  %jit__ragged_paged_attention_.758 = (bf16[16,32,128]{2,1,0}, bf16[14813,32,4,2,128]{4,3,2,1,0}) call(%reshape.681, %reshape.682, %reshape.683, %Arg_0.673, %Arg_5.678, /*index=5*/%Arg_4.677, %Arg_6.679, %Arg_7.680), to_apply=%_ragged_paged_attention.757, metadata={op_name="jit(_ragged_paged_attention)" source_file="/home/eporat/benchmarking_qwen_omni_tpu/.venv/lib/python3.11/site-packages/tpu_inference/layers/jax/attention_interface.py" source_line=343 source_end_line=354 source_column=23 source_end_column=9}
  %jit__ragged_paged_attention_.760 = bf16[14813,32,4,2,128]{4,3,2,1,0} get-tuple-element(%jit__ragged_paged_attention_.758), index=1, metadata={op_name="jit(_ragged_paged_attention)" source_file="/home/eporat/benchmarking_qwen_omni_tpu/.venv/lib/python3.11/site-packages/tpu_inference/layers/jax/attention_interface.py" source_line=343 source_end_line=354 source_column=23 source_end_column=9}
  %jit__ragged_paged_attention_.759 = bf16[16,32,128]{2,1,0} get-tuple-element(%jit__ragged_paged_attention_.758), index=0, metadata={op_name="jit(_ragged_paged_attention)" source_file="/home/eporat/benchmarking_qwen_omni_tpu/.venv/lib/python3.11/site-packages/tpu_inference/layers/jax/attention_interface.py" source_line=343 source_end_line=354 source_column=23 source_end_column=9}
  %reshape.761 = bf16[16,4096]{1,0} reshape(%jit__ragged_paged_attention_.759), metadata={op_name="reshape" source_file="/home/eporat/benchmarking_qwen_omni_tpu/.venv/lib/python3.11/site-packages/tpu_inference/layers/vllm/attention.py" source_line=182 source_end_line=182 source_column=14 source_end_column=51}
  ROOT %tuple.762 = (bf16[14813,32,4,2,128]{4,3,2,1,0}, bf16[16,4096]{1,0}) tuple(%jit__ragged_paged_attention_.760, %reshape.761)
}

%region_4.776 (reduce_sum.773: f32[], reduce_sum.774: f32[]) -> f32[] {
  %reduce_sum.773 = f32[] parameter(0), metadata={op_name="reduce_sum"}
  %reduce_sum.774 = f32[] parameter(1), metadata={op_name="reduce_sum"}
  ROOT %reduce_sum.775 = f32[] add(%reduce_sum.773, %reduce_sum.774), metadata={op_name="jit(step_fun)/aten::mean.dim/reduce_sum" source_file="/home/eporat/benchmarking_qwen_omni_tpu/.venv/lib/python3.11/site-packages/torchax/ops/jaten.py" source_line=265 source_end_line=265 source_column=9 source_end_column=43}
}

%region_5.814 (reduce_max.811: f32[], reduce_max.812: f32[]) -> f32[] {
  %reduce_max.811 = f32[] parameter(0), metadata={op_name="reduce_max"}
  %reduce_max.812 = f32[] parameter(1), metadata={op_name="reduce_max"}
  ROOT %reduce_max.813 = f32[] maximum(%reduce_max.811, %reduce_max.812), metadata={op_name="reduce_max" source_file="/home/eporat/benchmarking_qwen_omni_tpu/.venv/lib/python3.11/site-packages/tpu_inference/layers/vllm/fused_moe.py" source_line=309 source_end_line=309 source_column=19 source_end_column=77}
}

%region_6.826 (reduce_sum.823: f32[], reduce_sum.824: f32[]) -> f32[] {
  %reduce_sum.823 = f32[] parameter(0), metadata={op_name="reduce_sum"}
  %reduce_sum.824 = f32[] parameter(1), metadata={op_name="reduce_sum"}
  ROOT %reduce_sum.825 = f32[] add(%reduce_sum.823, %reduce_sum.824), metadata={op_name="reduce_sum" source_file="/home/eporat/benchmarking_qwen_omni_tpu/.venv/lib/python3.11/site-packages/tpu_inference/layers/vllm/fused_moe.py" source_line=309 source_end_line=309 source_column=19 source_end_column=77}
}

%region_7.839 (reduce_sum.836: f32[], reduce_sum.837: f32[]) -> f32[] {
  %reduce_sum.836 = f32[] parameter(0), metadata={op_name="reduce_sum"}
  %reduce_sum.837 = f32[] parameter(1), metadata={op_name="reduce_sum"}
  ROOT %reduce_sum.838 = f32[] add(%reduce_sum.836, %reduce_sum.837), metadata={op_name="reduce_sum" source_file="/home/eporat/benchmarking_qwen_omni_tpu/.venv/lib/python3.11/site-packages/tpu_inference/layers/vllm/fused_moe.py" source_line=312 source_end_line=312 source_column=38 source_end_column=78}
}

%region_8.855 (sort.850: s32[], sort.851: s32[], sort.852: s32[], sort.853: s32[]) -> pred[] {
  %sort.852 = s32[] parameter(2), metadata={op_name="sort"}
  %sort.853 = s32[] parameter(3), metadata={op_name="sort"}
  %sort.850 = s32[] parameter(0), metadata={op_name="sort"}
  %sort.851 = s32[] parameter(1), metadata={op_name="sort"}
  ROOT %lt_to.854 = pred[] compare(%sort.850, %sort.851), direction=LT, metadata={op_name="lt_to" source_file="/home/eporat/benchmarking_qwen_omni_tpu/.venv/lib/python3.11/site-packages/tpu_inference/layers/vllm/fused_moe.py" source_line=316 source_end_line=316 source_column=27 source_end_column=57}
}

%argsort.859 (Arg_0.848: s32[128]) -> s32[128] {
  %Arg_0.848 = s32[128]{0} parameter(0)
  %iota.849 = s32[128]{0} iota(), iota_dimension=0, metadata={op_name="iota" source_file="/home/eporat/benchmarking_qwen_omni_tpu/.venv/lib/python3.11/site-packages/tpu_inference/layers/vllm/fused_moe.py" source_line=316 source_end_line=316 source_column=27 source_end_column=57}
  %sort.856 = (s32[128]{0}, s32[128]{0}) sort(%Arg_0.848, %iota.849), dimensions={0}, is_stable=true, to_apply=%region_8.855, metadata={op_name="sort" source_file="/home/eporat/benchmarking_qwen_omni_tpu/.venv/lib/python3.11/site-packages/tpu_inference/layers/vllm/fused_moe.py" source_line=316 source_end_line=316 source_column=27 source_end_column=57}
  %sort.857 = s32[128]{0} get-tuple-element(%sort.856), index=0, metadata={op_name="sort" source_file="/home/eporat/benchmarking_qwen_omni_tpu/.venv/lib/python3.11/site-packages/tpu_inference/layers/vllm/fused_moe.py" source_line=316 source_end_line=316 source_column=27 source_end_column=57}
  ROOT %sort.858 = s32[128]{0} get-tuple-element(%sort.856), index=1, metadata={op_name="sort" source_file="/home/eporat/benchmarking_qwen_omni_tpu/.venv/lib/python3.11/site-packages/tpu_inference/layers/vllm/fused_moe.py" source_line=316 source_end_line=316 source_column=27 source_end_column=57}
}

%region_9.868 (sort.863: s32[], sort.864: s32[], sort.865: s32[], sort.866: s32[]) -> pred[] {
  %sort.865 = s32[] parameter(2), metadata={op_name="sort"}
  %sort.866 = s32[] parameter(3), metadata={op_name="sort"}
  %sort.863 = s32[] parameter(0), metadata={op_name="sort"}
  %sort.864 = s32[] parameter(1), metadata={op_name="sort"}
  ROOT %lt_to.867 = pred[] compare(%sort.863, %sort.864), direction=LT, metadata={op_name="lt_to" source_file="/home/eporat/benchmarking_qwen_omni_tpu/.venv/lib/python3.11/site-packages/tpu_inference/layers/vllm/fused_moe.py" source_line=317 source_end_line=317 source_column=34 source_end_column=67}
}

%argsort_93.872 (Arg_0.861: s32[128]) -> s32[128] {
  %Arg_0.861 = s32[128]{0} parameter(0)
  %iota.862 = s32[128]{0} iota(), iota_dimension=0, metadata={op_name="iota" source_file="/home/eporat/benchmarking_qwen_omni_tpu/.venv/lib/python3.11/site-packages/tpu_inference/layers/vllm/fused_moe.py" source_line=317 source_end_line=317 source_column=34 source_end_column=67}
  %sort.869 = (s32[128]{0}, s32[128]{0}) sort(%Arg_0.861, %iota.862), dimensions={0}, is_stable=true, to_apply=%region_9.868, metadata={op_name="sort" source_file="/home/eporat/benchmarking_qwen_omni_tpu/.venv/lib/python3.11/site-packages/tpu_inference/layers/vllm/fused_moe.py" source_line=317 source_end_line=317 source_column=34 source_end_column=67}
  %sort.870 = s32[128]{0} get-tuple-element(%sort.869), index=0, metadata={op_name="sort" source_file="/home/eporat/benchmarking_qwen_omni_tpu/.venv/lib/python3.11/site-packages/tpu_inference/layers/vllm/fused_moe.py" source_line=317 source_end_line=317 source_column=34 source_end_column=67}
  ROOT %sort.871 = s32[128]{0} get-tuple-element(%sort.869), index=1, metadata={op_name="sort" source_file="/home/eporat/benchmarking_qwen_omni_tpu/.venv/lib/python3.11/site-packages/tpu_inference/layers/vllm/fused_moe.py" source_line=317 source_end_line=317 source_column=34 source_end_column=67}
}

%clip.886 (Arg_0.882: s32[128], Arg_1.883: s32[]) -> s32[128] {
  %Arg_1.883 = s32[] parameter(1)
  %max.884 = s32[128]{0} broadcast(%Arg_1.883), dimensions={}, metadata={op_name="max" source_file="/home/eporat/benchmarking_qwen_omni_tpu/.venv/lib/python3.11/site-packages/tpu_inference/layers/vllm/fused_moe.py" source_line=320 source_end_line=320 source_column=18 source_end_column=76}
  %Arg_0.882 = s32[128]{0} parameter(0)
  ROOT %max.885 = s32[128]{0} maximum(%max.884, %Arg_0.882), metadata={op_name="max" source_file="/home/eporat/benchmarking_qwen_omni_tpu/.venv/lib/python3.11/site-packages/tpu_inference/layers/vllm/fused_moe.py" source_line=320 source_end_line=320 source_column=18 source_end_column=76}
}

%region_10.895 (scatter-add.892: s32[], scatter-add.893: s32[]) -> s32[] {
  %scatter-add.892 = s32[] parameter(0), metadata={op_name="scatter-add"}
  %scatter-add.893 = s32[] parameter(1), metadata={op_name="scatter-add"}
  ROOT %add.894 = s32[] add(%scatter-add.892, %scatter-add.893), metadata={op_name="add" source_file="/home/eporat/benchmarking_qwen_omni_tpu/.venv/lib/python3.11/site-packages/tpu_inference/layers/vllm/fused_moe.py" source_line=320 source_end_line=320 source_column=18 source_end_column=76}
}

%region_11.946 (reduce_window_sum.943: s32[], reduce_window_sum.944: s32[]) -> s32[] {
  %reduce_window_sum.943 = s32[] parameter(0), metadata={op_name="reduce_window_sum"}
  %reduce_window_sum.944 = s32[] parameter(1), metadata={op_name="reduce_window_sum"}
  ROOT %reduce_window_sum.945 = s32[] add(%reduce_window_sum.943, %reduce_window_sum.944), metadata={op_name="reduce_window_sum" source_file="/home/eporat/benchmarking_qwen_omni_tpu/.venv/lib/python3.11/site-packages/jax/experimental/pallas/ops/tpu/megablox/gmm.py" source_line=126 source_end_line=126 source_column=15 source_end_column=38}
}

%cumsum_119.948 (make_group_metadata.941: s32[128]) -> s32[128] {
  %make_group_metadata.941 = s32[128]{0} parameter(0), metadata={op_name="make_group_metadata"}
  %constant.942 = s32[] constant(0)
  ROOT %reduce_window_sum.947 = s32[128]{0} reduce-window(%make_group_metadata.941, %constant.942), window={size=128 pad=127_0}, to_apply=%region_11.946, metadata={op_name="reduce_window_sum" source_file="/home/eporat/benchmarking_qwen_omni_tpu/.venv/lib/python3.11/site-packages/jax/experimental/pallas/ops/tpu/megablox/gmm.py" source_line=126 source_end_line=126 source_column=15 source_end_column=38}
}

%cumsum.950 (Arg_0.940: s32[128]) -> s32[128] {
  %Arg_0.940 = s32[128]{0} parameter(0)
  ROOT %make_group_metadata.949 = s32[128]{0} call(%Arg_0.940), to_apply=%cumsum_119.948, metadata={op_name="make_group_metadata" source_file="/home/eporat/benchmarking_qwen_omni_tpu/.venv/lib/python3.11/site-packages/jax/experimental/pallas/ops/tpu/megablox/gmm.py" source_line=126 source_end_line=126 source_column=15 source_end_column=38}
}

%_where_129.976 (Arg_0.972: pred[128], Arg_1.973: s32[128], Arg_2.974: s32[128]) -> s32[128] {
  %Arg_0.972 = pred[128]{0} parameter(0)
  %Arg_1.973 = s32[128]{0} parameter(1)
  %Arg_2.974 = s32[128]{0} parameter(2)
  ROOT %select_n.975 = s32[128]{0} select(%Arg_0.972, %Arg_1.973, %Arg_2.974), metadata={op_name="select_n" source_file="/home/eporat/benchmarking_qwen_omni_tpu/.venv/lib/python3.11/site-packages/jax/experimental/pallas/ops/tpu/megablox/gmm.py" source_line=140 source_end_line=140 source_column=24 source_end_column=51}
}

%floor_divide.978 (Arg_0.955: s32[128], Arg_1.956: s32[]) -> s32[128] {
  %Arg_0.955 = s32[128]{0} parameter(0)
  %sign.963 = s32[128]{0} sign(%Arg_0.955), metadata={op_name="sign" source_file="/home/eporat/benchmarking_qwen_omni_tpu/.venv/lib/python3.11/site-packages/jax/experimental/pallas/ops/tpu/megablox/gmm.py" source_line=140 source_end_line=140 source_column=24 source_end_column=51}
  %Arg_1.956 = s32[] parameter(1)
  %sign.964 = s32[] sign(%Arg_1.956), metadata={op_name="sign" source_file="/home/eporat/benchmarking_qwen_omni_tpu/.venv/lib/python3.11/site-packages/jax/experimental/pallas/ops/tpu/megablox/gmm.py" source_line=140 source_end_line=140 source_column=24 source_end_column=51}
  %ne.965 = s32[128]{0} broadcast(%sign.964), dimensions={}, metadata={op_name="ne" source_file="/home/eporat/benchmarking_qwen_omni_tpu/.venv/lib/python3.11/site-packages/jax/experimental/pallas/ops/tpu/megablox/gmm.py" source_line=140 source_end_line=140 source_column=24 source_end_column=51}
  %ne.966 = pred[128]{0} compare(%sign.963, %ne.965), direction=NE, metadata={op_name="ne" source_file="/home/eporat/benchmarking_qwen_omni_tpu/.venv/lib/python3.11/site-packages/jax/experimental/pallas/ops/tpu/megablox/gmm.py" source_line=140 source_end_line=140 source_column=24 source_end_column=51}
  %rem.967 = s32[128]{0} broadcast(%Arg_1.956), dimensions={}, metadata={op_name="rem" source_file="/home/eporat/benchmarking_qwen_omni_tpu/.venv/lib/python3.11/site-packages/jax/experimental/pallas/ops/tpu/megablox/gmm.py" source_line=140 source_end_line=140 source_column=24 source_end_column=51}
  %rem.968 = s32[128]{0} remainder(%Arg_0.955, %rem.967), metadata={op_name="rem" source_file="/home/eporat/benchmarking_qwen_omni_tpu/.venv/lib/python3.11/site-packages/jax/experimental/pallas/ops/tpu/megablox/gmm.py" source_line=140 source_end_line=140 source_column=24 source_end_column=51}
  %constant.959 = s32[] constant(0)
  %ne.960 = s32[128]{0} broadcast(%constant.959), dimensions={}, metadata={op_name="ne" source_file="/home/eporat/benchmarking_qwen_omni_tpu/.venv/lib/python3.11/site-packages/jax/experimental/pallas/ops/tpu/megablox/gmm.py" source_line=140 source_end_line=140 source_column=24 source_end_column=51}
  %ne.969 = pred[128]{0} compare(%rem.968, %ne.960), direction=NE, metadata={op_name="ne" source_file="/home/eporat/benchmarking_qwen_omni_tpu/.venv/lib/python3.11/site-packages/jax/experimental/pallas/ops/tpu/megablox/gmm.py" source_line=140 source_end_line=140 source_column=24 source_end_column=51}
  %and.970 = pred[128]{0} and(%ne.966, %ne.969), metadata={op_name="and" source_file="/home/eporat/benchmarking_qwen_omni_tpu/.venv/lib/python3.11/site-packages/jax/experimental/pallas/ops/tpu/megablox/gmm.py" source_line=140 source_end_line=140 source_column=24 source_end_column=51}
  %div.961 = s32[128]{0} broadcast(%Arg_1.956), dimensions={}, metadata={op_name="div" source_file="/home/eporat/benchmarking_qwen_omni_tpu/.venv/lib/python3.11/site-packages/jax/experimental/pallas/ops/tpu/megablox/gmm.py" source_line=140 source_end_line=140 source_column=24 source_end_column=51}
  %div.962 = s32[128]{0} divide(%Arg_0.955, %div.961), metadata={op_name="div" source_file="/home/eporat/benchmarking_qwen_omni_tpu/.venv/lib/python3.11/site-packages/jax/experimental/pallas/ops/tpu/megablox/gmm.py" source_line=140 source_end_line=140 source_column=24 source_end_column=51}
  %constant.957 = s32[] constant(1)
  %sub.958 = s32[128]{0} broadcast(%constant.957), dimensions={}, metadata={op_name="sub" source_file="/home/eporat/benchmarking_qwen_omni_tpu/.venv/lib/python3.11/site-packages/jax/experimental/pallas/ops/tpu/megablox/gmm.py" source_line=140 source_end_line=140 source_column=24 source_end_column=51}
  %sub.971 = s32[128]{0} subtract(%div.962, %sub.958), metadata={op_name="sub" source_file="/home/eporat/benchmarking_qwen_omni_tpu/.venv/lib/python3.11/site-packages/jax/experimental/pallas/ops/tpu/megablox/gmm.py" source_line=140 source_end_line=140 source_column=24 source_end_column=51}
  ROOT %jit__where_.977 = s32[128]{0} call(%and.970, %sub.971, %div.962), to_apply=%_where_129.976, metadata={op_name="jit(_where)" source_file="/home/eporat/benchmarking_qwen_omni_tpu/.venv/lib/python3.11/site-packages/jax/experimental/pallas/ops/tpu/megablox/gmm.py" source_line=140 source_end_line=140 source_column=24 source_end_column=51}
}

%_where_135.992 (Arg_0.987: pred[128], Arg_1.988: s32[], Arg_2.989: s32[128]) -> s32[128] {
  %Arg_0.987 = pred[128]{0} parameter(0)
  %Arg_1.988 = s32[] parameter(1)
  %broadcast_in_dim.990 = s32[128]{0} broadcast(%Arg_1.988), dimensions={}, metadata={op_name="broadcast_in_dim" source_file="/home/eporat/benchmarking_qwen_omni_tpu/.venv/lib/python3.11/site-packages/jax/experimental/pallas/ops/tpu/megablox/gmm.py" source_line=154 source_end_line=154 source_column=24 source_end_column=75}
  %Arg_2.989 = s32[128]{0} parameter(2)
  ROOT %select_n.991 = s32[128]{0} select(%Arg_0.987, %broadcast_in_dim.990, %Arg_2.989), metadata={op_name="select_n" source_file="/home/eporat/benchmarking_qwen_omni_tpu/.venv/lib/python3.11/site-packages/jax/experimental/pallas/ops/tpu/megablox/gmm.py" source_line=154 source_end_line=154 source_column=24 source_end_column=75}
}

%_roll_static.1000 (Arg_0.996: s32[128]) -> s32[128] {
  %Arg_0.996 = s32[128]{0} parameter(0)
  %slice.997 = s32[1]{0} slice(%Arg_0.996), slice={[127:128]}, metadata={op_name="slice" source_file="/home/eporat/benchmarking_qwen_omni_tpu/.venv/lib/python3.11/site-packages/jax/experimental/pallas/ops/tpu/megablox/gmm.py" source_line=187 source_end_line=191 source_column=14 source_end_column=3}
  %slice.998 = s32[127]{0} slice(%Arg_0.996), slice={[0:127]}, metadata={op_name="slice" source_file="/home/eporat/benchmarking_qwen_omni_tpu/.venv/lib/python3.11/site-packages/jax/experimental/pallas/ops/tpu/megablox/gmm.py" source_line=187 source_end_line=191 source_column=14 source_end_column=3}
  ROOT %concatenate.999 = s32[128]{0} concatenate(%slice.997, %slice.998), dimensions={0}, metadata={op_name="concatenate" source_file="/home/eporat/benchmarking_qwen_omni_tpu/.venv/lib/python3.11/site-packages/jax/experimental/pallas/ops/tpu/megablox/gmm.py" source_line=187 source_end_line=191 source_column=14 source_end_column=3}
}

%region_12.1004 (scatter.1002: s32[], scatter.1003: s32[]) -> s32[] {
  %scatter.1002 = s32[] parameter(0), metadata={op_name="scatter"}
  ROOT %scatter.1003 = s32[] parameter(1), metadata={op_name="scatter"}
}

%region_13.1014 (scatter-add.1011: s32[], scatter-add.1012: s32[]) -> s32[] {
  %scatter-add.1011 = s32[] parameter(0), metadata={op_name="scatter-add"}
  %scatter-add.1012 = s32[] parameter(1), metadata={op_name="scatter-add"}
  ROOT %add.1013 = s32[] add(%scatter-add.1011, %scatter-add.1012), metadata={op_name="add" source_file="/home/eporat/benchmarking_qwen_omni_tpu/.venv/lib/python3.11/site-packages/jax/experimental/pallas/ops/tpu/megablox/gmm.py" source_line=187 source_end_line=191 source_column=14 source_end_column=3}
}

%region_14.1041 (reduce_and.1038: pred[], reduce_and.1039: pred[]) -> pred[] {
  %reduce_and.1038 = pred[] parameter(0), metadata={op_name="reduce_and"}
  %reduce_and.1039 = pred[] parameter(1), metadata={op_name="reduce_and"}
  ROOT %reduce_and.1040 = pred[] and(%reduce_and.1038, %reduce_and.1039), metadata={op_name="reduce_and" source_file="/home/eporat/benchmarking_qwen_omni_tpu/.venv/lib/python3.11/site-packages/jax/experimental/pallas/ops/tpu/megablox/gmm.py" source_line=187 source_end_line=191 source_column=14 source_end_column=3}
}

%_take_147.1045 (Arg_0.1018: s32[128], Arg_1.1019: s32[128]) -> s32[128] {
  %Arg_1.1019 = s32[128]{0} parameter(1)
  %constant.1029 = s32[] constant(0)
  %lt.1030 = s32[128]{0} broadcast(%constant.1029), dimensions={}, metadata={op_name="lt" source_file="/home/eporat/benchmarking_qwen_omni_tpu/.venv/lib/python3.11/site-packages/jax/experimental/pallas/ops/tpu/megablox/gmm.py" source_line=187 source_end_line=191 source_column=14 source_end_column=3}
  %lt.1031 = pred[128]{0} compare(%Arg_1.1019, %lt.1030), direction=LT, metadata={op_name="lt" source_file="/home/eporat/benchmarking_qwen_omni_tpu/.venv/lib/python3.11/site-packages/jax/experimental/pallas/ops/tpu/megablox/gmm.py" source_line=187 source_end_line=191 source_column=14 source_end_column=3}
  %constant.1026 = s32[] constant(128)
  %add.1027 = s32[128]{0} broadcast(%constant.1026), dimensions={}, metadata={op_name="add" source_file="/home/eporat/benchmarking_qwen_omni_tpu/.venv/lib/python3.11/site-packages/jax/experimental/pallas/ops/tpu/megablox/gmm.py" source_line=187 source_end_line=191 source_column=14 source_end_column=3}
  %add.1032 = s32[128]{0} add(%Arg_1.1019, %add.1027), metadata={op_name="add" source_file="/home/eporat/benchmarking_qwen_omni_tpu/.venv/lib/python3.11/site-packages/jax/experimental/pallas/ops/tpu/megablox/gmm.py" source_line=187 source_end_line=191 source_column=14 source_end_column=3}
  %jit__where_.1033 = s32[128]{0} call(%lt.1031, %add.1032, %Arg_1.1019), to_apply=%_where_129.976, metadata={op_name="jit(_where)" source_file="/home/eporat/benchmarking_qwen_omni_tpu/.venv/lib/python3.11/site-packages/jax/experimental/pallas/ops/tpu/megablox/gmm.py" source_line=187 source_end_line=191 source_column=14 source_end_column=3}
  %broadcast_in_dim.1034 = s32[128,1]{1,0} reshape(%jit__where_.1033), metadata={op_name="broadcast_in_dim" source_file="/home/eporat/benchmarking_qwen_omni_tpu/.venv/lib/python3.11/site-packages/jax/experimental/pallas/ops/tpu/megablox/gmm.py" source_line=187 source_end_line=191 source_column=14 source_end_column=3}
  %constant.1024 = s32[] constant(0)
  %ge.1025 = s32[128,1]{1,0} broadcast(%constant.1024), dimensions={}, metadata={op_name="ge" source_file="/home/eporat/benchmarking_qwen_omni_tpu/.venv/lib/python3.11/site-packages/jax/experimental/pallas/ops/tpu/megablox/gmm.py" source_line=187 source_end_line=191 source_column=14 source_end_column=3}
  %ge.1035 = pred[128,1]{1,0} compare(%broadcast_in_dim.1034, %ge.1025), direction=GE, metadata={op_name="ge" source_file="/home/eporat/benchmarking_qwen_omni_tpu/.venv/lib/python3.11/site-packages/jax/experimental/pallas/ops/tpu/megablox/gmm.py" source_line=187 source_end_line=191 source_column=14 source_end_column=3}
  %constant.1022 = s32[] constant(127)
  %le.1023 = s32[128,1]{1,0} broadcast(%constant.1022), dimensions={}, metadata={op_name="le" source_file="/home/eporat/benchmarking_qwen_omni_tpu/.venv/lib/python3.11/site-packages/jax/experimental/pallas/ops/tpu/megablox/gmm.py" source_line=187 source_end_line=191 source_column=14 source_end_column=3}
  %le.1036 = pred[128,1]{1,0} compare(%broadcast_in_dim.1034, %le.1023), direction=LE, metadata={op_name="le" source_file="/home/eporat/benchmarking_qwen_omni_tpu/.venv/lib/python3.11/site-packages/jax/experimental/pallas/ops/tpu/megablox/gmm.py" source_line=187 source_end_line=191 source_column=14 source_end_column=3}
  %and.1037 = pred[128,1]{1,0} and(%ge.1035, %le.1036), metadata={op_name="and" source_file="/home/eporat/benchmarking_qwen_omni_tpu/.venv/lib/python3.11/site-packages/jax/experimental/pallas/ops/tpu/megablox/gmm.py" source_line=187 source_end_line=191 source_column=14 source_end_column=3}
  %constant.1028 = pred[] constant(true)
  %reduce_and.1042 = pred[128]{0} reduce(%and.1037, %constant.1028), dimensions={1}, to_apply=%region_14.1041, metadata={op_name="reduce_and" source_file="/home/eporat/benchmarking_qwen_omni_tpu/.venv/lib/python3.11/site-packages/jax/experimental/pallas/ops/tpu/megablox/gmm.py" source_line=187 source_end_line=191 source_column=14 source_end_column=3}
  %Arg_0.1018 = s32[128]{0} parameter(0)
  %gather.1043 = s32[128]{0} gather(%Arg_0.1018, %broadcast_in_dim.1034), offset_dims={}, collapsed_slice_dims={0}, start_index_map={0}, index_vector_dim=1, slice_sizes={1}, metadata={op_name="gather" source_file="/home/eporat/benchmarking_qwen_omni_tpu/.venv/lib/python3.11/site-packages/jax/experimental/pallas/ops/tpu/megablox/gmm.py" source_line=187 source_end_line=191 source_column=14 source_end_column=3}
  %constant.1020 = s32[] constant(-2147483648)
  %broadcast_in_dim.1021 = s32[128]{0} broadcast(%constant.1020), dimensions={}, metadata={op_name="broadcast_in_dim" source_file="/home/eporat/benchmarking_qwen_omni_tpu/.venv/lib/python3.11/site-packages/jax/experimental/pallas/ops/tpu/megablox/gmm.py" source_line=187 source_end_line=191 source_column=14 source_end_column=3}
  ROOT %select_n.1044 = s32[128]{0} select(%reduce_and.1042, %gather.1043, %broadcast_in_dim.1021), metadata={op_name="select_n" source_file="/home/eporat/benchmarking_qwen_omni_tpu/.venv/lib/python3.11/site-packages/jax/experimental/pallas/ops/tpu/megablox/gmm.py" source_line=187 source_end_line=191 source_column=14 source_end_column=3}
}

%_where_158.1059 (Arg_0.1055: pred[], Arg_1.1056: s32[], Arg_2.1057: s32[]) -> s32[] {
  %Arg_0.1055 = pred[] parameter(0)
  %Arg_1.1056 = s32[] parameter(1)
  %Arg_2.1057 = s32[] parameter(2)
  ROOT %select_n.1058 = s32[] select(%Arg_0.1055, %Arg_1.1056, %Arg_2.1057), metadata={op_name="select_n" source_file="/home/eporat/benchmarking_qwen_omni_tpu/.venv/lib/python3.11/site-packages/jax/experimental/pallas/ops/tpu/megablox/gmm.py" source_line=213 source_end_line=213 source_column=7 source_end_column=25}
}

%remainder.1072 (Arg_0.1048: s32[128], Arg_1.1049: s32[]) -> s32[128] {
  %Arg_0.1048 = s32[128]{0} parameter(0)
  %Arg_1.1049 = s32[] parameter(1)
  %constant.1053 = s32[] constant(0)
  %eq.1054 = pred[] compare(%Arg_1.1049, %constant.1053), direction=EQ, metadata={op_name="eq" source_file="/home/eporat/benchmarking_qwen_omni_tpu/.venv/lib/python3.11/site-packages/jax/experimental/pallas/ops/tpu/megablox/gmm.py" source_line=213 source_end_line=213 source_column=7 source_end_column=25}
  %constant.1052 = s32[] constant(1)
  %jit__where_.1060 = s32[] call(%eq.1054, %constant.1052, %Arg_1.1049), to_apply=%_where_158.1059, metadata={op_name="jit(_where)" source_file="/home/eporat/benchmarking_qwen_omni_tpu/.venv/lib/python3.11/site-packages/jax/experimental/pallas/ops/tpu/megablox/gmm.py" source_line=213 source_end_line=213 source_column=7 source_end_column=25}
  %rem.1061 = s32[128]{0} broadcast(%jit__where_.1060), dimensions={}, metadata={op_name="rem" source_file="/home/eporat/benchmarking_qwen_omni_tpu/.venv/lib/python3.11/site-packages/jax/experimental/pallas/ops/tpu/megablox/gmm.py" source_line=213 source_end_line=213 source_column=7 source_end_column=25}
  %rem.1062 = s32[128]{0} remainder(%Arg_0.1048, %rem.1061), metadata={op_name="rem" source_file="/home/eporat/benchmarking_qwen_omni_tpu/.venv/lib/python3.11/site-packages/jax/experimental/pallas/ops/tpu/megablox/gmm.py" source_line=213 source_end_line=213 source_column=7 source_end_column=25}
  %constant.1050 = s32[] constant(0)
  %broadcast.1051 = s32[128]{0} broadcast(%constant.1050), dimensions={}
  %lt.1064 = pred[128]{0} compare(%rem.1062, %broadcast.1051), direction=LT, metadata={op_name="lt" source_file="/home/eporat/benchmarking_qwen_omni_tpu/.venv/lib/python3.11/site-packages/jax/experimental/pallas/ops/tpu/megablox/gmm.py" source_line=213 source_end_line=213 source_column=7 source_end_column=25}
  %lt.1065 = pred[] compare(%jit__where_.1060, %constant.1053), direction=LT, metadata={op_name="lt" source_file="/home/eporat/benchmarking_qwen_omni_tpu/.venv/lib/python3.11/site-packages/jax/experimental/pallas/ops/tpu/megablox/gmm.py" source_line=213 source_end_line=213 source_column=7 source_end_column=25}
  %ne.1066 = pred[128]{0} broadcast(%lt.1065), dimensions={}, metadata={op_name="ne" source_file="/home/eporat/benchmarking_qwen_omni_tpu/.venv/lib/python3.11/site-packages/jax/experimental/pallas/ops/tpu/megablox/gmm.py" source_line=213 source_end_line=213 source_column=7 source_end_column=25}
  %ne.1067 = pred[128]{0} compare(%lt.1064, %ne.1066), direction=NE, metadata={op_name="ne" source_file="/home/eporat/benchmarking_qwen_omni_tpu/.venv/lib/python3.11/site-packages/jax/experimental/pallas/ops/tpu/megablox/gmm.py" source_line=213 source_end_line=213 source_column=7 source_end_column=25}
  %ne.1063 = pred[128]{0} compare(%rem.1062, %broadcast.1051), direction=NE, metadata={op_name="ne" source_file="/home/eporat/benchmarking_qwen_omni_tpu/.venv/lib/python3.11/site-packages/jax/experimental/pallas/ops/tpu/megablox/gmm.py" source_line=213 source_end_line=213 source_column=7 source_end_column=25}
  %and.1068 = pred[128]{0} and(%ne.1067, %ne.1063), metadata={op_name="and" source_file="/home/eporat/benchmarking_qwen_omni_tpu/.venv/lib/python3.11/site-packages/jax/experimental/pallas/ops/tpu/megablox/gmm.py" source_line=213 source_end_line=213 source_column=7 source_end_column=25}
  %add.1069 = s32[128]{0} broadcast(%jit__where_.1060), dimensions={}, metadata={op_name="add" source_file="/home/eporat/benchmarking_qwen_omni_tpu/.venv/lib/python3.11/site-packages/jax/experimental/pallas/ops/tpu/megablox/gmm.py" source_line=213 source_end_line=213 source_column=7 source_end_column=25}
  %add.1070 = s32[128]{0} add(%rem.1062, %add.1069), metadata={op_name="add" source_file="/home/eporat/benchmarking_qwen_omni_tpu/.venv/lib/python3.11/site-packages/jax/experimental/pallas/ops/tpu/megablox/gmm.py" source_line=213 source_end_line=213 source_column=7 source_end_column=25}
  ROOT %select_n.1071 = s32[128]{0} select(%and.1068, %add.1070, %rem.1062), metadata={op_name="select_n" source_file="/home/eporat/benchmarking_qwen_omni_tpu/.venv/lib/python3.11/site-packages/jax/experimental/pallas/ops/tpu/megablox/gmm.py" source_line=213 source_end_line=213 source_column=7 source_end_column=25}
}

%region_15.1087 (reduce_max.1084: f32[], reduce_max.1085: f32[]) -> f32[] {
  %reduce_max.1084 = f32[] parameter(0), metadata={op_name="reduce_max"}
  %reduce_max.1085 = f32[] parameter(1), metadata={op_name="reduce_max"}
  ROOT %reduce_max.1086 = f32[] maximum(%reduce_max.1084, %reduce_max.1085), metadata={op_name="reduce_max" source_file="/home/eporat/benchmarking_qwen_omni_tpu/.venv/lib/python3.11/site-packages/jax/experimental/pallas/ops/tpu/megablox/gmm.py" source_line=226 source_end_line=227 source_column=6 source_end_column=9}
}

%region_16.1092 (reduce_min.1089: f32[], reduce_min.1090: f32[]) -> f32[] {
  %reduce_min.1089 = f32[] parameter(0), metadata={op_name="reduce_min"}
  %reduce_min.1090 = f32[] parameter(1), metadata={op_name="reduce_min"}
  ROOT %reduce_min.1091 = f32[] minimum(%reduce_min.1089, %reduce_min.1090), metadata={op_name="reduce_min" source_file="/home/eporat/benchmarking_qwen_omni_tpu/.venv/lib/python3.11/site-packages/jax/experimental/pallas/ops/tpu/megablox/gmm.py" source_line=226 source_end_line=227 source_column=6 source_end_column=9}
}

%_ptp.1095 (Arg_0.1081: f32[2]) -> f32[] {
  %Arg_0.1081 = f32[2]{0} parameter(0)
  %constant.1083 = f32[] constant(-inf)
  %reduce_max.1088 = f32[] reduce(%Arg_0.1081, %constant.1083), dimensions={0}, to_apply=%region_15.1087, metadata={op_name="reduce_max" source_file="/home/eporat/benchmarking_qwen_omni_tpu/.venv/lib/python3.11/site-packages/jax/experimental/pallas/ops/tpu/megablox/gmm.py" source_line=226 source_end_line=227 source_column=6 source_end_column=9}
  %constant.1082 = f32[] constant(inf)
  %reduce_min.1093 = f32[] reduce(%Arg_0.1081, %constant.1082), dimensions={0}, to_apply=%region_16.1092, metadata={op_name="reduce_min" source_file="/home/eporat/benchmarking_qwen_omni_tpu/.venv/lib/python3.11/site-packages/jax/experimental/pallas/ops/tpu/megablox/gmm.py" source_line=226 source_end_line=227 source_column=6 source_end_column=9}
  ROOT %sub.1094 = f32[] subtract(%reduce_max.1088, %reduce_min.1093), metadata={op_name="sub" source_file="/home/eporat/benchmarking_qwen_omni_tpu/.venv/lib/python3.11/site-packages/jax/experimental/pallas/ops/tpu/megablox/gmm.py" source_line=226 source_end_line=227 source_column=6 source_end_column=9}
}

%_where_171.1102 (Arg_0.1098: pred[], Arg_1.1099: f32[], Arg_2.1100: f32[]) -> f32[] {
  %Arg_0.1098 = pred[] parameter(0)
  %Arg_1.1099 = f32[] parameter(1)
  %Arg_2.1100 = f32[] parameter(2)
  ROOT %select_n.1101 = f32[] select(%Arg_0.1098, %Arg_1.1099, %Arg_2.1100), metadata={op_name="select_n" source_file="/home/eporat/benchmarking_qwen_omni_tpu/.venv/lib/python3.11/site-packages/jax/experimental/pallas/ops/tpu/megablox/gmm.py" source_line=226 source_end_line=227 source_column=6 source_end_column=9}
}

%_linspace.1116 (Arg_0.1107: f32[], Arg_1.1108: f32[]) -> f32[2] {
  %Arg_0.1107 = f32[] parameter(0)
  %reshape.1110 = f32[1]{0} reshape(%Arg_0.1107), metadata={op_name="reshape" source_file="/home/eporat/benchmarking_qwen_omni_tpu/.venv/lib/python3.11/site-packages/jax/experimental/pallas/ops/tpu/megablox/gmm.py" source_line=226 source_end_line=227 source_column=6 source_end_column=9}
  %Arg_1.1108 = f32[] parameter(1)
  %reshape.1111 = f32[1]{0} reshape(%Arg_1.1108), metadata={op_name="reshape" source_file="/home/eporat/benchmarking_qwen_omni_tpu/.venv/lib/python3.11/site-packages/jax/experimental/pallas/ops/tpu/megablox/gmm.py" source_line=226 source_end_line=227 source_column=6 source_end_column=9}
  %constant.1109 = f32[1]{0} constant({0})
  %mul.1112 = f32[1]{0} multiply(%reshape.1111, %constant.1109), metadata={op_name="mul" source_file="/home/eporat/benchmarking_qwen_omni_tpu/.venv/lib/python3.11/site-packages/jax/experimental/pallas/ops/tpu/megablox/gmm.py" source_line=226 source_end_line=227 source_column=6 source_end_column=9}
  %add.1113 = f32[1]{0} add(%reshape.1110, %mul.1112), metadata={op_name="add" source_file="/home/eporat/benchmarking_qwen_omni_tpu/.venv/lib/python3.11/site-packages/jax/experimental/pallas/ops/tpu/megablox/gmm.py" source_line=226 source_end_line=227 source_column=6 source_end_column=9}
  %broadcast_in_dim.1114 = f32[1]{0} reshape(%Arg_1.1108), metadata={op_name="broadcast_in_dim" source_file="/home/eporat/benchmarking_qwen_omni_tpu/.venv/lib/python3.11/site-packages/jax/experimental/pallas/ops/tpu/megablox/gmm.py" source_line=226 source_end_line=227 source_column=6 source_end_column=9}
  ROOT %concatenate.1115 = f32[2]{0} concatenate(%add.1113, %broadcast_in_dim.1114), dimensions={0}, metadata={op_name="concatenate" source_file="/home/eporat/benchmarking_qwen_omni_tpu/.venv/lib/python3.11/site-packages/jax/experimental/pallas/ops/tpu/megablox/gmm.py" source_line=226 source_end_line=227 source_column=6 source_end_column=9}
}

%_where_196.1170 (Arg_0.1166: pred[128], Arg_1.1167: s32[128], Arg_2.1168: s32[128]) -> s32[128] {
  %Arg_0.1166 = pred[128]{0} parameter(0)
  %Arg_1.1167 = s32[128]{0} parameter(1)
  %Arg_2.1168 = s32[128]{0} parameter(2)
  ROOT %select_n.1169 = s32[128]{0} select(%Arg_0.1166, %Arg_1.1167, %Arg_2.1168), metadata={op_name="select_n" source_file="/home/eporat/benchmarking_qwen_omni_tpu/.venv/lib/python3.11/site-packages/jax/experimental/pallas/ops/tpu/megablox/gmm.py" source_line=226 source_end_line=227 source_column=6 source_end_column=9}
}

%_where_198.1176 (Arg_0.1172: pred[128], Arg_1.1173: s32[128], Arg_2.1174: s32[128]) -> s32[128] {
  %Arg_0.1172 = pred[128]{0} parameter(0)
  %Arg_1.1173 = s32[128]{0} parameter(1)
  %Arg_2.1174 = s32[128]{0} parameter(2)
  ROOT %select_n.1175 = s32[128]{0} select(%Arg_0.1172, %Arg_1.1173, %Arg_2.1174), metadata={op_name="select_n" source_file="/home/eporat/benchmarking_qwen_omni_tpu/.venv/lib/python3.11/site-packages/jax/experimental/pallas/ops/tpu/megablox/gmm.py" source_line=226 source_end_line=227 source_column=6 source_end_column=9}
}

%closed_call.1179 (Arg_0.1132: f32[2], Arg_1.1133: f32[128], Arg_2.1134: s32[128], Arg_3.1135: s32[128]) -> (s32[128], s32[128]) {
  %Arg_1.1133 = f32[128]{0} parameter(1)
  %ne.1159 = pred[128]{0} compare(%Arg_1.1133, %Arg_1.1133), direction=NE, metadata={op_name="ne" source_file="/home/eporat/benchmarking_qwen_omni_tpu/.venv/lib/python3.11/site-packages/jax/experimental/pallas/ops/tpu/megablox/gmm.py" source_line=226 source_end_line=227 source_column=6 source_end_column=9}
  %constant.1136 = f32[] constant(nan)
  %broadcast.1137 = f32[128]{0} broadcast(%constant.1136), dimensions={}
  %constant.1138 = f32[] constant(0)
  %broadcast.1139 = f32[128]{0} broadcast(%constant.1138), dimensions={}
  %eq.1157 = pred[128]{0} compare(%Arg_1.1133, %broadcast.1139), direction=EQ, metadata={op_name="eq" source_file="/home/eporat/benchmarking_qwen_omni_tpu/.venv/lib/python3.11/site-packages/jax/experimental/pallas/ops/tpu/megablox/gmm.py" source_line=226 source_end_line=227 source_column=6 source_end_column=9}
  %select_n.1158 = f32[128]{0} select(%eq.1157, %broadcast.1139, %Arg_1.1133), metadata={op_name="select_n" source_file="/home/eporat/benchmarking_qwen_omni_tpu/.venv/lib/python3.11/site-packages/jax/experimental/pallas/ops/tpu/megablox/gmm.py" source_line=226 source_end_line=227 source_column=6 source_end_column=9}
  %select_n.1160 = f32[128]{0} select(%ne.1159, %broadcast.1137, %select_n.1158), metadata={op_name="select_n" source_file="/home/eporat/benchmarking_qwen_omni_tpu/.venv/lib/python3.11/site-packages/jax/experimental/pallas/ops/tpu/megablox/gmm.py" source_line=226 source_end_line=227 source_column=6 source_end_column=9}
  %Arg_0.1132 = f32[2]{0} parameter(0)
  %Arg_2.1134 = s32[128]{0} parameter(2)
  %convert_element_type.1146 = u32[128]{0} convert(%Arg_2.1134), metadata={op_name="convert_element_type" source_file="/home/eporat/benchmarking_qwen_omni_tpu/.venv/lib/python3.11/site-packages/jax/experimental/pallas/ops/tpu/megablox/gmm.py" source_line=226 source_end_line=227 source_column=6 source_end_column=9}
  %Arg_3.1135 = s32[128]{0} parameter(3)
  %convert_element_type.1147 = u32[128]{0} convert(%Arg_3.1135), metadata={op_name="convert_element_type" source_file="/home/eporat/benchmarking_qwen_omni_tpu/.venv/lib/python3.11/site-packages/jax/experimental/pallas/ops/tpu/megablox/gmm.py" source_line=226 source_end_line=227 source_column=6 source_end_column=9}
  %add.1148 = u32[128]{0} add(%convert_element_type.1146, %convert_element_type.1147), metadata={op_name="add" source_file="/home/eporat/benchmarking_qwen_omni_tpu/.venv/lib/python3.11/site-packages/jax/experimental/pallas/ops/tpu/megablox/gmm.py" source_line=226 source_end_line=227 source_column=6 source_end_column=9}
  %constant.1144 = u32[] constant(2)
  %div.1145 = u32[128]{0} broadcast(%constant.1144), dimensions={}, metadata={op_name="div" source_file="/home/eporat/benchmarking_qwen_omni_tpu/.venv/lib/python3.11/site-packages/jax/experimental/pallas/ops/tpu/megablox/gmm.py" source_line=226 source_end_line=227 source_column=6 source_end_column=9}
  %div.1149 = u32[128]{0} divide(%add.1148, %div.1145), metadata={op_name="div" source_file="/home/eporat/benchmarking_qwen_omni_tpu/.venv/lib/python3.11/site-packages/jax/experimental/pallas/ops/tpu/megablox/gmm.py" source_line=226 source_end_line=227 source_column=6 source_end_column=9}
  %convert_element_type.1150 = s32[128]{0} convert(%div.1149), metadata={op_name="convert_element_type" source_file="/home/eporat/benchmarking_qwen_omni_tpu/.venv/lib/python3.11/site-packages/jax/experimental/pallas/ops/tpu/megablox/gmm.py" source_line=226 source_end_line=227 source_column=6 source_end_column=9}
  %constant.1142 = s32[] constant(0)
  %lt.1143 = s32[128]{0} broadcast(%constant.1142), dimensions={}, metadata={op_name="lt" source_file="/home/eporat/benchmarking_qwen_omni_tpu/.venv/lib/python3.11/site-packages/jax/experimental/pallas/ops/tpu/megablox/gmm.py" source_line=226 source_end_line=227 source_column=6 source_end_column=9}
  %lt.1151 = pred[128]{0} compare(%convert_element_type.1150, %lt.1143), direction=LT, metadata={op_name="lt" source_file="/home/eporat/benchmarking_qwen_omni_tpu/.venv/lib/python3.11/site-packages/jax/experimental/pallas/ops/tpu/megablox/gmm.py" source_line=226 source_end_line=227 source_column=6 source_end_column=9}
  %constant.1140 = s32[] constant(2)
  %add.1141 = s32[128]{0} broadcast(%constant.1140), dimensions={}, metadata={op_name="add" source_file="/home/eporat/benchmarking_qwen_omni_tpu/.venv/lib/python3.11/site-packages/jax/experimental/pallas/ops/tpu/megablox/gmm.py" source_line=226 source_end_line=227 source_column=6 source_end_column=9}
  %add.1152 = s32[128]{0} add(%convert_element_type.1150, %add.1141), metadata={op_name="add" source_file="/home/eporat/benchmarking_qwen_omni_tpu/.venv/lib/python3.11/site-packages/jax/experimental/pallas/ops/tpu/megablox/gmm.py" source_line=226 source_end_line=227 source_column=6 source_end_column=9}
  %select_n.1153 = s32[128]{0} select(%lt.1151, %add.1152, %convert_element_type.1150), metadata={op_name="select_n" source_file="/home/eporat/benchmarking_qwen_omni_tpu/.venv/lib/python3.11/site-packages/jax/experimental/pallas/ops/tpu/megablox/gmm.py" source_line=226 source_end_line=227 source_column=6 source_end_column=9}
  %broadcast_in_dim.1154 = s32[128,1]{1,0} reshape(%select_n.1153), metadata={op_name="broadcast_in_dim" source_file="/home/eporat/benchmarking_qwen_omni_tpu/.venv/lib/python3.11/site-packages/jax/experimental/pallas/ops/tpu/megablox/gmm.py" source_line=226 source_end_line=227 source_column=6 source_end_column=9}
  %gather.1155 = f32[128,1]{1,0} gather(%Arg_0.1132, %broadcast_in_dim.1154), offset_dims={1}, collapsed_slice_dims={}, start_index_map={0}, index_vector_dim=1, slice_sizes={1}, metadata={op_name="gather" source_file="/home/eporat/benchmarking_qwen_omni_tpu/.venv/lib/python3.11/site-packages/jax/experimental/pallas/ops/tpu/megablox/gmm.py" source_line=226 source_end_line=227 source_column=6 source_end_column=9}
  %squeeze.1156 = f32[128]{0} reshape(%gather.1155), metadata={op_name="squeeze" source_file="/home/eporat/benchmarking_qwen_omni_tpu/.venv/lib/python3.11/site-packages/jax/experimental/pallas/ops/tpu/megablox/gmm.py" source_line=226 source_end_line=227 source_column=6 source_end_column=9}
  %ne.1163 = pred[128]{0} compare(%squeeze.1156, %squeeze.1156), direction=NE, metadata={op_name="ne" source_file="/home/eporat/benchmarking_qwen_omni_tpu/.venv/lib/python3.11/site-packages/jax/experimental/pallas/ops/tpu/megablox/gmm.py" source_line=226 source_end_line=227 source_column=6 source_end_column=9}
  %eq.1161 = pred[128]{0} compare(%squeeze.1156, %broadcast.1139), direction=EQ, metadata={op_name="eq" source_file="/home/eporat/benchmarking_qwen_omni_tpu/.venv/lib/python3.11/site-packages/jax/experimental/pallas/ops/tpu/megablox/gmm.py" source_line=226 source_end_line=227 source_column=6 source_end_column=9}
  %select_n.1162 = f32[128]{0} select(%eq.1161, %broadcast.1139, %squeeze.1156), metadata={op_name="select_n" source_file="/home/eporat/benchmarking_qwen_omni_tpu/.venv/lib/python3.11/site-packages/jax/experimental/pallas/ops/tpu/megablox/gmm.py" source_line=226 source_end_line=227 source_column=6 source_end_column=9}
  %select_n.1164 = f32[128]{0} select(%ne.1163, %broadcast.1137, %select_n.1162), metadata={op_name="select_n" source_file="/home/eporat/benchmarking_qwen_omni_tpu/.venv/lib/python3.11/site-packages/jax/experimental/pallas/ops/tpu/megablox/gmm.py" source_line=226 source_end_line=227 source_column=6 source_end_column=9}
  %lt_to.1165 = pred[128]{0} compare(%select_n.1160, %select_n.1164), direction=LT, type=TOTALORDER, metadata={op_name="lt_to" source_file="/home/eporat/benchmarking_qwen_omni_tpu/.venv/lib/python3.11/site-packages/jax/experimental/pallas/ops/tpu/megablox/gmm.py" source_line=226 source_end_line=227 source_column=6 source_end_column=9}
  %jit__where_.1171 = s32[128]{0} call(%lt_to.1165, %Arg_2.1134, %convert_element_type.1150), to_apply=%_where_196.1170, metadata={op_name="jit(_where)" source_file="/home/eporat/benchmarking_qwen_omni_tpu/.venv/lib/python3.11/site-packages/jax/experimental/pallas/ops/tpu/megablox/gmm.py" source_line=226 source_end_line=227 source_column=6 source_end_column=9}
  %jit__where_.1177 = s32[128]{0} call(%lt_to.1165, %convert_element_type.1150, %Arg_3.1135), to_apply=%_where_198.1176, metadata={op_name="jit(_where)" source_file="/home/eporat/benchmarking_qwen_omni_tpu/.venv/lib/python3.11/site-packages/jax/experimental/pallas/ops/tpu/megablox/gmm.py" source_line=226 source_end_line=227 source_column=6 source_end_column=9}
  ROOT %tuple.1178 = (s32[128]{0}, s32[128]{0}) tuple(%jit__where_.1171, %jit__where_.1177)
}

%region_17.1185 (arg_tuple.1125: (s32[], s32[128], s32[128], f32[2], f32[128])) -> (s32[], s32[128], s32[128], f32[2], f32[128]) {
  %arg_tuple.1125 = (s32[], s32[128]{0}, s32[128]{0}, f32[2]{0}, f32[128]{0}) parameter(0)
  %get-tuple-element.1126 = s32[] get-tuple-element(%arg_tuple.1125), index=0
  %constant.1131 = s32[] constant(1)
  %add.1183 = s32[] add(%get-tuple-element.1126, %constant.1131), metadata={op_name="vmap()/while/body/add" source_file="/home/eporat/benchmarking_qwen_omni_tpu/.venv/lib/python3.11/site-packages/jax/experimental/pallas/ops/tpu/megablox/gmm.py" source_line=226 source_end_line=227 source_column=6 source_end_column=9}
  %get-tuple-element.1129 = f32[2]{0} get-tuple-element(%arg_tuple.1125), index=3
  %get-tuple-element.1130 = f32[128]{0} get-tuple-element(%arg_tuple.1125), index=4
  %get-tuple-element.1127 = s32[128]{0} get-tuple-element(%arg_tuple.1125), index=1
  %get-tuple-element.1128 = s32[128]{0} get-tuple-element(%arg_tuple.1125), index=2
  %closed_call.1180 = (s32[128]{0}, s32[128]{0}) call(%get-tuple-element.1129, %get-tuple-element.1130, %get-tuple-element.1127, %get-tuple-element.1128), to_apply=%closed_call.1179, metadata={op_name="vmap()/while/body/closed_call" source_file="/home/eporat/benchmarking_qwen_omni_tpu/.venv/lib/python3.11/site-packages/jax/experimental/pallas/ops/tpu/megablox/gmm.py" source_line=226 source_end_line=227 source_column=6 source_end_column=9}
  %closed_call.1181 = s32[128]{0} get-tuple-element(%closed_call.1180), index=0, metadata={op_name="vmap()/while/body/closed_call" source_file="/home/eporat/benchmarking_qwen_omni_tpu/.venv/lib/python3.11/site-packages/jax/experimental/pallas/ops/tpu/megablox/gmm.py" source_line=226 source_end_line=227 source_column=6 source_end_column=9}
  %closed_call.1182 = s32[128]{0} get-tuple-element(%closed_call.1180), index=1, metadata={op_name="vmap()/while/body/closed_call" source_file="/home/eporat/benchmarking_qwen_omni_tpu/.venv/lib/python3.11/site-packages/jax/experimental/pallas/ops/tpu/megablox/gmm.py" source_line=226 source_end_line=227 source_column=6 source_end_column=9}
  ROOT %tuple.1184 = (s32[], s32[128]{0}, s32[128]{0}, f32[2]{0}, f32[128]{0}) tuple(%add.1183, %closed_call.1181, %closed_call.1182, %get-tuple-element.1129, %get-tuple-element.1130)
}

%region_18.1194 (arg_tuple.1186: (s32[], s32[128], s32[128], f32[2], f32[128])) -> pred[] {
  %arg_tuple.1186 = (s32[], s32[128]{0}, s32[128]{0}, f32[2]{0}, f32[128]{0}) parameter(0)
  %get-tuple-element.1188 = s32[128]{0} get-tuple-element(%arg_tuple.1186), index=1
  %get-tuple-element.1189 = s32[128]{0} get-tuple-element(%arg_tuple.1186), index=2
  %get-tuple-element.1190 = f32[2]{0} get-tuple-element(%arg_tuple.1186), index=3
  %get-tuple-element.1191 = f32[128]{0} get-tuple-element(%arg_tuple.1186), index=4
  %get-tuple-element.1187 = s32[] get-tuple-element(%arg_tuple.1186), index=0
  %constant.1192 = s32[] constant(2)
  ROOT %lt.1193 = pred[] compare(%get-tuple-element.1187, %constant.1192), direction=LT, metadata={op_name="vmap()/while/cond/lt" source_file="/home/eporat/benchmarking_qwen_omni_tpu/.venv/lib/python3.11/site-packages/jax/experimental/pallas/ops/tpu/megablox/gmm.py" source_line=226 source_end_line=227 source_column=6 source_end_column=9}
}

%searchsorted.1200 (Arg_0.1118: f32[2], Arg_1.1119: f32[128]) -> s32[128] {
  %constant.1120 = s32[] constant(0)
  %constant.1121 = s32[] constant(0)
  %broadcast_in_dim.1122 = s32[128]{0} broadcast(%constant.1121), dimensions={}, metadata={op_name="vmap()/broadcast_in_dim" source_file="/home/eporat/benchmarking_qwen_omni_tpu/.venv/lib/python3.11/site-packages/jax/experimental/pallas/ops/tpu/megablox/gmm.py" source_line=226 source_end_line=227 source_column=6 source_end_column=9}
  %constant.1123 = s32[] constant(2)
  %broadcast_in_dim.1124 = s32[128]{0} broadcast(%constant.1123), dimensions={}, metadata={op_name="vmap()/broadcast_in_dim" source_file="/home/eporat/benchmarking_qwen_omni_tpu/.venv/lib/python3.11/site-packages/jax/experimental/pallas/ops/tpu/megablox/gmm.py" source_line=226 source_end_line=227 source_column=6 source_end_column=9}
  %Arg_0.1118 = f32[2]{0} parameter(0)
  %Arg_1.1119 = f32[128]{0} parameter(1)
  %while.1195 = (s32[], s32[128]{0}, s32[128]{0}, f32[2]{0}, f32[128]{0}) tuple(%constant.1120, %broadcast_in_dim.1122, %broadcast_in_dim.1124, %Arg_0.1118, %Arg_1.1119), metadata={op_name="vmap()/while" source_file="/home/eporat/benchmarking_qwen_omni_tpu/.venv/lib/python3.11/site-packages/jax/experimental/pallas/ops/tpu/megablox/gmm.py" source_line=226 source_end_line=227 source_column=6 source_end_column=9}
  %while.1196 = (s32[], s32[128]{0}, s32[128]{0}, f32[2]{0}, f32[128]{0}) while(%while.1195), condition=%region_18.1194, body=%region_17.1185, metadata={op_name="vmap()/while" source_file="/home/eporat/benchmarking_qwen_omni_tpu/.venv/lib/python3.11/site-packages/jax/experimental/pallas/ops/tpu/megablox/gmm.py" source_line=226 source_end_line=227 source_column=6 source_end_column=9}
  %while.1197 = s32[] get-tuple-element(%while.1196), index=0, metadata={op_name="vmap()/while" source_file="/home/eporat/benchmarking_qwen_omni_tpu/.venv/lib/python3.11/site-packages/jax/experimental/pallas/ops/tpu/megablox/gmm.py" source_line=226 source_end_line=227 source_column=6 source_end_column=9}
  %while.1198 = s32[128]{0} get-tuple-element(%while.1196), index=1, metadata={op_name="vmap()/while" source_file="/home/eporat/benchmarking_qwen_omni_tpu/.venv/lib/python3.11/site-packages/jax/experimental/pallas/ops/tpu/megablox/gmm.py" source_line=226 source_end_line=227 source_column=6 source_end_column=9}
  ROOT %while.1199 = s32[128]{0} get-tuple-element(%while.1196), index=2, metadata={op_name="vmap()/while" source_file="/home/eporat/benchmarking_qwen_omni_tpu/.venv/lib/python3.11/site-packages/jax/experimental/pallas/ops/tpu/megablox/gmm.py" source_line=226 source_end_line=227 source_column=6 source_end_column=9}
}

%region_19.1214 (scatter-add.1211: f32[], scatter-add.1212: f32[]) -> f32[] {
  %scatter-add.1211 = f32[] parameter(0), metadata={op_name="scatter-add"}
  %scatter-add.1212 = f32[] parameter(1), metadata={op_name="scatter-add"}
  ROOT %add.1213 = f32[] add(%scatter-add.1211, %scatter-add.1212), metadata={op_name="add" source_file="/home/eporat/benchmarking_qwen_omni_tpu/.venv/lib/python3.11/site-packages/jax/experimental/pallas/ops/tpu/megablox/gmm.py" source_line=226 source_end_line=227 source_column=6 source_end_column=9}
}

%_roll_static_208.1220 (Arg_0.1219: s32[1]) -> s32[1] {
  ROOT %Arg_0.1219 = s32[1]{0} parameter(0)
}

%region_20.1224 (scatter.1222: s32[], scatter.1223: s32[]) -> s32[] {
  %scatter.1222 = s32[] parameter(0), metadata={op_name="scatter"}
  ROOT %scatter.1223 = s32[] parameter(1), metadata={op_name="scatter"}
}

%cumsum_214.1228 (make_group_metadata.1227: s32[1]) -> s32[1] {
  ROOT %make_group_metadata.1227 = s32[1]{0} parameter(0), metadata={op_name="make_group_metadata"}
}

%cumsum_213.1230 (Arg_0.1226: s32[1]) -> s32[1] {
  %Arg_0.1226 = s32[1]{0} parameter(0)
  ROOT %make_group_metadata.1229 = s32[1]{0} call(%Arg_0.1226), to_apply=%cumsum_214.1228, metadata={op_name="make_group_metadata" source_file="/home/eporat/benchmarking_qwen_omni_tpu/.venv/lib/python3.11/site-packages/jax/experimental/pallas/ops/tpu/megablox/gmm.py" source_line=232 source_end_line=236 source_column=15 source_end_column=3}
}

%region_21.1239 (scatter-add.1236: s32[], scatter-add.1237: s32[]) -> s32[] {
  %scatter-add.1236 = s32[] parameter(0), metadata={op_name="scatter-add"}
  %scatter-add.1237 = s32[] parameter(1), metadata={op_name="scatter-add"}
  ROOT %add.1238 = s32[] add(%scatter-add.1236, %scatter-add.1237), metadata={op_name="add" source_file="/home/eporat/benchmarking_qwen_omni_tpu/.venv/lib/python3.11/site-packages/jax/experimental/pallas/ops/tpu/megablox/gmm.py" source_line=232 source_end_line=236 source_column=15 source_end_column=3}
}

%region_22.1264 (reduce_and.1261: pred[], reduce_and.1262: pred[]) -> pred[] {
  %reduce_and.1261 = pred[] parameter(0), metadata={op_name="reduce_and"}
  %reduce_and.1262 = pred[] parameter(1), metadata={op_name="reduce_and"}
  ROOT %reduce_and.1263 = pred[] and(%reduce_and.1261, %reduce_and.1262), metadata={op_name="reduce_and" source_file="/home/eporat/benchmarking_qwen_omni_tpu/.venv/lib/python3.11/site-packages/jax/experimental/pallas/ops/tpu/megablox/gmm.py" source_line=232 source_end_line=236 source_column=15 source_end_column=3}
}

%_take_221.1268 (Arg_0.1243: s32[1], Arg_1.1244: s32[128]) -> s32[128] {
  %Arg_1.1244 = s32[128]{0} parameter(1)
  %constant.1252 = s32[] constant(0)
  %lt.1253 = s32[128]{0} broadcast(%constant.1252), dimensions={}, metadata={op_name="lt" source_file="/home/eporat/benchmarking_qwen_omni_tpu/.venv/lib/python3.11/site-packages/jax/experimental/pallas/ops/tpu/megablox/gmm.py" source_line=232 source_end_line=236 source_column=15 source_end_column=3}
  %lt.1254 = pred[128]{0} compare(%Arg_1.1244, %lt.1253), direction=LT, metadata={op_name="lt" source_file="/home/eporat/benchmarking_qwen_omni_tpu/.venv/lib/python3.11/site-packages/jax/experimental/pallas/ops/tpu/megablox/gmm.py" source_line=232 source_end_line=236 source_column=15 source_end_column=3}
  %constant.1249 = s32[] constant(1)
  %add.1250 = s32[128]{0} broadcast(%constant.1249), dimensions={}, metadata={op_name="add" source_file="/home/eporat/benchmarking_qwen_omni_tpu/.venv/lib/python3.11/site-packages/jax/experimental/pallas/ops/tpu/megablox/gmm.py" source_line=232 source_end_line=236 source_column=15 source_end_column=3}
  %add.1255 = s32[128]{0} add(%Arg_1.1244, %add.1250), metadata={op_name="add" source_file="/home/eporat/benchmarking_qwen_omni_tpu/.venv/lib/python3.11/site-packages/jax/experimental/pallas/ops/tpu/megablox/gmm.py" source_line=232 source_end_line=236 source_column=15 source_end_column=3}
  %jit__where_.1256 = s32[128]{0} call(%lt.1254, %add.1255, %Arg_1.1244), to_apply=%_where_129.976, metadata={op_name="jit(_where)" source_file="/home/eporat/benchmarking_qwen_omni_tpu/.venv/lib/python3.11/site-packages/jax/experimental/pallas/ops/tpu/megablox/gmm.py" source_line=232 source_end_line=236 source_column=15 source_end_column=3}
  %broadcast_in_dim.1257 = s32[128,1]{1,0} reshape(%jit__where_.1256), metadata={op_name="broadcast_in_dim" source_file="/home/eporat/benchmarking_qwen_omni_tpu/.venv/lib/python3.11/site-packages/jax/experimental/pallas/ops/tpu/megablox/gmm.py" source_line=232 source_end_line=236 source_column=15 source_end_column=3}
  %constant.1247 = s32[] constant(0)
  %broadcast.1248 = s32[128,1]{1,0} broadcast(%constant.1247), dimensions={}
  %ge.1258 = pred[128,1]{1,0} compare(%broadcast_in_dim.1257, %broadcast.1248), direction=GE, metadata={op_name="ge" source_file="/home/eporat/benchmarking_qwen_omni_tpu/.venv/lib/python3.11/site-packages/jax/experimental/pallas/ops/tpu/megablox/gmm.py" source_line=232 source_end_line=236 source_column=15 source_end_column=3}
  %le.1259 = pred[128,1]{1,0} compare(%broadcast_in_dim.1257, %broadcast.1248), direction=LE, metadata={op_name="le" source_file="/home/eporat/benchmarking_qwen_omni_tpu/.venv/lib/python3.11/site-packages/jax/experimental/pallas/ops/tpu/megablox/gmm.py" source_line=232 source_end_line=236 source_column=15 source_end_column=3}
  %and.1260 = pred[128,1]{1,0} and(%ge.1258, %le.1259), metadata={op_name="and" source_file="/home/eporat/benchmarking_qwen_omni_tpu/.venv/lib/python3.11/site-packages/jax/experimental/pallas/ops/tpu/megablox/gmm.py" source_line=232 source_end_line=236 source_column=15 source_end_column=3}
  %constant.1251 = pred[] constant(true)
  %reduce_and.1265 = pred[128]{0} reduce(%and.1260, %constant.1251), dimensions={1}, to_apply=%region_22.1264, metadata={op_name="reduce_and" source_file="/home/eporat/benchmarking_qwen_omni_tpu/.venv/lib/python3.11/site-packages/jax/experimental/pallas/ops/tpu/megablox/gmm.py" source_line=232 source_end_line=236 source_column=15 source_end_column=3}
  %Arg_0.1243 = s32[1]{0} parameter(0)
  %gather.1266 = s32[128]{0} gather(%Arg_0.1243, %broadcast_in_dim.1257), offset_dims={}, collapsed_slice_dims={0}, start_index_map={0}, index_vector_dim=1, slice_sizes={1}, metadata={op_name="gather" source_file="/home/eporat/benchmarking_qwen_omni_tpu/.venv/lib/python3.11/site-packages/jax/experimental/pallas/ops/tpu/megablox/gmm.py" source_line=232 source_end_line=236 source_column=15 source_end_column=3}
  %constant.1245 = s32[] constant(-2147483648)
  %broadcast_in_dim.1246 = s32[128]{0} broadcast(%constant.1245), dimensions={}, metadata={op_name="broadcast_in_dim" source_file="/home/eporat/benchmarking_qwen_omni_tpu/.venv/lib/python3.11/site-packages/jax/experimental/pallas/ops/tpu/megablox/gmm.py" source_line=232 source_end_line=236 source_column=15 source_end_column=3}
  ROOT %select_n.1267 = s32[128]{0} select(%reduce_and.1265, %gather.1266, %broadcast_in_dim.1246), metadata={op_name="select_n" source_file="/home/eporat/benchmarking_qwen_omni_tpu/.venv/lib/python3.11/site-packages/jax/experimental/pallas/ops/tpu/megablox/gmm.py" source_line=232 source_end_line=236 source_column=15 source_end_column=3}
}

%region_23.1276 (reduce_sum.1273: s32[], reduce_sum.1274: s32[]) -> s32[] {
  %reduce_sum.1273 = s32[] parameter(0), metadata={op_name="reduce_sum"}
  %reduce_sum.1274 = s32[] parameter(1), metadata={op_name="reduce_sum"}
  ROOT %reduce_sum.1275 = s32[] add(%reduce_sum.1273, %reduce_sum.1274), metadata={op_name="reduce_sum" source_file="/home/eporat/benchmarking_qwen_omni_tpu/.venv/lib/python3.11/site-packages/jax/experimental/pallas/ops/tpu/megablox/gmm.py" source_line=244 source_end_line=244 source_column=24 source_end_column=55}
}

%remainder_230.1298 (Arg_0.1284: s32[], Arg_1.1285: s32[]) -> s32[] {
  %Arg_0.1284 = s32[] parameter(0)
  %Arg_1.1285 = s32[] parameter(1)
  %constant.1287 = s32[] constant(0)
  %eq.1288 = pred[] compare(%Arg_1.1285, %constant.1287), direction=EQ, metadata={op_name="eq" source_file="/home/eporat/benchmarking_qwen_omni_tpu/.venv/lib/python3.11/site-packages/jax/experimental/pallas/ops/tpu/megablox/gmm.py" source_line=245 source_end_line=245 source_column=14 source_end_column=69}
  %constant.1286 = s32[] constant(1)
  %jit__where_.1289 = s32[] call(%eq.1288, %constant.1286, %Arg_1.1285), to_apply=%_where_158.1059, metadata={op_name="jit(_where)" source_file="/home/eporat/benchmarking_qwen_omni_tpu/.venv/lib/python3.11/site-packages/jax/experimental/pallas/ops/tpu/megablox/gmm.py" source_line=245 source_end_line=245 source_column=14 source_end_column=69}
  %rem.1290 = s32[] remainder(%Arg_0.1284, %jit__where_.1289), metadata={op_name="rem" source_file="/home/eporat/benchmarking_qwen_omni_tpu/.venv/lib/python3.11/site-packages/jax/experimental/pallas/ops/tpu/megablox/gmm.py" source_line=245 source_end_line=245 source_column=14 source_end_column=69}
  %lt.1292 = pred[] compare(%rem.1290, %constant.1287), direction=LT, metadata={op_name="lt" source_file="/home/eporat/benchmarking_qwen_omni_tpu/.venv/lib/python3.11/site-packages/jax/experimental/pallas/ops/tpu/megablox/gmm.py" source_line=245 source_end_line=245 source_column=14 source_end_column=69}
  %lt.1293 = pred[] compare(%jit__where_.1289, %constant.1287), direction=LT, metadata={op_name="lt" source_file="/home/eporat/benchmarking_qwen_omni_tpu/.venv/lib/python3.11/site-packages/jax/experimental/pallas/ops/tpu/megablox/gmm.py" source_line=245 source_end_line=245 source_column=14 source_end_column=69}
  %ne.1294 = pred[] compare(%lt.1292, %lt.1293), direction=NE, metadata={op_name="ne" source_file="/home/eporat/benchmarking_qwen_omni_tpu/.venv/lib/python3.11/site-packages/jax/experimental/pallas/ops/tpu/megablox/gmm.py" source_line=245 source_end_line=245 source_column=14 source_end_column=69}
  %ne.1291 = pred[] compare(%rem.1290, %constant.1287), direction=NE, metadata={op_name="ne" source_file="/home/eporat/benchmarking_qwen_omni_tpu/.venv/lib/python3.11/site-packages/jax/experimental/pallas/ops/tpu/megablox/gmm.py" source_line=245 source_end_line=245 source_column=14 source_end_column=69}
  %and.1295 = pred[] and(%ne.1294, %ne.1291), metadata={op_name="and" source_file="/home/eporat/benchmarking_qwen_omni_tpu/.venv/lib/python3.11/site-packages/jax/experimental/pallas/ops/tpu/megablox/gmm.py" source_line=245 source_end_line=245 source_column=14 source_end_column=69}
  %add.1296 = s32[] add(%rem.1290, %jit__where_.1289), metadata={op_name="add" source_file="/home/eporat/benchmarking_qwen_omni_tpu/.venv/lib/python3.11/site-packages/jax/experimental/pallas/ops/tpu/megablox/gmm.py" source_line=245 source_end_line=245 source_column=14 source_end_column=69}
  ROOT %select_n.1297 = s32[] select(%and.1295, %add.1296, %rem.1290), metadata={op_name="select_n" source_file="/home/eporat/benchmarking_qwen_omni_tpu/.venv/lib/python3.11/site-packages/jax/experimental/pallas/ops/tpu/megablox/gmm.py" source_line=245 source_end_line=245 source_column=14 source_end_column=69}
}

%_roll_dynamic.1306 (Arg_0.1279: s32[128], Arg_1.1280: s32[]) -> s32[128] {
  %Arg_0.1279 = s32[128]{0} parameter(0)
  %concatenate.1300 = s32[256]{0} concatenate(%Arg_0.1279, %Arg_0.1279), dimensions={0}, metadata={op_name="concatenate" source_file="/home/eporat/benchmarking_qwen_omni_tpu/.venv/lib/python3.11/site-packages/jax/experimental/pallas/ops/tpu/megablox/gmm.py" source_line=245 source_end_line=245 source_column=14 source_end_column=69}
  %constant.1283 = s32[] constant(128)
  %Arg_1.1280 = s32[] parameter(1)
  %jit_remainder_.1299 = s32[] call(%Arg_1.1280, %constant.1283), to_apply=%remainder_230.1298, metadata={op_name="jit(remainder)" source_file="/home/eporat/benchmarking_qwen_omni_tpu/.venv/lib/python3.11/site-packages/jax/experimental/pallas/ops/tpu/megablox/gmm.py" source_line=245 source_end_line=245 source_column=14 source_end_column=69}
  %sub.1301 = s32[] subtract(%constant.1283, %jit_remainder_.1299), metadata={op_name="sub" source_file="/home/eporat/benchmarking_qwen_omni_tpu/.venv/lib/python3.11/site-packages/jax/experimental/pallas/ops/tpu/megablox/gmm.py" source_line=245 source_end_line=245 source_column=14 source_end_column=69}
  %constant.1282 = s32[] constant(0)
  %lt.1302 = pred[] compare(%sub.1301, %constant.1282), direction=LT, metadata={op_name="lt" source_file="/home/eporat/benchmarking_qwen_omni_tpu/.venv/lib/python3.11/site-packages/jax/experimental/pallas/ops/tpu/megablox/gmm.py" source_line=245 source_end_line=245 source_column=14 source_end_column=69}
  %constant.1281 = s32[] constant(256)
  %add.1303 = s32[] add(%sub.1301, %constant.1281), metadata={op_name="add" source_file="/home/eporat/benchmarking_qwen_omni_tpu/.venv/lib/python3.11/site-packages/jax/experimental/pallas/ops/tpu/megablox/gmm.py" source_line=245 source_end_line=245 source_column=14 source_end_column=69}
  %select_n.1304 = s32[] select(%lt.1302, %add.1303, %sub.1301), metadata={op_name="select_n" source_file="/home/eporat/benchmarking_qwen_omni_tpu/.venv/lib/python3.11/site-packages/jax/experimental/pallas/ops/tpu/megablox/gmm.py" source_line=245 source_end_line=245 source_column=14 source_end_column=69}
  ROOT %dynamic_slice.1305 = s32[128]{0} dynamic-slice(%concatenate.1300, %select_n.1304), dynamic_slice_sizes={128}, metadata={op_name="dynamic_slice" source_file="/home/eporat/benchmarking_qwen_omni_tpu/.venv/lib/python3.11/site-packages/jax/experimental/pallas/ops/tpu/megablox/gmm.py" source_line=245 source_end_line=245 source_column=14 source_end_column=69}
}

%_where_242.1321 (Arg_0.1316: pred[128], Arg_1.1317: s32[128], Arg_2.1318: s32[]) -> s32[128] {
  %Arg_0.1316 = pred[128]{0} parameter(0)
  %Arg_1.1317 = s32[128]{0} parameter(1)
  %Arg_2.1318 = s32[] parameter(2)
  %broadcast_in_dim.1319 = s32[128]{0} broadcast(%Arg_2.1318), dimensions={}, metadata={op_name="broadcast_in_dim" source_file="/home/eporat/benchmarking_qwen_omni_tpu/.venv/lib/python3.11/site-packages/jax/experimental/pallas/ops/tpu/megablox/gmm.py" source_line=253 source_end_line=253 source_column=16 source_end_column=60}
  ROOT %select_n.1320 = s32[128]{0} select(%Arg_0.1316, %Arg_1.1317, %broadcast_in_dim.1319), metadata={op_name="select_n" source_file="/home/eporat/benchmarking_qwen_omni_tpu/.venv/lib/python3.11/site-packages/jax/experimental/pallas/ops/tpu/megablox/gmm.py" source_line=253 source_end_line=253 source_column=16 source_end_column=60}
}

%region_24.1326 (reduce_sum.1323: s32[], reduce_sum.1324: s32[]) -> s32[] {
  %reduce_sum.1323 = s32[] parameter(0), metadata={op_name="reduce_sum"}
  %reduce_sum.1324 = s32[] parameter(1), metadata={op_name="reduce_sum"}
  ROOT %reduce_sum.1325 = s32[] add(%reduce_sum.1323, %reduce_sum.1324), metadata={op_name="reduce_sum" source_file="/home/eporat/benchmarking_qwen_omni_tpu/.venv/lib/python3.11/site-packages/jax/experimental/pallas/ops/tpu/megablox/gmm.py" source_line=254 source_end_line=254 source_column=14 source_end_column=31}
}

%gmm.1329 (Arg_0.911: bf16[128,2048], Arg_1.912: bf16[128,384,2048], Arg_2.913: s32[128], Arg_3.914: s32[]) -> bf16[128,384] {
  %iota.1310 = s32[128]{0} iota(), iota_dimension=0, metadata={op_name="iota" source_file="/home/eporat/benchmarking_qwen_omni_tpu/.venv/lib/python3.11/site-packages/jax/experimental/pallas/ops/tpu/megablox/gmm.py" source_line=251 source_end_line=251 source_column=9 source_end_column=48}
  %Arg_3.914 = s32[] parameter(3)
  %constant.934 = s32[] constant(128)
  %add.938 = s32[] add(%Arg_3.914, %constant.934), metadata={op_name="add" source_file="/home/eporat/benchmarking_qwen_omni_tpu/.venv/lib/python3.11/site-packages/jax/experimental/pallas/ops/tpu/megablox/gmm.py" source_line=116 source_end_line=116 source_column=14 source_end_column=46}
  %constant.933 = s32[] constant(1)
  %sub.939 = s32[] subtract(%add.938, %constant.933), metadata={op_name="sub" source_file="/home/eporat/benchmarking_qwen_omni_tpu/.venv/lib/python3.11/site-packages/jax/experimental/pallas/ops/tpu/megablox/gmm.py" source_line=116 source_end_line=116 source_column=14 source_end_column=46}
  %le.1311 = s32[128]{0} broadcast(%sub.939), dimensions={}, metadata={op_name="le" source_file="/home/eporat/benchmarking_qwen_omni_tpu/.venv/lib/python3.11/site-packages/jax/experimental/pallas/ops/tpu/megablox/gmm.py" source_line=252 source_end_line=252 source_column=38 source_end_column=55}
  %le.1312 = pred[128]{0} compare(%iota.1310, %le.1311), direction=LE, metadata={op_name="le" source_file="/home/eporat/benchmarking_qwen_omni_tpu/.venv/lib/python3.11/site-packages/jax/experimental/pallas/ops/tpu/megablox/gmm.py" source_line=252 source_end_line=252 source_column=38 source_end_column=55}
  %ge.1313 = s32[128]{0} broadcast(%Arg_3.914), dimensions={}, metadata={op_name="ge" source_file="/home/eporat/benchmarking_qwen_omni_tpu/.venv/lib/python3.11/site-packages/jax/experimental/pallas/ops/tpu/megablox/gmm.py" source_line=252 source_end_line=252 source_column=57 source_end_column=76}
  %ge.1314 = pred[128]{0} compare(%iota.1310, %ge.1313), direction=GE, metadata={op_name="ge" source_file="/home/eporat/benchmarking_qwen_omni_tpu/.venv/lib/python3.11/site-packages/jax/experimental/pallas/ops/tpu/megablox/gmm.py" source_line=252 source_end_line=252 source_column=57 source_end_column=76}
  %and.1315 = pred[128]{0} and(%le.1312, %ge.1314), metadata={op_name="and" source_file="/home/eporat/benchmarking_qwen_omni_tpu/.venv/lib/python3.11/site-packages/jax/experimental/pallas/ops/tpu/megablox/gmm.py" source_line=252 source_end_line=252 source_column=22 source_end_column=77}
  %Arg_2.913 = s32[128]{0} parameter(2)
  %constant.924 = s32[] constant(0)
  %broadcast.925 = s32[128]{0} broadcast(%constant.924), dimensions={}
  %eq.986 = pred[128]{0} compare(%Arg_2.913, %broadcast.925), direction=EQ, metadata={op_name="eq" source_file="/home/eporat/benchmarking_qwen_omni_tpu/.venv/lib/python3.11/site-packages/jax/experimental/pallas/ops/tpu/megablox/gmm.py" source_line=154 source_end_line=154 source_column=34 source_end_column=50}
  %constant.932 = s32[] constant(0)
  %jit_cumsum_.951 = s32[128]{0} call(%Arg_2.913), to_apply=%cumsum.950, metadata={op_name="jit(cumsum)" source_file="/home/eporat/benchmarking_qwen_omni_tpu/.venv/lib/python3.11/site-packages/jax/experimental/pallas/ops/tpu/megablox/gmm.py" source_line=126 source_end_line=126 source_column=15 source_end_column=38}
  %constant.928 = s32[] constant(128)
  %broadcast.929 = s32[128]{0} broadcast(%constant.928), dimensions={}
  %add.953 = s32[128]{0} add(%jit_cumsum_.951, %broadcast.929), metadata={op_name="add" source_file="/home/eporat/benchmarking_qwen_omni_tpu/.venv/lib/python3.11/site-packages/jax/experimental/pallas/ops/tpu/megablox/gmm.py" source_line=140 source_end_line=140 source_column=25 source_end_column=40}
  %constant.926 = s32[] constant(1)
  %broadcast.927 = s32[128]{0} broadcast(%constant.926), dimensions={}
  %sub.954 = s32[128]{0} subtract(%add.953, %broadcast.927), metadata={op_name="sub" source_file="/home/eporat/benchmarking_qwen_omni_tpu/.venv/lib/python3.11/site-packages/jax/experimental/pallas/ops/tpu/megablox/gmm.py" source_line=140 source_end_line=140 source_column=25 source_end_column=40}
  %jit_floor_divide_.979 = s32[128]{0} call(%sub.954, %constant.934), to_apply=%floor_divide.978, metadata={op_name="jit(floor_divide)" source_file="/home/eporat/benchmarking_qwen_omni_tpu/.venv/lib/python3.11/site-packages/jax/experimental/pallas/ops/tpu/megablox/gmm.py" source_line=140 source_end_line=140 source_column=24 source_end_column=51}
  %mul.980 = s32[128]{0} multiply(%jit_floor_divide_.979, %broadcast.929), metadata={op_name="mul" source_file="/home/eporat/benchmarking_qwen_omni_tpu/.venv/lib/python3.11/site-packages/jax/experimental/pallas/ops/tpu/megablox/gmm.py" source_line=140 source_end_line=140 source_column=24 source_end_column=51}
  %constant.930 = s32[1]{0} constant({0})
  %slice.981 = s32[127]{0} slice(%jit_cumsum_.951), slice={[0:127]}, metadata={op_name="slice" source_file="/home/eporat/benchmarking_qwen_omni_tpu/.venv/lib/python3.11/site-packages/jax/experimental/pallas/ops/tpu/megablox/gmm.py" source_line=144 source_end_line=144 source_column=38 source_end_column=53}
  %concatenate.982 = s32[128]{0} concatenate(%constant.930, %slice.981), dimensions={0}, metadata={op_name="concatenate" source_file="/home/eporat/benchmarking_qwen_omni_tpu/.venv/lib/python3.11/site-packages/jax/experimental/pallas/ops/tpu/megablox/gmm.py" source_line=143 source_end_line=145 source_column=17 source_end_column=3}
  %jit_floor_divide_.983 = s32[128]{0} call(%concatenate.982, %constant.934), to_apply=%floor_divide.978, metadata={op_name="jit(floor_divide)" source_file="/home/eporat/benchmarking_qwen_omni_tpu/.venv/lib/python3.11/site-packages/jax/experimental/pallas/ops/tpu/megablox/gmm.py" source_line=146 source_end_line=146 source_column=25 source_end_column=43}
  %mul.984 = s32[128]{0} multiply(%jit_floor_divide_.983, %broadcast.929), metadata={op_name="mul" source_file="/home/eporat/benchmarking_qwen_omni_tpu/.venv/lib/python3.11/site-packages/jax/experimental/pallas/ops/tpu/megablox/gmm.py" source_line=146 source_end_line=146 source_column=25 source_end_column=43}
  %sub.985 = s32[128]{0} subtract(%mul.980, %mul.984), metadata={op_name="sub" source_file="/home/eporat/benchmarking_qwen_omni_tpu/.venv/lib/python3.11/site-packages/jax/experimental/pallas/ops/tpu/megablox/gmm.py" source_line=153 source_end_line=153 source_column=24 source_end_column=65}
  %jit__where_.993 = s32[128]{0} call(%eq.986, %constant.932, %sub.985), to_apply=%_where_135.992, metadata={op_name="jit(_where)" source_file="/home/eporat/benchmarking_qwen_omni_tpu/.venv/lib/python3.11/site-packages/jax/experimental/pallas/ops/tpu/megablox/gmm.py" source_line=154 source_end_line=154 source_column=24 source_end_column=75}
  %jit_floor_divide_.994 = s32[128]{0} call(%jit__where_.993, %constant.934), to_apply=%floor_divide.978, metadata={op_name="jit(floor_divide)" source_file="/home/eporat/benchmarking_qwen_omni_tpu/.venv/lib/python3.11/site-packages/jax/experimental/pallas/ops/tpu/megablox/gmm.py" source_line=174 source_end_line=174 source_column=16 source_end_column=41}
  %jit__where_.1322 = s32[128]{0} call(%and.1315, %jit_floor_divide_.994, %constant.932), to_apply=%_where_242.1321, metadata={op_name="jit(_where)" source_file="/home/eporat/benchmarking_qwen_omni_tpu/.venv/lib/python3.11/site-packages/jax/experimental/pallas/ops/tpu/megablox/gmm.py" source_line=253 source_end_line=253 source_column=16 source_end_column=60}
  %reduce_sum.1327 = s32[] reduce(%jit__where_.1322, %constant.932), dimensions={0}, to_apply=%region_24.1326, metadata={op_name="reduce_sum" source_file="/home/eporat/benchmarking_qwen_omni_tpu/.venv/lib/python3.11/site-packages/jax/experimental/pallas/ops/tpu/megablox/gmm.py" source_line=254 source_end_line=254 source_column=14 source_end_column=31}
  %concatenate.952 = s32[129]{0} concatenate(%constant.930, %jit_cumsum_.951), dimensions={0}, metadata={op_name="concatenate" source_file="/home/eporat/benchmarking_qwen_omni_tpu/.venv/lib/python3.11/site-packages/jax/experimental/pallas/ops/tpu/megablox/gmm.py" source_line=127 source_end_line=127 source_column=18 source_end_column=78}
  %iota.995 = s32[128]{0} iota(), iota_dimension=0, metadata={op_name="iota" source_file="/home/eporat/benchmarking_qwen_omni_tpu/.venv/lib/python3.11/site-packages/jax/experimental/pallas/ops/tpu/megablox/gmm.py" source_line=188 source_end_line=188 source_column=6 source_end_column=45}
  %jit__roll_static_.1001 = s32[128]{0} call(%jit_floor_divide_.994), to_apply=%_roll_static.1000, metadata={op_name="jit(_roll_static)" source_file="/home/eporat/benchmarking_qwen_omni_tpu/.venv/lib/python3.11/site-packages/jax/experimental/pallas/ops/tpu/megablox/gmm.py" source_line=187 source_end_line=191 source_column=14 source_end_column=3}
  %scatter.1005 = s32[128]{0} scatter(%jit__roll_static_.1001, %constant.930, %constant.932), update_window_dims={}, inserted_window_dims={0}, scatter_dims_to_operand_dims={0}, index_vector_dim=0, indices_are_sorted=true, unique_indices=true, to_apply=%region_12.1004, metadata={op_name="scatter" source_file="/home/eporat/benchmarking_qwen_omni_tpu/.venv/lib/python3.11/site-packages/jax/experimental/pallas/ops/tpu/megablox/gmm.py" source_line=187 source_end_line=191 source_column=14 source_end_column=3}
  %jit_cumsum_.1006 = s32[128]{0} call(%scatter.1005), to_apply=%cumsum.950, metadata={op_name="jit(cumsum)" source_file="/home/eporat/benchmarking_qwen_omni_tpu/.venv/lib/python3.11/site-packages/jax/experimental/pallas/ops/tpu/megablox/gmm.py" source_line=187 source_end_line=191 source_column=14 source_end_column=3}
  %lt.1007 = pred[128]{0} compare(%jit_cumsum_.1006, %broadcast.925), direction=LT, metadata={op_name="lt" source_file="/home/eporat/benchmarking_qwen_omni_tpu/.venv/lib/python3.11/site-packages/jax/experimental/pallas/ops/tpu/megablox/gmm.py" source_line=187 source_end_line=191 source_column=14 source_end_column=3}
  %add.1008 = s32[128]{0} add(%jit_cumsum_.1006, %broadcast.929), metadata={op_name="add" source_file="/home/eporat/benchmarking_qwen_omni_tpu/.venv/lib/python3.11/site-packages/jax/experimental/pallas/ops/tpu/megablox/gmm.py" source_line=187 source_end_line=191 source_column=14 source_end_column=3}
  %select_n.1009 = s32[128]{0} select(%lt.1007, %add.1008, %jit_cumsum_.1006), metadata={op_name="select_n" source_file="/home/eporat/benchmarking_qwen_omni_tpu/.venv/lib/python3.11/site-packages/jax/experimental/pallas/ops/tpu/megablox/gmm.py" source_line=187 source_end_line=191 source_column=14 source_end_column=3}
  %broadcast_in_dim.1010 = s32[128,1]{1,0} reshape(%select_n.1009), metadata={op_name="broadcast_in_dim" source_file="/home/eporat/benchmarking_qwen_omni_tpu/.venv/lib/python3.11/site-packages/jax/experimental/pallas/ops/tpu/megablox/gmm.py" source_line=187 source_end_line=191 source_column=14 source_end_column=3}
  %scatter-add.1015 = s32[128]{0} scatter(%broadcast.925, %broadcast_in_dim.1010, %broadcast.927), update_window_dims={}, inserted_window_dims={0}, scatter_dims_to_operand_dims={0}, index_vector_dim=1, to_apply=%region_13.1014, metadata={op_name="scatter-add" source_file="/home/eporat/benchmarking_qwen_omni_tpu/.venv/lib/python3.11/site-packages/jax/experimental/pallas/ops/tpu/megablox/gmm.py" source_line=187 source_end_line=191 source_column=14 source_end_column=3}
  %jit_cumsum_.1016 = s32[128]{0} call(%scatter-add.1015), to_apply=%cumsum.950, metadata={op_name="jit(cumsum)" source_file="/home/eporat/benchmarking_qwen_omni_tpu/.venv/lib/python3.11/site-packages/jax/experimental/pallas/ops/tpu/megablox/gmm.py" source_line=187 source_end_line=191 source_column=14 source_end_column=3}
  %sub.1017 = s32[128]{0} subtract(%jit_cumsum_.1016, %broadcast.927), metadata={op_name="sub" source_file="/home/eporat/benchmarking_qwen_omni_tpu/.venv/lib/python3.11/site-packages/jax/experimental/pallas/ops/tpu/megablox/gmm.py" source_line=187 source_end_line=191 source_column=14 source_end_column=3}
  %jit__take_.1046 = s32[128]{0} call(%iota.995, %sub.1017), to_apply=%_take_147.1045, metadata={op_name="jit(_take)" source_file="/home/eporat/benchmarking_qwen_omni_tpu/.venv/lib/python3.11/site-packages/jax/experimental/pallas/ops/tpu/megablox/gmm.py" source_line=187 source_end_line=191 source_column=14 source_end_column=3}
  %lt.1270 = s32[128]{0} broadcast(%Arg_3.914), dimensions={}, metadata={op_name="lt" source_file="/home/eporat/benchmarking_qwen_omni_tpu/.venv/lib/python3.11/site-packages/jax/experimental/pallas/ops/tpu/megablox/gmm.py" source_line=244 source_end_line=244 source_column=25 source_end_column=48}
  %lt.1271 = pred[128]{0} compare(%jit__take_.1046, %lt.1270), direction=LT, metadata={op_name="lt" source_file="/home/eporat/benchmarking_qwen_omni_tpu/.venv/lib/python3.11/site-packages/jax/experimental/pallas/ops/tpu/megablox/gmm.py" source_line=244 source_end_line=244 source_column=25 source_end_column=48}
  %convert_element_type.1272 = s32[128]{0} convert(%lt.1271), metadata={op_name="convert_element_type" source_file="/home/eporat/benchmarking_qwen_omni_tpu/.venv/lib/python3.11/site-packages/jax/experimental/pallas/ops/tpu/megablox/gmm.py" source_line=244 source_end_line=244 source_column=24 source_end_column=55}
  %reduce_sum.1277 = s32[] reduce(%convert_element_type.1272, %constant.932), dimensions={0}, to_apply=%region_23.1276, metadata={op_name="reduce_sum" source_file="/home/eporat/benchmarking_qwen_omni_tpu/.venv/lib/python3.11/site-packages/jax/experimental/pallas/ops/tpu/megablox/gmm.py" source_line=244 source_end_line=244 source_column=24 source_end_column=55}
  %neg.1278 = s32[] negate(%reduce_sum.1277), metadata={op_name="neg" source_file="/home/eporat/benchmarking_qwen_omni_tpu/.venv/lib/python3.11/site-packages/jax/experimental/pallas/ops/tpu/megablox/gmm.py" source_line=245 source_end_line=245 source_column=40 source_end_column=60}
  %jit__roll_dynamic_.1307 = s32[128]{0} call(%jit__take_.1046, %neg.1278), to_apply=%_roll_dynamic.1306, metadata={op_name="jit(_roll_dynamic)" source_file="/home/eporat/benchmarking_qwen_omni_tpu/.venv/lib/python3.11/site-packages/jax/experimental/pallas/ops/tpu/megablox/gmm.py" source_line=245 source_end_line=245 source_column=14 source_end_column=69}
  %constant.935 = f32[] constant(0)
  %broadcast.936 = f32[2]{0} broadcast(%constant.935), dimensions={}
  %slice.1047 = s32[128]{0} slice(%concatenate.952), slice={[0:128]}, metadata={op_name="slice" source_file="/home/eporat/benchmarking_qwen_omni_tpu/.venv/lib/python3.11/site-packages/jax/experimental/pallas/ops/tpu/megablox/gmm.py" source_line=213 source_end_line=213 source_column=7 source_end_column=25}
  %jit_remainder_.1073 = s32[128]{0} call(%slice.1047, %constant.934), to_apply=%remainder.1072, metadata={op_name="jit(remainder)" source_file="/home/eporat/benchmarking_qwen_omni_tpu/.venv/lib/python3.11/site-packages/jax/experimental/pallas/ops/tpu/megablox/gmm.py" source_line=213 source_end_line=213 source_column=7 source_end_column=25}
  %eq.1074 = pred[128]{0} compare(%jit_remainder_.1073, %broadcast.925), direction=EQ, metadata={op_name="eq" source_file="/home/eporat/benchmarking_qwen_omni_tpu/.venv/lib/python3.11/site-packages/jax/experimental/pallas/ops/tpu/megablox/gmm.py" source_line=213 source_end_line=213 source_column=6 source_end_column=36}
  %eq.1075 = pred[128]{0} compare(%Arg_2.913, %broadcast.925), direction=EQ, metadata={op_name="eq" source_file="/home/eporat/benchmarking_qwen_omni_tpu/.venv/lib/python3.11/site-packages/jax/experimental/pallas/ops/tpu/megablox/gmm.py" source_line=213 source_end_line=213 source_column=38 source_end_column=54}
  %or.1076 = pred[128]{0} or(%eq.1074, %eq.1075), metadata={op_name="or" source_file="/home/eporat/benchmarking_qwen_omni_tpu/.venv/lib/python3.11/site-packages/jax/experimental/pallas/ops/tpu/megablox/gmm.py" source_line=212 source_end_line=214 source_column=22 source_end_column=3}
  %slice.1077 = s32[128]{0} slice(%concatenate.952), slice={[0:128]}, metadata={op_name="slice" source_file="/home/eporat/benchmarking_qwen_omni_tpu/.venv/lib/python3.11/site-packages/jax/experimental/pallas/ops/tpu/megablox/gmm.py" source_line=222 source_end_line=222 source_column=34 source_end_column=52}
  %jit_floor_divide_.1078 = s32[128]{0} call(%slice.1077, %constant.934), to_apply=%floor_divide.978, metadata={op_name="jit(floor_divide)" source_file="/home/eporat/benchmarking_qwen_omni_tpu/.venv/lib/python3.11/site-packages/jax/experimental/pallas/ops/tpu/megablox/gmm.py" source_line=222 source_end_line=222 source_column=34 source_end_column=52}
  %jit__where_.1079 = s32[128]{0} call(%or.1076, %constant.933, %jit_floor_divide_.1078), to_apply=%_where_135.992, metadata={op_name="jit(_where)" source_file="/home/eporat/benchmarking_qwen_omni_tpu/.venv/lib/python3.11/site-packages/jax/experimental/pallas/ops/tpu/megablox/gmm.py" source_line=221 source_end_line=223 source_column=21 source_end_column=3}
  %convert_element_type.1080 = f32[128]{0} convert(%jit__where_.1079), metadata={op_name="convert_element_type" source_file="/home/eporat/benchmarking_qwen_omni_tpu/.venv/lib/python3.11/site-packages/jax/experimental/pallas/ops/tpu/megablox/gmm.py" source_line=226 source_end_line=227 source_column=6 source_end_column=9}
  %jit__ptp_.1096 = f32[] call(%broadcast.936), to_apply=%_ptp.1095, metadata={op_name="jit(_ptp)" source_file="/home/eporat/benchmarking_qwen_omni_tpu/.venv/lib/python3.11/site-packages/jax/experimental/pallas/ops/tpu/megablox/gmm.py" source_line=226 source_end_line=227 source_column=6 source_end_column=9}
  %constant.931 = f32[] constant(0)
  %eq.1097 = pred[] compare(%jit__ptp_.1096, %constant.931), direction=EQ, metadata={op_name="eq" source_file="/home/eporat/benchmarking_qwen_omni_tpu/.venv/lib/python3.11/site-packages/jax/experimental/pallas/ops/tpu/megablox/gmm.py" source_line=226 source_end_line=227 source_column=6 source_end_column=9}
  %constant.921 = f32[] constant(-0.5)
  %jit__where_.1103 = f32[] call(%eq.1097, %constant.921, %constant.931), to_apply=%_where_171.1102, metadata={op_name="jit(_where)" source_file="/home/eporat/benchmarking_qwen_omni_tpu/.venv/lib/python3.11/site-packages/jax/experimental/pallas/ops/tpu/megablox/gmm.py" source_line=226 source_end_line=227 source_column=6 source_end_column=9}
  %jit__ptp_.1104 = f32[] call(%broadcast.936), to_apply=%_ptp.1095, metadata={op_name="jit(_ptp)" source_file="/home/eporat/benchmarking_qwen_omni_tpu/.venv/lib/python3.11/site-packages/jax/experimental/pallas/ops/tpu/megablox/gmm.py" source_line=226 source_end_line=227 source_column=6 source_end_column=9}
  %eq.1105 = pred[] compare(%jit__ptp_.1104, %constant.931), direction=EQ, metadata={op_name="eq" source_file="/home/eporat/benchmarking_qwen_omni_tpu/.venv/lib/python3.11/site-packages/jax/experimental/pallas/ops/tpu/megablox/gmm.py" source_line=226 source_end_line=227 source_column=6 source_end_column=9}
  %constant.920 = f32[] constant(0.5)
  %jit__where_.1106 = f32[] call(%eq.1105, %constant.920, %constant.931), to_apply=%_where_171.1102, metadata={op_name="jit(_where)" source_file="/home/eporat/benchmarking_qwen_omni_tpu/.venv/lib/python3.11/site-packages/jax/experimental/pallas/ops/tpu/megablox/gmm.py" source_line=226 source_end_line=227 source_column=6 source_end_column=9}
  %jit__linspace_.1117 = f32[2]{0} call(%jit__where_.1103, %jit__where_.1106), to_apply=%_linspace.1116, metadata={op_name="jit(_linspace)" source_file="/home/eporat/benchmarking_qwen_omni_tpu/.venv/lib/python3.11/site-packages/jax/experimental/pallas/ops/tpu/megablox/gmm.py" source_line=226 source_end_line=227 source_column=6 source_end_column=9}
  %dynamic_slice.1202 = f32[1]{0} slice(%jit__linspace_.1117), slice={[1:2]}, metadata={op_name="dynamic_slice" source_file="/home/eporat/benchmarking_qwen_omni_tpu/.venv/lib/python3.11/site-packages/jax/experimental/pallas/ops/tpu/megablox/gmm.py" source_line=226 source_end_line=227 source_column=6 source_end_column=9}
  %squeeze.1203 = f32[] reshape(%dynamic_slice.1202), metadata={op_name="squeeze" source_file="/home/eporat/benchmarking_qwen_omni_tpu/.venv/lib/python3.11/site-packages/jax/experimental/pallas/ops/tpu/megablox/gmm.py" source_line=226 source_end_line=227 source_column=6 source_end_column=9}
  %eq.1204 = f32[128]{0} broadcast(%squeeze.1203), dimensions={}, metadata={op_name="eq" source_file="/home/eporat/benchmarking_qwen_omni_tpu/.venv/lib/python3.11/site-packages/jax/experimental/pallas/ops/tpu/megablox/gmm.py" source_line=226 source_end_line=227 source_column=6 source_end_column=9}
  %eq.1205 = pred[128]{0} compare(%convert_element_type.1080, %eq.1204), direction=EQ, metadata={op_name="eq" source_file="/home/eporat/benchmarking_qwen_omni_tpu/.venv/lib/python3.11/site-packages/jax/experimental/pallas/ops/tpu/megablox/gmm.py" source_line=226 source_end_line=227 source_column=6 source_end_column=9}
  %jit_searchsorted_.1201 = s32[128]{0} call(%jit__linspace_.1117, %convert_element_type.1080), to_apply=%searchsorted.1200, metadata={op_name="jit(searchsorted)" source_file="/home/eporat/benchmarking_qwen_omni_tpu/.venv/lib/python3.11/site-packages/jax/experimental/pallas/ops/tpu/megablox/gmm.py" source_line=226 source_end_line=227 source_column=6 source_end_column=9}
  %jit__where_.1206 = s32[128]{0} call(%eq.1205, %constant.933, %jit_searchsorted_.1201), to_apply=%_where_135.992, metadata={op_name="jit(_where)" source_file="/home/eporat/benchmarking_qwen_omni_tpu/.venv/lib/python3.11/site-packages/jax/experimental/pallas/ops/tpu/megablox/gmm.py" source_line=226 source_end_line=227 source_column=6 source_end_column=9}
  %lt.1207 = pred[128]{0} compare(%jit__where_.1206, %broadcast.925), direction=LT, metadata={op_name="lt" source_file="/home/eporat/benchmarking_qwen_omni_tpu/.venv/lib/python3.11/site-packages/jax/experimental/pallas/ops/tpu/megablox/gmm.py" source_line=226 source_end_line=227 source_column=6 source_end_column=9}
  %constant.918 = s32[] constant(2)
  %add.919 = s32[128]{0} broadcast(%constant.918), dimensions={}, metadata={op_name="add" source_file="/home/eporat/benchmarking_qwen_omni_tpu/.venv/lib/python3.11/site-packages/jax/experimental/pallas/ops/tpu/megablox/gmm.py" source_line=226 source_end_line=227 source_column=6 source_end_column=9}
  %add.1208 = s32[128]{0} add(%jit__where_.1206, %add.919), metadata={op_name="add" source_file="/home/eporat/benchmarking_qwen_omni_tpu/.venv/lib/python3.11/site-packages/jax/experimental/pallas/ops/tpu/megablox/gmm.py" source_line=226 source_end_line=227 source_column=6 source_end_column=9}
  %select_n.1209 = s32[128]{0} select(%lt.1207, %add.1208, %jit__where_.1206), metadata={op_name="select_n" source_file="/home/eporat/benchmarking_qwen_omni_tpu/.venv/lib/python3.11/site-packages/jax/experimental/pallas/ops/tpu/megablox/gmm.py" source_line=226 source_end_line=227 source_column=6 source_end_column=9}
  %broadcast_in_dim.1210 = s32[128,1]{1,0} reshape(%select_n.1209), metadata={op_name="broadcast_in_dim" source_file="/home/eporat/benchmarking_qwen_omni_tpu/.venv/lib/python3.11/site-packages/jax/experimental/pallas/ops/tpu/megablox/gmm.py" source_line=226 source_end_line=227 source_column=6 source_end_column=9}
  %constant.922 = f32[] constant(1)
  %broadcast_in_dim.923 = f32[128]{0} broadcast(%constant.922), dimensions={}, metadata={op_name="broadcast_in_dim" source_file="/home/eporat/benchmarking_qwen_omni_tpu/.venv/lib/python3.11/site-packages/jax/experimental/pallas/ops/tpu/megablox/gmm.py" source_line=226 source_end_line=227 source_column=6 source_end_column=9}
  %scatter-add.1215 = f32[2]{0} scatter(%broadcast.936, %broadcast_in_dim.1210, %broadcast_in_dim.923), update_window_dims={}, inserted_window_dims={0}, scatter_dims_to_operand_dims={0}, index_vector_dim=1, to_apply=%region_19.1214, metadata={op_name="scatter-add" source_file="/home/eporat/benchmarking_qwen_omni_tpu/.venv/lib/python3.11/site-packages/jax/experimental/pallas/ops/tpu/megablox/gmm.py" source_line=226 source_end_line=227 source_column=6 source_end_column=9}
  %slice.1216 = f32[1]{0} slice(%scatter-add.1215), slice={[1:2]}, metadata={op_name="slice" source_file="/home/eporat/benchmarking_qwen_omni_tpu/.venv/lib/python3.11/site-packages/jax/experimental/pallas/ops/tpu/megablox/gmm.py" source_line=226 source_end_line=227 source_column=6 source_end_column=9}
  %constant.917 = f32[1]{0} constant({1})
  %add.1217 = f32[1]{0} add(%slice.1216, %constant.917), metadata={op_name="add" source_file="/home/eporat/benchmarking_qwen_omni_tpu/.venv/lib/python3.11/site-packages/jax/experimental/pallas/ops/tpu/megablox/gmm.py" source_line=226 source_end_line=227 source_column=6 source_end_column=9}
  %convert_element_type.1218 = s32[1]{0} convert(%add.1217), metadata={op_name="convert_element_type" source_file="/home/eporat/benchmarking_qwen_omni_tpu/.venv/lib/python3.11/site-packages/jax/experimental/pallas/ops/tpu/megablox/gmm.py" source_line=234 source_end_line=234 source_column=6 source_end_column=35}
  %jit__roll_static_.1221 = s32[1]{0} call(%convert_element_type.1218), to_apply=%_roll_static_208.1220, metadata={op_name="jit(_roll_static)" source_file="/home/eporat/benchmarking_qwen_omni_tpu/.venv/lib/python3.11/site-packages/jax/experimental/pallas/ops/tpu/megablox/gmm.py" source_line=232 source_end_line=236 source_column=15 source_end_column=3}
  %scatter.1225 = s32[1]{0} scatter(%jit__roll_static_.1221, %constant.930, %constant.932), update_window_dims={}, inserted_window_dims={0}, scatter_dims_to_operand_dims={0}, index_vector_dim=0, indices_are_sorted=true, unique_indices=true, to_apply=%region_20.1224, metadata={op_name="scatter" source_file="/home/eporat/benchmarking_qwen_omni_tpu/.venv/lib/python3.11/site-packages/jax/experimental/pallas/ops/tpu/megablox/gmm.py" source_line=232 source_end_line=236 source_column=15 source_end_column=3}
  %jit_cumsum_.1231 = s32[1]{0} call(%scatter.1225), to_apply=%cumsum_213.1230, metadata={op_name="jit(cumsum)" source_file="/home/eporat/benchmarking_qwen_omni_tpu/.venv/lib/python3.11/site-packages/jax/experimental/pallas/ops/tpu/megablox/gmm.py" source_line=232 source_end_line=236 source_column=15 source_end_column=3}
  %lt.1232 = pred[1]{0} compare(%jit_cumsum_.1231, %constant.930), direction=LT, metadata={op_name="lt" source_file="/home/eporat/benchmarking_qwen_omni_tpu/.venv/lib/python3.11/site-packages/jax/experimental/pallas/ops/tpu/megablox/gmm.py" source_line=232 source_end_line=236 source_column=15 source_end_column=3}
  %constant.916 = s32[1]{0} constant({128})
  %add.1233 = s32[1]{0} add(%jit_cumsum_.1231, %constant.916), metadata={op_name="add" source_file="/home/eporat/benchmarking_qwen_omni_tpu/.venv/lib/python3.11/site-packages/jax/experimental/pallas/ops/tpu/megablox/gmm.py" source_line=232 source_end_line=236 source_column=15 source_end_column=3}
  %select_n.1234 = s32[1]{0} select(%lt.1232, %add.1233, %jit_cumsum_.1231), metadata={op_name="select_n" source_file="/home/eporat/benchmarking_qwen_omni_tpu/.venv/lib/python3.11/site-packages/jax/experimental/pallas/ops/tpu/megablox/gmm.py" source_line=232 source_end_line=236 source_column=15 source_end_column=3}
  %broadcast_in_dim.1235 = s32[1,1]{1,0} reshape(%select_n.1234), metadata={op_name="broadcast_in_dim" source_file="/home/eporat/benchmarking_qwen_omni_tpu/.venv/lib/python3.11/site-packages/jax/experimental/pallas/ops/tpu/megablox/gmm.py" source_line=232 source_end_line=236 source_column=15 source_end_column=3}
  %constant.915 = s32[1]{0} constant({1})
  %scatter-add.1240 = s32[128]{0} scatter(%broadcast.925, %broadcast_in_dim.1235, %constant.915), update_window_dims={}, inserted_window_dims={0}, scatter_dims_to_operand_dims={0}, index_vector_dim=1, to_apply=%region_21.1239, metadata={op_name="scatter-add" source_file="/home/eporat/benchmarking_qwen_omni_tpu/.venv/lib/python3.11/site-packages/jax/experimental/pallas/ops/tpu/megablox/gmm.py" source_line=232 source_end_line=236 source_column=15 source_end_column=3}
  %jit_cumsum_.1241 = s32[128]{0} call(%scatter-add.1240), to_apply=%cumsum.950, metadata={op_name="jit(cumsum)" source_file="/home/eporat/benchmarking_qwen_omni_tpu/.venv/lib/python3.11/site-packages/jax/experimental/pallas/ops/tpu/megablox/gmm.py" source_line=232 source_end_line=236 source_column=15 source_end_column=3}
  %sub.1242 = s32[128]{0} subtract(%jit_cumsum_.1241, %broadcast.927), metadata={op_name="sub" source_file="/home/eporat/benchmarking_qwen_omni_tpu/.venv/lib/python3.11/site-packages/jax/experimental/pallas/ops/tpu/megablox/gmm.py" source_line=232 source_end_line=236 source_column=15 source_end_column=3}
  %jit__take_.1269 = s32[128]{0} call(%constant.930, %sub.1242), to_apply=%_take_221.1268, metadata={op_name="jit(_take)" source_file="/home/eporat/benchmarking_qwen_omni_tpu/.venv/lib/python3.11/site-packages/jax/experimental/pallas/ops/tpu/megablox/gmm.py" source_line=232 source_end_line=236 source_column=15 source_end_column=3}
  %neg.1308 = s32[] negate(%reduce_sum.1277), metadata={op_name="neg" source_file="/home/eporat/benchmarking_qwen_omni_tpu/.venv/lib/python3.11/site-packages/jax/experimental/pallas/ops/tpu/megablox/gmm.py" source_line=246 source_end_line=246 source_column=42 source_end_column=62}
  %jit__roll_dynamic_.1309 = s32[128]{0} call(%jit__take_.1269, %neg.1308), to_apply=%_roll_dynamic.1306, metadata={op_name="jit(_roll_dynamic)" source_file="/home/eporat/benchmarking_qwen_omni_tpu/.venv/lib/python3.11/site-packages/jax/experimental/pallas/ops/tpu/megablox/gmm.py" source_line=246 source_end_line=246 source_column=15 source_end_column=71}
  %broadcast_in_dim.937 = s32[1]{0} reshape(%Arg_3.914), metadata={op_name="broadcast_in_dim" source_file="/home/eporat/benchmarking_qwen_omni_tpu/.venv/lib/python3.11/site-packages/jax/experimental/pallas/ops/tpu/megablox/gmm.py" source_line=358 source_end_line=358 source_column=19 source_end_column=37}
  %Arg_0.911 = bf16[128,2048]{1,0} parameter(0)
  %Arg_1.912 = bf16[128,384,2048]{2,1,0} parameter(1)
  ROOT %pallas_call.1328 = bf16[128,384]{1,0} custom-call(%reduce_sum.1327, %concatenate.952, %jit__roll_dynamic_.1307, %jit__roll_dynamic_.1309, %broadcast_in_dim.937, /*index=5*/%Arg_0.911, %Arg_1.912), custom_call_target="tpu_custom_call", operand_layout_constraints={s32[], s32[129]{0}, s32[128]{0}, s32[128]{0}, s32[1]{0}, bf16[128,2048]{1,0}, bf16[128,384,2048]{2,1,0}}, metadata={op_name="pallas_call" source_file="/home/eporat/benchmarking_qwen_omni_tpu/.venv/lib/python3.11/site-packages/jax/experimental/pallas/ops/tpu/megablox/gmm.py" source_line=547 source_end_line=553 source_column=8 source_end_column=3}, backend_config={"custom_call_config": {"body": "…", "cost_estimate": {"bytes_accessed": 201949184, "flops": 201326592, "transcendentals": 0}, "serialization_format": 1, "needs_layout_passes": true}}
}

%xla.sdy.manual_computation_body_0.1331 (shard_map.907: s32[], shard_map.908: bf16[128,2048], shard_map.909: bf16[128,384,2048], shard_map.910: s32[128]) -> bf16[128,384] {
  %shard_map.908 = bf16[128,2048]{1,0} parameter(1), metadata={op_name="shard_map"}
  %shard_map.909 = bf16[128,384,2048]{2,1,0} parameter(2), metadata={op_name="shard_map"}
  %shard_map.910 = s32[128]{0} parameter(3), metadata={op_name="shard_map"}
  %shard_map.907 = s32[] parameter(0), metadata={op_name="shard_map"}
  ROOT %jit_gmm_.1330 = bf16[128,384]{1,0} call(%shard_map.908, %shard_map.909, %shard_map.910, %shard_map.907), to_apply=%gmm.1329, metadata={op_name="jit(gmm)" source_file="/home/eporat/benchmarking_qwen_omni_tpu/.venv/lib/python3.11/site-packages/tpu_inference/layers/vllm/fused_moe.py" source_line=96 source_end_line=102 source_column=17 source_end_column=28}
}

%silu.1347 (Arg_0.1339: bf16[128,768]) -> bf16[128,768] {
  %Arg_0.1339 = bf16[128,768]{1,0} parameter(0)
  %constant.1340 = bf16[] constant(1)
  %broadcast.1341 = bf16[128,768]{1,0} broadcast(%constant.1340), dimensions={}
  %neg.1342 = bf16[128,768]{1,0} negate(%Arg_0.1339), metadata={op_name="neg" source_file="/home/eporat/benchmarking_qwen_omni_tpu/.venv/lib/python3.11/site-packages/tpu_inference/layers/vllm/fused_moe.py" source_line=342 source_end_line=342 source_column=8 source_end_column=23}
  %exp.1343 = bf16[128,768]{1,0} exponential(%neg.1342), metadata={op_name="exp" source_file="/home/eporat/benchmarking_qwen_omni_tpu/.venv/lib/python3.11/site-packages/tpu_inference/layers/vllm/fused_moe.py" source_line=342 source_end_line=342 source_column=8 source_end_column=23}
…
source_end_line=265 source_column=9 source_end_column=43}
  %broadcast_in_dim.8836 = f32[16,32,1]{2,1,0} reshape(%reduce_sum.8835), metadata={op_name="jit(step_fun)/aten::mean.dim/broadcast_in_dim" source_file="/home/eporat/benchmarking_qwen_omni_tpu/.venv/lib/python3.11/site-packages/torchax/ops/jaten.py" source_line=265 source_end_line=265 source_column=9 source_end_column=43}
  %div.8837 = f32[16,32,1]{2,1,0} divide(%broadcast_in_dim.8836, %broadcast.503), metadata={op_name="jit(step_fun)/aten::mean.dim/div" source_file="/home/eporat/benchmarking_qwen_omni_tpu/.venv/lib/python3.11/site-packages/torchax/ops/jaten.py" source_line=265 source_end_line=265 source_column=9 source_end_column=43}
  %add.8838 = f32[16,32,1]{2,1,0} add(%div.8837, %broadcast.501), metadata={op_name="jit(step_fun)/aten::add.Tensor/add" source_file="/home/eporat/benchmarking_qwen_omni_tpu/.venv/lib/python3.11/site-packages/torchax/ops/jaten.py" source_line=65 source_end_line=65 source_column=8 source_end_column=21}
  %rsqrt.8839 = f32[16,32,1]{2,1,0} rsqrt(%add.8838), metadata={op_name="jit(step_fun)/aten::rsqrt/rsqrt" source_file="/home/eporat/benchmarking_qwen_omni_tpu/.venv/lib/python3.11/site-packages/torchax/ops/jaten.py" source_line=656 source_end_line=656 source_column=9 source_end_column=25}
  %mul.8840 = f32[16,32,1]{2,1,0} broadcast(%rsqrt.8839), dimensions={0,1,2}, metadata={op_name="jit(step_fun)/aten::mul.Tensor/mul" source_file="/home/eporat/benchmarking_qwen_omni_tpu/.venv/lib/python3.11/site-packages/torchax/ops/jaten.py" source_line=325 source_end_line=325 source_column=8 source_end_column=13}
  %mul.8841 = f32[16,32]{1,0} reshape(%mul.8840), metadata={op_name="jit(step_fun)/aten::mul.Tensor/mul" source_file="/home/eporat/benchmarking_qwen_omni_tpu/.venv/lib/python3.11/site-packages/torchax/ops/jaten.py" source_line=325 source_end_line=325 source_column=8 source_end_column=13}
  %mul.8842 = f32[16,32,128]{2,1,0} broadcast(%mul.8841), dimensions={0,1}, metadata={op_name="jit(step_fun)/aten::mul.Tensor/mul" source_file="/home/eporat/benchmarking_qwen_omni_tpu/.venv/lib/python3.11/site-packages/torchax/ops/jaten.py" source_line=325 source_end_line=325 source_column=8 source_end_column=13}
  %mul.8843 = f32[16,32,128]{2,1,0} multiply(%convert_element_type.8829, %mul.8842), metadata={op_name="jit(step_fun)/aten::mul.Tensor/mul" source_file="/home/eporat/benchmarking_qwen_omni_tpu/.venv/lib/python3.11/site-packages/torchax/ops/jaten.py" source_line=325 source_end_line=325 source_column=8 source_end_column=13}
  %convert_element_type.8844 = bf16[16,32,128]{2,1,0} convert(%mul.8843), metadata={op_name="jit(step_fun)/convert_element_type" source_file="/home/eporat/benchmarking_qwen_omni_tpu/.venv/lib/python3.11/site-packages/torchax/tensor.py" source_line=154 source_end_line=154 source_column=10 source_end_column=51}
  %params_and_buffers__vllm_model_language_model_model_layers_47_self_attn_q_norm_weight__.388 = bf16[128]{0} parameter(387), sharding={replicated}, frontend_attributes={xla.sdy.sharding="#sdy.sharding<@mesh, [{}]>"}, metadata={op_name="params_and_buffers[\'vllm_model.language_model.model.layers.47.self_attn.q_norm.weight\']"}
  %broadcast_in_dim.8845 = bf16[1,1,128]{2,1,0} reshape(%params_and_buffers__vllm_model_language_model_model_layers_47_self_attn_q_norm_weight__.388), metadata={op_name="jit(step_fun)/aten::mul.Tensor/broadcast_in_dim" source_file="/home/eporat/benchmarking_qwen_omni_tpu/.venv/lib/python3.11/site-packages/torchax/ops/jaten.py" source_line=325 source_end_line=325 source_column=8 source_end_column=13}
  %mul.8846 = bf16[1,1,128]{2,1,0} broadcast(%broadcast_in_dim.8845), dimensions={0,1,2}, metadata={op_name="jit(step_fun)/aten::mul.Tensor/mul" source_file="/home/eporat/benchmarking_qwen_omni_tpu/.venv/lib/python3.11/site-packages/torchax/ops/jaten.py" source_line=325 source_end_line=325 source_column=8 source_end_column=13}
  %mul.8847 = bf16[128]{0} reshape(%mul.8846), metadata={op_name="jit(step_fun)/aten::mul.Tensor/mul" source_file="/home/eporat/benchmarking_qwen_omni_tpu/.venv/lib/python3.11/site-packages/torchax/ops/jaten.py" source_line=325 source_end_line=325 source_column=8 source_end_column=13}
  %mul.8848 = bf16[16,32,128]{2,1,0} broadcast(%mul.8847), dimensions={2}, metadata={op_name="jit(step_fun)/aten::mul.Tensor/mul" source_file="/home/eporat/benchmarking_qwen_omni_tpu/.venv/lib/python3.11/site-packages/torchax/ops/jaten.py" source_line=325 source_end_line=325 source_column=8 source_end_column=13}
  %mul.8849 = bf16[16,32,128]{2,1,0} multiply(%convert_element_type.8844, %mul.8848), metadata={op_name="jit(step_fun)/aten::mul.Tensor/mul" source_file="/home/eporat/benchmarking_qwen_omni_tpu/.venv/lib/python3.11/site-packages/torchax/ops/jaten.py" source_line=325 source_end_line=325 source_column=8 source_end_column=13}
  %slice.8880 = bf16[16,32,64]{2,1,0} slice(%mul.8849), slice={[0:16], [0:32], [0:64]}, metadata={op_name="jit(step_fun)/aten::split.Tensor/slice" source_file="/home/eporat/benchmarking_qwen_omni_tpu/.venv/lib/python3.11/site-packages/torchax/ops/jaten.py" source_line=784 source_end_line=784 source_column=6 source_end_column=42}
  %lt.8871 = pred[16]{0} compare(%attn_metadata_input_positions.485, %broadcast.493), direction=LT, metadata={op_name="jit(step_fun)/__getitem__/lt" source_file="/home/eporat/benchmarking_qwen_omni_tpu/.venv/lib/python3.11/site-packages/torchax/ops/jtorch.py" source_line=291 source_end_line=291 source_column=31 source_end_column=50}
  %add.8872 = s32[16]{0} add(%attn_metadata_input_positions.485, %broadcast.491), metadata={op_name="jit(step_fun)/__getitem__/add" source_file="/home/eporat/benchmarking_qwen_omni_tpu/.venv/lib/python3.11/site-packages/torchax/ops/jtorch.py" source_line=291 source_end_line=291 source_column=31 source_end_column=50}
  %select_n.8873 = s32[16]{0} select(%lt.8871, %add.8872, %attn_metadata_input_positions.485), metadata={op_name="jit(step_fun)/__getitem__/select_n" source_file="/home/eporat/benchmarking_qwen_omni_tpu/.venv/lib/python3.11/site-packages/torchax/ops/jtorch.py" source_line=291 source_end_line=291 source_column=31 source_end_column=50}
  %broadcast_in_dim.8874 = s32[16,1]{1,0} reshape(%select_n.8873), metadata={op_name="jit(step_fun)/__getitem__/broadcast_in_dim" source_file="/home/eporat/benchmarking_qwen_omni_tpu/.venv/lib/python3.11/site-packages/torchax/ops/jtorch.py" source_line=291 source_end_line=291 source_column=31 source_end_column=50}
  %gather.8875 = bf16[16,128]{1,0} gather(%params_and_buffers__vllm_model_language_model_model_layers_0_self_attn_rotary_emb_cos_sin_cache__.11, %broadcast_in_dim.8874), offset_dims={1}, collapsed_slice_dims={0}, start_index_map={0}, index_vector_dim=1, slice_sizes={1,128}, metadata={op_name="jit(step_fun)/__getitem__/gather" source_file="/home/eporat/benchmarking_qwen_omni_tpu/.venv/lib/python3.11/site-packages/torchax/ops/jtorch.py" source_line=291 source_end_line=291 source_column=31 source_end_column=50}
  %slice.8876 = bf16[16,64]{1,0} slice(%gather.8875), slice={[0:16], [0:64]}, metadata={op_name="jit(step_fun)/aten::split.Tensor/slice" source_file="/home/eporat/benchmarking_qwen_omni_tpu/.venv/lib/python3.11/site-packages/torchax/ops/jaten.py" source_line=784 source_end_line=784 source_column=6 source_end_column=42}
  %broadcast_in_dim.8878 = bf16[16,1,64]{2,1,0} reshape(%slice.8876), metadata={op_name="jit(step_fun)/aten::unsqueeze/broadcast_in_dim" source_file="/home/eporat/benchmarking_qwen_omni_tpu/.venv/lib/python3.11/site-packages/torchax/ops/jaten.py" source_line=801 source_end_line=801 source_column=9 source_end_column=35}
  %mul.8882 = bf16[16,1,64]{2,1,0} broadcast(%broadcast_in_dim.8878), dimensions={0,1,2}, metadata={op_name="jit(step_fun)/aten::mul.Tensor/mul" source_file="/home/eporat/benchmarking_qwen_omni_tpu/.venv/lib/python3.11/site-packages/torchax/ops/jaten.py" source_line=325 source_end_line=325 source_column=8 source_end_column=13}
  %mul.8883 = bf16[16,64]{1,0} reshape(%mul.8882), metadata={op_name="jit(step_fun)/aten::mul.Tensor/mul" source_file="/home/eporat/benchmarking_qwen_omni_tpu/.venv/lib/python3.11/site-packages/torchax/ops/jaten.py" source_line=325 source_end_line=325 source_column=8 source_end_column=13}
  %mul.8884 = bf16[16,32,64]{2,1,0} broadcast(%mul.8883), dimensions={0,2}, metadata={op_name="jit(step_fun)/aten::mul.Tensor/mul" source_file="/home/eporat/benchmarking_qwen_omni_tpu/.venv/lib/python3.11/site-packages/torchax/ops/jaten.py" source_line=325 source_end_line=325 source_column=8 source_end_column=13}
  %mul.8885 = bf16[16,32,64]{2,1,0} multiply(%slice.8880, %mul.8884), metadata={op_name="jit(step_fun)/aten::mul.Tensor/mul" source_file="/home/eporat/benchmarking_qwen_omni_tpu/.venv/lib/python3.11/site-packages/torchax/ops/jaten.py" source_line=325 source_end_line=325 source_column=8 source_end_column=13}
  %slice.8881 = bf16[16,32,64]{2,1,0} slice(%mul.8849), slice={[0:16], [0:32], [64:128]}, metadata={op_name="jit(step_fun)/aten::split.Tensor/slice" source_file="/home/eporat/benchmarking_qwen_omni_tpu/.venv/lib/python3.11/site-packages/torchax/ops/jaten.py" source_line=784 source_end_line=784 source_column=6 source_end_column=42}
  %slice.8877 = bf16[16,64]{1,0} slice(%gather.8875), slice={[0:16], [64:128]}, metadata={op_name="jit(step_fun)/aten::split.Tensor/slice" source_file="/home/eporat/benchmarking_qwen_omni_tpu/.venv/lib/python3.11/site-packages/torchax/ops/jaten.py" source_line=784 source_end_line=784 source_column=6 source_end_column=42}
  %broadcast_in_dim.8879 = bf16[16,1,64]{2,1,0} reshape(%slice.8877), metadata={op_name="jit(step_fun)/aten::unsqueeze/broadcast_in_dim" source_file="/home/eporat/benchmarking_qwen_omni_tpu/.venv/lib/python3.11/site-packages/torchax/ops/jaten.py" source_line=801 source_end_line=801 source_column=9 source_end_column=35}
  %mul.8886 = bf16[16,1,64]{2,1,0} broadcast(%broadcast_in_dim.8879), dimensions={0,1,2}, metadata={op_name="jit(step_fun)/aten::mul.Tensor/mul" source_file="/home/eporat/benchmarking_qwen_omni_tpu/.venv/lib/python3.11/site-packages/torchax/ops/jaten.py" source_line=325 source_end_line=325 source_column=8 source_end_column=13}
  %mul.8887 = bf16[16,64]{1,0} reshape(%mul.8886), metadata={op_name="jit(step_fun)/aten::mul.Tensor/mul" source_file="/home/eporat/benchmarking_qwen_omni_tpu/.venv/lib/python3.11/site-packages/torchax/ops/jaten.py" source_line=325 source_end_line=325 source_column=8 source_end_column=13}
  %mul.8888 = bf16[16,32,64]{2,1,0} broadcast(%mul.8887), dimensions={0,2}, metadata={op_name="jit(step_fun)/aten::mul.Tensor/mul" source_file="/home/eporat/benchmarking_qwen_omni_tpu/.venv/lib/python3.11/site-packages/torchax/ops/jaten.py" source_line=325 source_end_line=325 source_column=8 source_end_column=13}
  %mul.8889 = bf16[16,32,64]{2,1,0} multiply(%slice.8881, %mul.8888), metadata={op_name="jit(step_fun)/aten::mul.Tensor/mul" source_file="/home/eporat/benchmarking_qwen_omni_tpu/.venv/lib/python3.11/site-packages/torchax/ops/jaten.py" source_line=325 source_end_line=325 source_column=8 source_end_column=13}
  %sub.8890 = bf16[16,32,64]{2,1,0} subtract(%mul.8885, %mul.8889), metadata={op_name="jit(step_fun)/aten::sub.Tensor/sub" source_file="/home/eporat/benchmarking_qwen_omni_tpu/.venv/lib/python3.11/site-packages/torchax/ops/jaten.py" source_line=299 source_end_line=299 source_column=9 source_end_column=22}
  %mul.8891 = bf16[16,1,64]{2,1,0} broadcast(%broadcast_in_dim.8878), dimensions={0,1,2}, metadata={op_name="jit(step_fun)/aten::mul.Tensor/mul" source_file="/home/eporat/benchmarking_qwen_omni_tpu/.venv/lib/python3.11/site-packages/torchax/ops/jaten.py" source_line=325 source_end_line=325 source_column=8 source_end_column=13}
  %mul.8892 = bf16[16,64]{1,0} reshape(%mul.8891), metadata={op_name="jit(step_fun)/aten::mul.Tensor/mul" source_file="/home/eporat/benchmarking_qwen_omni_tpu/.venv/lib/python3.11/site-packages/torchax/ops/jaten.py" source_line=325 source_end_line=325 source_column=8 source_end_column=13}
  %mul.8893 = bf16[16,32,64]{2,1,0} broadcast(%mul.8892), dimensions={0,2}, metadata={op_name="jit(step_fun)/aten::mul.Tensor/mul" source_file="/home/eporat/benchmarking_qwen_omni_tpu/.venv/lib/python3.11/site-packages/torchax/ops/jaten.py" source_line=325 source_end_line=325 source_column=8 source_end_column=13}
  %mul.8894 = bf16[16,32,64]{2,1,0} multiply(%slice.8881, %mul.8893), metadata={op_name="jit(step_fun)/aten::mul.Tensor/mul" source_file="/home/eporat/benchmarking_qwen_omni_tpu/.venv/lib/python3.11/site-packages/torchax/ops/jaten.py" source_line=325 source_end_line=325 source_column=8 source_end_column=13}
  %mul.8895 = bf16[16,1,64]{2,1,0} broadcast(%broadcast_in_dim.8879), dimensions={0,1,2}, metadata={op_name="jit(step_fun)/aten::mul.Tensor/mul" source_file="/home/eporat/benchmarking_qwen_omni_tpu/.venv/lib/python3.11/site-packages/torchax/ops/jaten.py" source_line=325 source_end_line=325 source_column=8 source_end_column=13}
  %mul.8896 = bf16[16,64]{1,0} reshape(%mul.8895), metadata={op_name="jit(step_fun)/aten::mul.Tensor/mul" source_file="/home/eporat/benchmarking_qwen_omni_tpu/.venv/lib/python3.11/site-packages/torchax/ops/jaten.py" source_line=325 source_end_line=325 source_column=8 source_end_column=13}
  %mul.8897 = bf16[16,32,64]{2,1,0} broadcast(%mul.8896), dimensions={0,2}, metadata={op_name="jit(step_fun)/aten::mul.Tensor/mul" source_file="/home/eporat/benchmarking_qwen_omni_tpu/.venv/lib/python3.11/site-packages/torchax/ops/jaten.py" source_line=325 source_end_line=325 source_column=8 source_end_column=13}
  %mul.8898 = bf16[16,32,64]{2,1,0} multiply(%slice.8880, %mul.8897), metadata={op_name="jit(step_fun)/aten::mul.Tensor/mul" source_file="/home/eporat/benchmarking_qwen_omni_tpu/.venv/lib/python3.11/site-packages/torchax/ops/jaten.py" source_line=325 source_end_line=325 source_column=8 source_end_column=13}
  %add.8899 = bf16[16,32,64]{2,1,0} add(%mul.8894, %mul.8898), metadata={op_name="jit(step_fun)/aten::add.Tensor/add" source_file="/home/eporat/benchmarking_qwen_omni_tpu/.venv/lib/python3.11/site-packages/torchax/ops/jaten.py" source_line=65 source_end_line=65 source_column=8 source_end_column=21}
  %concatenate.8900 = bf16[16,32,128]{2,1,0} concatenate(%sub.8890, %add.8899), dimensions={2}, metadata={op_name="jit(step_fun)/aten::cat/concatenate" source_file="/home/eporat/benchmarking_qwen_omni_tpu/.venv/lib/python3.11/site-packages/torchax/ops/jaten.py" source_line=1211 source_end_line=1211 source_column=11 source_end_column=50}
  %reshape.8901 = bf16[16,4096]{1,0} reshape(%concatenate.8900), metadata={op_name="jit(step_fun)/aten::view/reshape" source_file="/home/eporat/benchmarking_qwen_omni_tpu/.venv/lib/python3.11/site-packages/torchax/ops/jaten.py" source_line=55 source_end_line=55 source_column=9 source_end_column=30}
  %slice.8825 = bf16[16,4,128]{2,1,0} slice(%reshape.8823), slice={[0:16], [0:4], [1024:1152]}, metadata={op_name="jit(step_fun)/QKVParallelLinear/slice" source_file="/home/eporat/benchmarking_qwen_omni_tpu/.venv/lib/python3.11/site-packages/tpu_inference/layers/vllm/linear_common.py" source_line=107 source_end_line=107 source_column=23 source_end_column=67}
  %convert_element_type.8850 = f32[16,4,128]{2,1,0} convert(%slice.8825), metadata={op_name="jit(step_fun)/convert_element_type" source_file="/home/eporat/benchmarking_qwen_omni_tpu/.venv/lib/python3.11/site-packages/torchax/tensor.py" source_line=154 source_end_line=154 source_column=10 source_end_column=51}
  %pow.8851 = f32[16,4,128]{2,1,0} power(%convert_element_type.8850, %broadcast.499), metadata={op_name="jit(step_fun)/aten::pow.Tensor_Scalar/pow" source_file="/home/eporat/benchmarking_qwen_omni_tpu/.venv/lib/python3.11/site-packages/torchax/ops/jaten.py" source_line=487 source_end_line=487 source_column=8 source_end_column=23}
  %reduce_sum.8856 = f32[16,4]{1,0} reduce(%pow.8851, %constant.512), dimensions={2}, to_apply=%region_220.8855, metadata={op_name="jit(step_fun)/aten::mean.dim/reduce_sum" source_file="/home/eporat/benchmarking_qwen_omni_tpu/.venv/lib/python3.11/site-packages/torchax/ops/jaten.py" source_line=265 source_end_line=265 source_column=9 source_end_column=43}
  %broadcast_in_dim.8857 = f32[16,4,1]{2,1,0} reshape(%reduce_sum.8856), metadata={op_name="jit(step_fun)/aten::mean.dim/broadcast_in_dim" source_file="/home/eporat/benchmarking_qwen_omni_tpu/.venv/lib/python3.11/site-packages/torchax/ops/jaten.py" source_line=265 source_end_line=265 source_column=9 source_end_column=43}
  %div.8858 = f32[16,4,1]{2,1,0} divide(%broadcast_in_dim.8857, %broadcast.497), metadata={op_name="jit(step_fun)/aten::mean.dim/div" source_file="/home/eporat/benchmarking_qwen_omni_tpu/.venv/lib/python3.11/site-packages/torchax/ops/jaten.py" source_line=265 source_end_line=265 source_column=9 source_end_column=43}
  %add.8859 = f32[16,4,1]{2,1,0} add(%div.8858, %broadcast.495), metadata={op_name="jit(step_fun)/aten::add.Tensor/add" source_file="/home/eporat/benchmarking_qwen_omni_tpu/.venv/lib/python3.11/site-packages/torchax/ops/jaten.py" source_line=65 source_end_line=65 source_column=8 source_end_column=21}
  %rsqrt.8860 = f32[16,4,1]{2,1,0} rsqrt(%add.8859), metadata={op_name="jit(step_fun)/aten::rsqrt/rsqrt" source_file="/home/eporat/benchmarking_qwen_omni_tpu/.venv/lib/python3.11/site-packages/torchax/ops/jaten.py" source_line=656 source_end_line=656 source_column=9 source_end_column=25}
  %mul.8861 = f32[16,4,1]{2,1,0} broadcast(%rsqrt.8860), dimensions={0,1,2}, metadata={op_name="jit(step_fun)/aten::mul.Tensor/mul" source_file="/home/eporat/benchmarking_qwen_omni_tpu/.venv/lib/python3.11/site-packages/torchax/ops/jaten.py" source_line=325 source_end_line=325 source_column=8 source_end_column=13}
  %mul.8862 = f32[16,4]{1,0} reshape(%mul.8861), metadata={op_name="jit(step_fun)/aten::mul.Tensor/mul" source_file="/home/eporat/benchmarking_qwen_omni_tpu/.venv/lib/python3.11/site-packages/torchax/ops/jaten.py" source_line=325 source_end_line=325 source_column=8 source_end_column=13}
  %mul.8863 = f32[16,4,128]{2,1,0} broadcast(%mul.8862), dimensions={0,1}, metadata={op_name="jit(step_fun)/aten::mul.Tensor/mul" source_file="/home/eporat/benchmarking_qwen_omni_tpu/.venv/lib/python3.11/site-packages/torchax/ops/jaten.py" source_line=325 source_end_line=325 source_column=8 source_end_column=13}
  %mul.8864 = f32[16,4,128]{2,1,0} multiply(%convert_element_type.8850, %mul.8863), metadata={op_name="jit(step_fun)/aten::mul.Tensor/mul" source_file="/home/eporat/benchmarking_qwen_omni_tpu/.venv/lib/python3.11/site-packages/torchax/ops/jaten.py" source_line=325 source_end_line=325 source_column=8 source_end_column=13}
  %convert_element_type.8865 = bf16[16,4,128]{2,1,0} convert(%mul.8864), metadata={op_name="jit(step_fun)/convert_element_type" source_file="/home/eporat/benchmarking_qwen_omni_tpu/.venv/lib/python3.11/site-packages/torchax/tensor.py" source_line=154 source_end_line=154 source_column=10 source_end_column=51}
  %params_and_buffers__vllm_model_language_model_model_layers_47_self_attn_k_norm_weight__.386 = bf16[128]{0} parameter(385), sharding={replicated}, frontend_attributes={xla.sdy.sharding="#sdy.sharding<@mesh, [{}]>"}, metadata={op_name="params_and_buffers[\'vllm_model.language_model.model.layers.47.self_attn.k_norm.weight\']"}
  %broadcast_in_dim.8866 = bf16[1,1,128]{2,1,0} reshape(%params_and_buffers__vllm_model_language_model_model_layers_47_self_attn_k_norm_weight__.386), metadata={op_name="jit(step_fun)/aten::mul.Tensor/broadcast_in_dim" source_file="/home/eporat/benchmarking_qwen_omni_tpu/.venv/lib/python3.11/site-packages/torchax/ops/jaten.py" source_line=325 source_end_line=325 source_column=8 source_end_column=13}
  %mul.8867 = bf16[1,1,128]{2,1,0} broadcast(%broadcast_in_dim.8866), dimensions={0,1,2}, metadata={op_name="jit(step_fun)/aten::mul.Tensor/mul" source_file="/home/eporat/benchmarking_qwen_omni_tpu/.venv/lib/python3.11/site-packages/torchax/ops/jaten.py" source_line=325 source_end_line=325 source_column=8 source_end_column=13}
  %mul.8868 = bf16[128]{0} reshape(%mul.8867), metadata={op_name="jit(step_fun)/aten::mul.Tensor/mul" source_file="/home/eporat/benchmarking_qwen_omni_tpu/.venv/lib/python3.11/site-packages/torchax/ops/jaten.py" source_line=325 source_end_line=325 source_column=8 source_end_column=13}
  %mul.8869 = bf16[16,4,128]{2,1,0} broadcast(%mul.8868), dimensions={2}, metadata={op_name="jit(step_fun)/aten::mul.Tensor/mul" source_file="/home/eporat/benchmarking_qwen_omni_tpu/.venv/lib/python3.11/site-packages/torchax/ops/jaten.py" source_line=325 source_end_line=325 source_column=8 source_end_column=13}
  %mul.8870 = bf16[16,4,128]{2,1,0} multiply(%convert_element_type.8865, %mul.8869), metadata={op_name="jit(step_fun)/aten::mul.Tensor/mul" source_file="/home/eporat/benchmarking_qwen_omni_tpu/.venv/lib/python3.11/site-packages/torchax/ops/jaten.py" source_line=325 source_end_line=325 source_column=8 source_end_column=13}
  %slice.8904 = bf16[16,4,64]{2,1,0} slice(%mul.8870), slice={[0:16], [0:4], [0:64]}, metadata={op_name="jit(step_fun)/aten::split.Tensor/slice" source_file="/home/eporat/benchmarking_qwen_omni_tpu/.venv/lib/python3.11/site-packages/torchax/ops/jaten.py" source_line=784 source_end_line=784 source_column=6 source_end_column=42}
  %broadcast_in_dim.8902 = bf16[16,1,64]{2,1,0} reshape(%slice.8876), metadata={op_name="jit(step_fun)/aten::unsqueeze/broadcast_in_dim" source_file="/home/eporat/benchmarking_qwen_omni_tpu/.venv/lib/python3.11/site-packages/torchax/ops/jaten.py" source_line=801 source_end_line=801 source_column=9 source_end_column=35}
  %mul.8906 = bf16[16,1,64]{2,1,0} broadcast(%broadcast_in_dim.8902), dimensions={0,1,2}, metadata={op_name="jit(step_fun)/aten::mul.Tensor/mul" source_file="/home/eporat/benchmarking_qwen_omni_tpu/.venv/lib/python3.11/site-packages/torchax/ops/jaten.py" source_line=325 source_end_line=325 source_column=8 source_end_column=13}
  %mul.8907 = bf16[16,64]{1,0} reshape(%mul.8906), metadata={op_name="jit(step_fun)/aten::mul.Tensor/mul" source_file="/home/eporat/benchmarking_qwen_omni_tpu/.venv/lib/python3.11/site-packages/torchax/ops/jaten.py" source_line=325 source_end_line=325 source_column=8 source_end_column=13}
  %mul.8908 = bf16[16,4,64]{2,1,0} broadcast(%mul.8907), dimensions={0,2}, metadata={op_name="jit(step_fun)/aten::mul.Tensor/mul" source_file="/home/eporat/benchmarking_qwen_omni_tpu/.venv/lib/python3.11/site-packages/torchax/ops/jaten.py" source_line=325 source_end_line=325 source_column=8 source_end_column=13}
  %mul.8909 = bf16[16,4,64]{2,1,0} multiply(%slice.8904, %mul.8908), metadata={op_name="jit(step_fun)/aten::mul.Tensor/mul" source_file="/home/eporat/benchmarking_qwen_omni_tpu/.venv/lib/python3.11/site-packages/torchax/ops/jaten.py" source_line=325 source_end_line=325 source_column=8 source_end_column=13}
  %slice.8905 = bf16[16,4,64]{2,1,0} slice(%mul.8870), slice={[0:16], [0:4], [64:128]}, metadata={op_name="jit(step_fun)/aten::split.Tensor/slice" source_file="/home/eporat/benchmarking_qwen_omni_tpu/.venv/lib/python3.11/site-packages/torchax/ops/jaten.py" source_line=784 source_end_line=784 source_column=6 source_end_column=42}
  %broadcast_in_dim.8903 = bf16[16,1,64]{2,1,0} reshape(%slice.8877), metadata={op_name="jit(step_fun)/aten::unsqueeze/broadcast_in_dim" source_file="/home/eporat/benchmarking_qwen_omni_tpu/.venv/lib/python3.11/site-packages/torchax/ops/jaten.py" source_line=801 source_end_line=801 source_column=9 source_end_column=35}
  %mul.8910 = bf16[16,1,64]{2,1,0} broadcast(%broadcast_in_dim.8903), dimensions={0,1,2}, metadata={op_name="jit(step_fun)/aten::mul.Tensor/mul" source_file="/home/eporat/benchmarking_qwen_omni_tpu/.venv/lib/python3.11/site-packages/torchax/ops/jaten.py" source_line=325 source_end_line=325 source_column=8 source_end_column=13}
  %mul.8911 = bf16[16,64]{1,0} reshape(%mul.8910), metadata={op_name="jit(step_fun)/aten::mul.Tensor/mul" source_file="/home/eporat/benchmarking_qwen_omni_tpu/.venv/lib/python3.11/site-packages/torchax/ops/jaten.py" source_line=325 source_end_line=325 source_column=8 source_end_column=13}
  %mul.8912 = bf16[16,4,64]{2,1,0} broadcast(%mul.8911), dimensions={0,2}, metadata={op_name="jit(step_fun)/aten::mul.Tensor/mul" source_file="/home/eporat/benchmarking_qwen_omni_tpu/.venv/lib/python3.11/site-packages/torchax/ops/jaten.py" source_line=325 source_end_line=325 source_column=8 source_end_column=13}
  %mul.8913 = bf16[16,4,64]{2,1,0} multiply(%slice.8905, %mul.8912), metadata={op_name="jit(step_fun)/aten::mul.Tensor/mul" source_file="/home/eporat/benchmarking_qwen_omni_tpu/.venv/lib/python3.11/site-packages/torchax/ops/jaten.py" source_line=325 source_end_line=325 source_column=8 source_end_column=13}
  %sub.8914 = bf16[16,4,64]{2,1,0} subtract(%mul.8909, %mul.8913), metadata={op_name="jit(step_fun)/aten::sub.Tensor/sub" source_file="/home/eporat/benchmarking_qwen_omni_tpu/.venv/lib/python3.11/site-packages/torchax/ops/jaten.py" source_line=299 source_end_line=299 source_column=9 source_end_column=22}
  %mul.8915 = bf16[16,1,64]{2,1,0} broadcast(%broadcast_in_dim.8902), dimensions={0,1,2}, metadata={op_name="jit(step_fun)/aten::mul.Tensor/mul" source_file="/home/eporat/benchmarking_qwen_omni_tpu/.venv/lib/python3.11/site-packages/torchax/ops/jaten.py" source_line=325 source_end_line=325 source_column=8 source_end_column=13}
  %mul.8916 = bf16[16,64]{1,0} reshape(%mul.8915), metadata={op_name="jit(step_fun)/aten::mul.Tensor/mul" source_file="/home/eporat/benchmarking_qwen_omni_tpu/.venv/lib/python3.11/site-packages/torchax/ops/jaten.py" source_line=325 source_end_line=325 source_column=8 source_end_column=13}
  %mul.8917 = bf16[16,4,64]{2,1,0} broadcast(%mul.8916), dimensions={0,2}, metadata={op_name="jit(step_fun)/aten::mul.Tensor/mul" source_file="/home/eporat/benchmarking_qwen_omni_tpu/.venv/lib/python3.11/site-packages/torchax/ops/jaten.py" source_line=325 source_end_line=325 source_column=8 source_end_column=13}
  %mul.8918 = bf16[16,4,64]{2,1,0} multiply(%slice.8905, %mul.8917), metadata={op_name="jit(step_fun)/aten::mul.Tensor/mul" source_file="/home/eporat/benchmarking_qwen_omni_tpu/.venv/lib/python3.11/site-packages/torchax/ops/jaten.py" source_line=325 source_end_line=325 source_column=8 source_end_column=13}
  %mul.8919 = bf16[16,1,64]{2,1,0} broadcast(%broadcast_in_dim.8903), dimensions={0,1,2}, metadata={op_name="jit(step_fun)/aten::mul.Tensor/mul" source_file="/home/eporat/benchmarking_qwen_omni_tpu/.venv/lib/python3.11/site-packages/torchax/ops/jaten.py" source_line=325 source_end_line=325 source_column=8 source_end_column=13}
  %mul.8920 = bf16[16,64]{1,0} reshape(%mul.8919), metadata={op_name="jit(step_fun)/aten::mul.Tensor/mul" source_file="/home/eporat/benchmarking_qwen_omni_tpu/.venv/lib/python3.11/site-packages/torchax/ops/jaten.py" source_line=325 source_end_line=325 source_column=8 source_end_column=13}
  %mul.8921 = bf16[16,4,64]{2,1,0} broadcast(%mul.8920), dimensions={0,2}, metadata={op_name="jit(step_fun)/aten::mul.Tensor/mul" source_file="/home/eporat/benchmarking_qwen_omni_tpu/.venv/lib/python3.11/site-packages/torchax/ops/jaten.py" source_line=325 source_end_line=325 source_column=8 source_end_column=13}
  %mul.8922 = bf16[16,4,64]{2,1,0} multiply(%slice.8904, %mul.8921), metadata={op_name="jit(step_fun)/aten::mul.Tensor/mul" source_file="/home/eporat/benchmarking_qwen_omni_tpu/.venv/lib/python3.11/site-packages/torchax/ops/jaten.py" source_line=325 source_end_line=325 source_column=8 source_end_column=13}
  %add.8923 = bf16[16,4,64]{2,1,0} add(%mul.8918, %mul.8922), metadata={op_name="jit(step_fun)/aten::add.Tensor/add" source_file="/home/eporat/benchmarking_qwen_omni_tpu/.venv/lib/python3.11/site-packages/torchax/ops/jaten.py" source_line=65 source_end_line=65 source_column=8 source_end_column=21}
  %concatenate.8924 = bf16[16,4,128]{2,1,0} concatenate(%sub.8914, %add.8923), dimensions={2}, metadata={op_name="jit(step_fun)/aten::cat/concatenate" source_file="/home/eporat/benchmarking_qwen_omni_tpu/.venv/lib/python3.11/site-packages/torchax/ops/jaten.py" source_line=1211 source_end_line=1211 source_column=11 source_end_column=50}
  %reshape.8925 = bf16[16,512]{1,0} reshape(%concatenate.8924), metadata={op_name="jit(step_fun)/aten::view/reshape" source_file="/home/eporat/benchmarking_qwen_omni_tpu/.venv/lib/python3.11/site-packages/torchax/ops/jaten.py" source_line=55 source_end_line=55 source_column=9 source_end_column=30}
  %slice.8826 = bf16[16,4,128]{2,1,0} slice(%reshape.8823), slice={[0:16], [0:4], [1152:1280]}, metadata={op_name="jit(step_fun)/QKVParallelLinear/slice" source_file="/home/eporat/benchmarking_qwen_omni_tpu/.venv/lib/python3.11/site-packages/tpu_inference/layers/vllm/linear_common.py" source_line=107 source_end_line=107 source_column=23 source_end_column=67}
  %reshape.8827 = bf16[16,512]{1,0} reshape(%slice.8826), metadata={op_name="jit(step_fun)/QKVParallelLinear/reshape" source_file="/home/eporat/benchmarking_qwen_omni_tpu/.venv/lib/python3.11/site-packages/tpu_inference/layers/vllm/linear_common.py" source_line=108 source_end_line=108 source_column=29 source_end_column=74}
  %jit__jax_attn_func_.8926 = (bf16[14813,32,4,2,128]{4,3,2,1,0}, bf16[16,4096]{1,0}) call(%kv_caches_47_.483, %reshape.8901, %reshape.8925, %reshape.8827, %attn_metadata_block_tables.486, /*index=5*/%attn_metadata_seq_lens.487, %attn_metadata_query_start_loc.488, %attn_metadata_request_distribution.489), to_apply=%_jax_attn_func.763, metadata={op_name="jit(step_fun)/jit(_jax_attn_func)" source_file="/home/eporat/benchmarking_qwen_omni_tpu/.venv/lib/python3.11/site-packages/tpu_inference/layers/vllm/attention.py" source_line=118 source_end_line=122 source_column=32 source_end_column=64}
  %jit__jax_attn_func_.8927 = bf16[14813,32,4,2,128]{4,3,2,1,0} get-tuple-element(%jit__jax_attn_func_.8926), index=0, metadata={op_name="jit(step_fun)/jit(_jax_attn_func)" source_file="/home/eporat/benchmarking_qwen_omni_tpu/.venv/lib/python3.11/site-packages/tpu_inference/layers/vllm/attention.py" source_line=118 source_end_line=122 source_column=32 source_end_column=64}
  %jit__jax_attn_func_.8928 = bf16[16,4096]{1,0} get-tuple-element(%jit__jax_attn_func_.8926), index=1, metadata={op_name="jit(step_fun)/jit(_jax_attn_func)" source_file="/home/eporat/benchmarking_qwen_omni_tpu/.venv/lib/python3.11/site-packages/tpu_inference/layers/vllm/attention.py" source_line=118 source_end_line=122 source_column=32 source_end_column=64}
  %params_and_buffers__vllm_model_language_model_model_layers_47_self_attn_o_proj_weight__.387 = bf16[2048,4096]{1,0} parameter(386), sharding={devices=[1,4]<=[4]}, frontend_attributes={xla.sdy.sharding="#sdy.sharding<@mesh, [{}, {\"model\"}]>"}, metadata={op_name="params_and_buffers[\'vllm_model.language_model.model.layers.47.self_attn.o_proj.weight\']"}
  %dot_general.8929 = bf16[16,2048]{1,0} dot(%jit__jax_attn_func_.8928, %params_and_buffers__vllm_model_language_model_model_layers_47_self_attn_o_proj_weight__.387), lhs_contracting_dims={1}, rhs_contracting_dims={1}, metadata={op_name="jit(step_fun)/RowParallelLinear/mn,pn->mp/dot_general" source_file="/home/eporat/benchmarking_qwen_omni_tpu/.venv/lib/python3.11/site-packages/tpu_inference/layers/vllm/quantization/unquantized.py" source_line=129 source_end_line=129 source_column=15 source_end_column=57}
  %convert_element_type.8930 = f32[16,2048]{1,0} convert(%dot_general.8929), metadata={op_name="jit(step_fun)/convert_element_type" source_file="/home/eporat/benchmarking_qwen_omni_tpu/.venv/lib/python3.11/site-packages/torchax/tensor.py" source_line=154 source_end_line=154 source_column=10 source_end_column=51}
  %convert_element_type.8801 = bf16[16,2048]{1,0} convert(%add.8800), metadata={op_name="jit(step_fun)/convert_element_type" source_file="/home/eporat/benchmarking_qwen_omni_tpu/.venv/lib/python3.11/site-packages/torchax/tensor.py" source_line=154 source_end_line=154 source_column=10 source_end_column=51}
  %convert_element_type.8931 = f32[16,2048]{1,0} convert(%convert_element_type.8801), metadata={op_name="jit(step_fun)/convert_element_type" source_file="/home/eporat/benchmarking_qwen_omni_tpu/.venv/lib/python3.11/site-packages/torchax/tensor.py" source_line=154 source_end_line=154 source_column=10 source_end_column=51}
  %add.8932 = f32[16,2048]{1,0} add(%convert_element_type.8930, %convert_element_type.8931), metadata={op_name="jit(step_fun)/aten::add.Tensor/add" source_file="/home/eporat/benchmarking_qwen_omni_tpu/.venv/lib/python3.11/site-packages/torchax/ops/jaten.py" source_line=65 source_end_line=65 source_column=8 source_end_column=21}
  %pow.8934 = f32[16,2048]{1,0} power(%add.8932, %broadcast.511), metadata={op_name="jit(step_fun)/aten::pow.Tensor_Scalar/pow" source_file="/home/eporat/benchmarking_qwen_omni_tpu/.venv/lib/python3.11/site-packages/torchax/ops/jaten.py" source_line=487 source_end_line=487 source_column=8 source_end_column=23}
  %reduce_sum.8939 = f32[16]{0} reduce(%pow.8934, %constant.512), dimensions={1}, to_apply=%region_221.8938, metadata={op_name="jit(step_fun)/aten::mean.dim/reduce_sum" source_file="/home/eporat/benchmarking_qwen_omni_tpu/.venv/lib/python3.11/site-packages/torchax/ops/jaten.py" source_line=265 source_end_line=265 source_column=9 source_end_column=43}
  %broadcast_in_dim.8940 = f32[16,1]{1,0} reshape(%reduce_sum.8939), metadata={op_name="jit(step_fun)/aten::mean.dim/broadcast_in_dim" source_file="/home/eporat/benchmarking_qwen_omni_tpu/.venv/lib/python3.11/site-packages/torchax/ops/jaten.py" source_line=265 source_end_line=265 source_column=9 source_end_column=43}
  %div.8941 = f32[16,1]{1,0} divide(%broadcast_in_dim.8940, %broadcast.509), metadata={op_name="jit(step_fun)/aten::mean.dim/div" source_file="/home/eporat/benchmarking_qwen_omni_tpu/.venv/lib/python3.11/site-packages/torchax/ops/jaten.py" source_line=265 source_end_line=265 source_column=9 source_end_column=43}
  %add.8942 = f32[16,1]{1,0} add(%div.8941, %broadcast.507), metadata={op_name="jit(step_fun)/aten::add.Tensor/add" source_file="/home/eporat/benchmarking_qwen_omni_tpu/.venv/lib/python3.11/site-packages/torchax/ops/jaten.py" source_line=65 source_end_line=65 source_column=8 source_end_column=21}
  %rsqrt.8943 = f32[16,1]{1,0} rsqrt(%add.8942), metadata={op_name="jit(step_fun)/aten::rsqrt/rsqrt" source_file="/home/eporat/benchmarking_qwen_omni_tpu/.venv/lib/python3.11/site-packages/torchax/ops/jaten.py" source_line=656 source_end_line=656 source_column=9 source_end_column=25}
  %mul.8944 = f32[16,1]{1,0} broadcast(%rsqrt.8943), dimensions={0,1}, metadata={op_name="jit(step_fun)/aten::mul.Tensor/mul" source_file="/home/eporat/benchmarking_qwen_omni_tpu/.venv/lib/python3.11/site-packages/torchax/ops/jaten.py" source_line=325 source_end_line=325 source_column=8 source_end_column=13}
  %mul.8945 = f32[16]{0} reshape(%mul.8944), metadata={op_name="jit(step_fun)/aten::mul.Tensor/mul" source_file="/home/eporat/benchmarking_qwen_omni_tpu/.venv/lib/python3.11/site-packages/torchax/ops/jaten.py" source_line=325 source_end_line=325 source_column=8 source_end_column=13}
  %mul.8946 = f32[16,2048]{1,0} broadcast(%mul.8945), dimensions={0}, metadata={op_name="jit(step_fun)/aten::mul.Tensor/mul" source_file="/home/eporat/benchmarking_qwen_omni_tpu/.venv/lib/python3.11/site-packages/torchax/ops/jaten.py" source_line=325 source_end_line=325 source_column=8 source_end_column=13}
  %mul.8947 = f32[16,2048]{1,0} multiply(%add.8932, %mul.8946), metadata={op_name="jit(step_fun)/aten::mul.Tensor/mul" source_file="/home/eporat/benchmarking_qwen_omni_tpu/.venv/lib/python3.11/site-packages/torchax/ops/jaten.py" source_line=325 source_end_line=325 source_column=8 source_end_column=13}
  %convert_element_type.8948 = bf16[16,2048]{1,0} convert(%mul.8947), metadata={op_name="jit(step_fun)/convert_element_type" source_file="/home/eporat/benchmarking_qwen_omni_tpu/.venv/lib/python3.11/site-packages/torchax/tensor.py" source_line=154 source_end_line=154 source_column=10 source_end_column=51}
  %params_and_buffers__vllm_model_language_model_model_layers_47_post_attention_layernorm_weight__.385 = bf16[2048]{0} parameter(384), sharding={replicated}, frontend_attributes={xla.sdy.sharding="#sdy.sharding<@mesh, [{}]>"}, metadata={op_name="params_and_buffers[\'vllm_model.language_model.model.layers.47.post_attention_layernorm.weight\']"}
  %broadcast_in_dim.8949 = bf16[1,2048]{1,0} reshape(%params_and_buffers__vllm_model_language_model_model_layers_47_post_attention_layernorm_weight__.385), metadata={op_name="jit(step_fun)/aten::mul.Tensor/broadcast_in_dim" source_file="/home/eporat/benchmarking_qwen_omni_tpu/.venv/lib/python3.11/site-packages/torchax/ops/jaten.py" source_line=325 source_end_line=325 source_column=8 source_end_column=13}
  %mul.8950 = bf16[1,2048]{1,0} broadcast(%broadcast_in_dim.8949), dimensions={0,1}, metadata={op_name="jit(step_fun)/aten::mul.Tensor/mul" source_file="/home/eporat/benchmarking_qwen_omni_tpu/.venv/lib/python3.11/site-packages/torchax/ops/jaten.py" source_line=325 source_end_line=325 source_column=8 source_end_column=13}
  %mul.8951 = bf16[2048]{0} reshape(%mul.8950), metadata={op_name="jit(step_fun)/aten::mul.Tensor/mul" source_file="/home/eporat/benchmarking_qwen_omni_tpu/.venv/lib/python3.11/site-packages/torchax/ops/jaten.py" source_line=325 source_end_line=325 source_column=8 source_end_column=13}
  %mul.8952 = bf16[16,2048]{1,0} broadcast(%mul.8951), dimensions={1}, metadata={op_name="jit(step_fun)/aten::mul.Tensor/mul" source_file="/home/eporat/benchmarking_qwen_omni_tpu/.venv/lib/python3.11/site-packages/torchax/ops/jaten.py" source_line=325 source_end_line=325 source_column=8 source_end_column=13}
  %mul.8953 = bf16[16,2048]{1,0} multiply(%convert_element_type.8948, %mul.8952), metadata={op_name="jit(step_fun)/aten::mul.Tensor/mul" source_file="/home/eporat/benchmarking_qwen_omni_tpu/.venv/lib/python3.11/site-packages/torchax/ops/jaten.py" source_line=325 source_end_line=325 source_column=8 source_end_column=13}
  %params_and_buffers__vllm_model_language_model_model_layers_47_mlp_experts_w13_weight__.382 = bf16[128,1536,2048]{2,1,0} parameter(381), sharding={devices=[1,4,1]<=[4]}, frontend_attributes={xla.sdy.sharding="#sdy.sharding<@mesh, [{}, {\"model\"}, {}]>"}, metadata={op_name="params_and_buffers[\'vllm_model.language_model.model.layers.47.mlp.experts.w13_weight\']"}
  %params_and_buffers__vllm_model_language_model_model_layers_47_mlp_experts_w2_weight__.383 = bf16[128,2048,768]{2,1,0} parameter(382), sharding={devices=[1,1,4]<=[4]}, frontend_attributes={xla.sdy.sharding="#sdy.sharding<@mesh, [{}, {}, {\"model\"}]>"}, metadata={op_name="params_and_buffers[\'vllm_model.language_model.model.layers.47.mlp.experts.w2_weight\']"}
  %params_and_buffers__vllm_model_language_model_model_layers_47_mlp_gate_weight__.384 = bf16[128,2048]{1,0} parameter(383), sharding={replicated}, frontend_attributes={xla.sdy.sharding="#sdy.sharding<@mesh, [{}, {}]>"}, metadata={op_name="params_and_buffers[\'vllm_model.language_model.model.layers.47.mlp.gate.weight\']"}
  %dot_general.8954 = bf16[16,128]{1,0} dot(%mul.8953, %params_and_buffers__vllm_model_language_model_model_layers_47_mlp_gate_weight__.384), lhs_contracting_dims={1}, rhs_contracting_dims={1}, metadata={op_name="jit(step_fun)/ReplicatedLinear/mn,pn->mp/dot_general" source_file="/home/eporat/benchmarking_qwen_omni_tpu/.venv/lib/python3.11/site-packages/tpu_inference/layers/vllm/quantization/unquantized.py" source_line=129 source_end_line=129 source_column=15 source_end_column=57}
  %jit_jax_fused_moe_func_padded_.8955 = bf16[16,2048]{1,0} call(%mul.8953, %params_and_buffers__vllm_model_language_model_model_layers_47_mlp_experts_w13_weight__.382, %params_and_buffers__vllm_model_language_model_model_layers_47_mlp_experts_w2_weight__.383, %dot_general.8954), to_apply=%jax_fused_moe_func_padded.1528, metadata={op_name="jit(step_fun)/jit(jax_fused_moe_func_padded)" source_file="/home/eporat/benchmarking_qwen_omni_tpu/.venv/lib/python3.11/site-packages/tpu_inference/layers/vllm/quantization/unquantized.py" source_line=256 source_end_line=261 source_column=17 source_end_column=9}
  %convert_element_type.8956 = f32[16,2048]{1,0} convert(%jit_jax_fused_moe_func_padded_.8955), metadata={op_name="jit(step_fun)/convert_element_type" source_file="/home/eporat/benchmarking_qwen_omni_tpu/.venv/lib/python3.11/site-packages/torchax/tensor.py" source_line=154 source_end_line=154 source_column=10 source_end_column=51}
  %convert_element_type.8933 = bf16[16,2048]{1,0} convert(%add.8932), metadata={op_name="jit(step_fun)/convert_element_type" source_file="/home/eporat/benchmarking_qwen_omni_tpu/.venv/lib/python3.11/site-packages/torchax/tensor.py" source_line=154 source_end_line=154 source_column=10 source_end_column=51}
  %convert_element_type.8957 = f32[16,2048]{1,0} convert(%convert_element_type.8933), metadata={op_name="jit(step_fun)/convert_element_type" source_file="/home/eporat/benchmarking_qwen_omni_tpu/.venv/lib/python3.11/site-packages/torchax/tensor.py" source_line=154 source_end_line=154 source_column=10 source_end_column=51}
  %add.8958 = f32[16,2048]{1,0} add(%convert_element_type.8956, %convert_element_type.8957), metadata={op_name="jit(step_fun)/aten::add.Tensor/add" source_file="/home/eporat/benchmarking_qwen_omni_tpu/.venv/lib/python3.11/site-packages/torchax/ops/jaten.py" source_line=65 source_end_line=65 source_column=8 source_end_column=21}
  %pow.8959 = f32[16,2048]{1,0} power(%add.8958, %broadcast.511), metadata={op_name="jit(step_fun)/aten::pow.Tensor_Scalar/pow" source_file="/home/eporat/benchmarking_qwen_omni_tpu/.venv/lib/python3.11/site-packages/torchax/ops/jaten.py" source_line=487 source_end_line=487 source_column=8 source_end_column=23}
  %reduce_sum.8964 = f32[16]{0} reduce(%pow.8959, %constant.512), dimensions={1}, to_apply=%region_222.8963, metadata={op_name="jit(step_fun)/aten::mean.dim/reduce_sum" source_file="/home/eporat/benchmarking_qwen_omni_tpu/.venv/lib/python3.11/site-packages/torchax/ops/jaten.py" source_line=265 source_end_line=265 source_column=9 source_end_column=43}
  %broadcast_in_dim.8965 = f32[16,1]{1,0} reshape(%reduce_sum.8964), metadata={op_name="jit(step_fun)/aten::mean.dim/broadcast_in_dim" source_file="/home/eporat/benchmarking_qwen_omni_tpu/.venv/lib/python3.11/site-packages/torchax/ops/jaten.py" source_line=265 source_end_line=265 source_column=9 source_end_column=43}
  %div.8966 = f32[16,1]{1,0} divide(%broadcast_in_dim.8965, %broadcast.509), metadata={op_name="jit(step_fun)/aten::mean.dim/div" source_file="/home/eporat/benchmarking_qwen_omni_tpu/.venv/lib/python3.11/site-packages/torchax/ops/jaten.py" source_line=265 source_end_line=265 source_column=9 source_end_column=43}
  %add.8967 = f32[16,1]{1,0} add(%div.8966, %broadcast.507), metadata={op_name="jit(step_fun)/aten::add.Tensor/add" source_file="/home/eporat/benchmarking_qwen_omni_tpu/.venv/lib/python3.11/site-packages/torchax/ops/jaten.py" source_line=65 source_end_line=65 source_column=8 source_end_column=21}
  %rsqrt.8968 = f32[16,1]{1,0} rsqrt(%add.8967), metadata={op_name="jit(step_fun)/aten::rsqrt/rsqrt" source_file="/home/eporat/benchmarking_qwen_omni_tpu/.venv/lib/python3.11/site-packages/torchax/ops/jaten.py" source_line=656 source_end_line=656 source_column=9 source_end_column=25}
  %mul.8969 = f32[16,1]{1,0} broadcast(%rsqrt.8968), dimensions={0,1}, metadata={op_name="jit(step_fun)/aten::mul.Tensor/mul" source_file="/home/eporat/benchmarking_qwen_omni_tpu/.venv/lib/python3.11/site-packages/torchax/ops/jaten.py" source_line=325 source_end_line=325 source_column=8 source_end_column=13}
  %mul.8970 = f32[16]{0} reshape(%mul.8969), metadata={op_name="jit(step_fun)/aten::mul.Tensor/mul" source_file="/home/eporat/benchmarking_qwen_omni_tpu/.venv/lib/python3.11/site-packages/torchax/ops/jaten.py" source_line=325 source_end_line=325 source_column=8 source_end_column=13}
  %mul.8971 = f32[16,2048]{1,0} broadcast(%mul.8970), dimensions={0}, metadata={op_name="jit(step_fun)/aten::mul.Tensor/mul" source_file="/home/eporat/benchmarking_qwen_omni_tpu/.venv/lib/python3.11/site-packages/torchax/ops/jaten.py" source_line=325 source_end_line=325 source_column=8 source_end_column=13}
  %mul.8972 = f32[16,2048]{1,0} multiply(%add.8958, %mul.8971), metadata={op_name="jit(step_fun)/aten::mul.Tensor/mul" source_file="/home/eporat/benchmarking_qwen_omni_tpu/.venv/lib/python3.11/site-packages/torchax/ops/jaten.py" source_line=325 source_end_line=325 source_column=8 source_end_column=13}
  %convert_element_type.8973 = bf16[16,2048]{1,0} convert(%mul.8972), metadata={op_name="jit(step_fun)/convert_element_type" source_file="/home/eporat/benchmarking_qwen_omni_tpu/.venv/lib/python3.11/site-packages/torchax/tensor.py" source_line=154 source_end_line=154 source_column=10 source_end_column=51}
  %params_and_buffers__vllm_model_language_model_model_norm_weight__.435 = bf16[2048]{0} parameter(434), sharding={replicated}, frontend_attributes={xla.sdy.sharding="#sdy.sharding<@mesh, [{}]>"}, metadata={op_name="params_and_buffers[\'vllm_model.language_model.model.norm.weight\']"}
  %broadcast_in_dim.8974 = bf16[1,2048]{1,0} reshape(%params_and_buffers__vllm_model_language_model_model_norm_weight__.435), metadata={op_name="jit(step_fun)/aten::mul.Tensor/broadcast_in_dim" source_file="/home/eporat/benchmarking_qwen_omni_tpu/.venv/lib/python3.11/site-packages/torchax/ops/jaten.py" source_line=325 source_end_line=325 source_column=8 source_end_column=13}
  %mul.8975 = bf16[1,2048]{1,0} broadcast(%broadcast_in_dim.8974), dimensions={0,1}, metadata={op_name="jit(step_fun)/aten::mul.Tensor/mul" source_file="/home/eporat/benchmarking_qwen_omni_tpu/.venv/lib/python3.11/site-packages/torchax/ops/jaten.py" source_line=325 source_end_line=325 source_column=8 source_end_column=13}
  %mul.8976 = bf16[2048]{0} reshape(%mul.8975), metadata={op_name="jit(step_fun)/aten::mul.Tensor/mul" source_file="/home/eporat/benchmarking_qwen_omni_tpu/.venv/lib/python3.11/site-packages/torchax/ops/jaten.py" source_line=325 source_end_line=325 source_column=8 source_end_column=13}
  %mul.8977 = bf16[16,2048]{1,0} broadcast(%mul.8976), dimensions={1}, metadata={op_name="jit(step_fun)/aten::mul.Tensor/mul" source_file="/home/eporat/benchmarking_qwen_omni_tpu/.venv/lib/python3.11/site-packages/torchax/ops/jaten.py" source_line=325 source_end_line=325 source_column=8 source_end_column=13}
  %mul.8978 = bf16[16,2048]{1,0} multiply(%convert_element_type.8973, %mul.8977), metadata={op_name="jit(step_fun)/aten::mul.Tensor/mul" source_file="/home/eporat/benchmarking_qwen_omni_tpu/.venv/lib/python3.11/site-packages/torchax/ops/jaten.py" source_line=325 source_end_line=325 source_column=8 source_end_column=13}
  ROOT %tuple.8979 = (bf16[14813,32,4,2,128]{4,3,2,1,0}, bf16[14813,32,4,2,128]{4,3,2,1,0}, bf16[14813,32,4,2,128]{4,3,2,1,0}, bf16[14813,32,4,2,128]{4,3,2,1,0}, bf16[14813,32,4,2,128]{4,3,2,1,0}, /*index=5*/bf16[14813,32,4,2,128]{4,3,2,1,0}, bf16[14813,32,4,2,128]{4,3,2,1,0}, bf16[14813,32,4,2,128]{4,3,2,1,0}, bf16[14813,32,4,2,128]{4,3,2,1,0}, bf16[14813,32,4,2,128]{4,3,2,1,0}, /*index=10*/bf16[14813,32,4,2,128]{4,3,2,1,0}, bf16[14813,32,4,2,128]{4,3,2,1,0}, bf16[14813,32,4,2,128]{4,3,2,1,0}, bf16[14813,32,4,2,128]{4,3,2,1,0}, bf16[14813,32,4,2,128]{4,3,2,1,0}, /*index=15*/bf16[14813,32,4,2,128]{4,3,2,1,0}, bf16[14813,32,4,2,128]{4,3,2,1,0}, bf16[14813,32,4,2,128]{4,3,2,1,0}, bf16[14813,32,4,2,128]{4,3,2,1,0}, bf16[14813,32,4,2,128]{4,3,2,1,0}, /*index=20*/bf16[14813,32,4,2,128]{4,3,2,1,0}, bf16[14813,32,4,2,128]{4,3,2,1,0}, bf16[14813,32,4,2,128]{4,3,2,1,0}, bf16[14813,32,4,2,128]{4,3,2,1,0}, bf16[14813,32,4,2,128]{4,3,2,1,0}, /*index=25*/bf16[14813,32,4,2,128]{4,3,2,1,0}, bf16[14813,32,4,2,128]{4,3,2,1,0}, bf16[14813,32,4,2,128]{4,3,2,1,0}, bf16[14813,32,4,2,128]{4,3,2,1,0}, bf16[14813,32,4,2,128]{4,3,2,1,0}, /*index=30*/bf16[14813,32,4,2,128]{4,3,2,1,0}, bf16[14813,32,4,2,128]{4,3,2,1,0}, bf16[14813,32,4,2,128]{4,3,2,1,0}, bf16[14813,32,4,2,128]{4,3,2,1,0}, bf16[14813,32,4,2,128]{4,3,2,1,0}, /*index=35*/bf16[14813,32,4,2,128]{4,3,2,1,0}, bf16[14813,32,4,2,128]{4,3,2,1,0}, bf16[14813,32,4,2,128]{4,3,2,1,0}, bf16[14813,32,4,2,128]{4,3,2,1,0}, bf16[14813,32,4,2,128]{4,3,2,1,0}, /*index=40*/bf16[14813,32,4,2,128]{4,3,2,1,0}, bf16[14813,32,4,2,128]{4,3,2,1,0}, bf16[14813,32,4,2,128]{4,3,2,1,0}, bf16[14813,32,4,2,128]{4,3,2,1,0}, bf16[14813,32,4,2,128]{4,3,2,1,0}, /*index=45*/bf16[14813,32,4,2,128]{4,3,2,1,0}, bf16[14813,32,4,2,128]{4,3,2,1,0}, bf16[14813,32,4,2,128]{4,3,2,1,0}, bf16[16,2048]{1,0}) tuple(%jit__jax_attn_func_.765, %jit__jax_attn_func_.1659, %jit__jax_attn_func_.1817, %jit__jax_attn_func_.1975, %jit__jax_attn_func_.2133, /*index=5*/%jit__jax_attn_func_.2291, %jit__jax_attn_func_.2449, %jit__jax_attn_func_.2607, %jit__jax_attn_func_.2765, %jit__jax_attn_func_.2923, /*index=10*/%jit__jax_attn_func_.3081, %jit__jax_attn_func_.3239, %jit__jax_attn_func_.3397, %jit__jax_attn_func_.3555, %jit__jax_attn_func_.3713, /*index=15*/%jit__jax_attn_func_.3871, %jit__jax_attn_func_.4029, %jit__jax_attn_func_.4187, %jit__jax_attn_func_.4345, %jit__jax_attn_func_.4503, /*index=20*/%jit__jax_attn_func_.4661, %jit__jax_attn_func_.4819, %jit__jax_attn_func_.4977, %jit__jax_attn_func_.5135, %jit__jax_attn_func_.5293, /*index=25*/%jit__jax_attn_func_.5451, %jit__jax_attn_func_.5609, %jit__jax_attn_func_.5767, %jit__jax_attn_func_.5925, %jit__jax_attn_func_.6083, /*index=30*/%jit__jax_attn_func_.6241, %jit__jax_attn_func_.6399, %jit__jax_attn_func_.6557, %jit__jax_attn_func_.6715, %jit__jax_attn_func_.6873, /*index=35*/%jit__jax_attn_func_.7031, %jit__jax_attn_func_.7189, %jit__jax_attn_func_.7347, %jit__jax_attn_func_.7505, %jit__jax_attn_func_.7663, /*index=40*/%jit__jax_attn_func_.7821, %jit__jax_attn_func_.7979, %jit__jax_attn_func_.8137, %jit__jax_attn_func_.8295, %jit__jax_attn_func_.8453, /*index=45*/%jit__jax_attn_func_.8611, %jit__jax_attn_func_.8769, %jit__jax_attn_func_.8927, %mul.8978)
}

