#loc = loc(unknown)
#loc1 = loc("params_and_buffers['vllm_model.language_model.model.embed_tokens.weight']")
#loc2 = loc("params_and_buffers['vllm_model.language_model.model.layers.0.input_layernorm.weight']")
#loc3 = loc("params_and_buffers['vllm_model.language_model.model.layers.0.mlp.experts.w13_weight']")
#loc4 = loc("params_and_buffers['vllm_model.language_model.model.layers.0.mlp.experts.w2_weight']")
#loc5 = loc("params_and_buffers['vllm_model.language_model.model.layers.0.mlp.gate.weight']")
#loc6 = loc("params_and_buffers['vllm_model.language_model.model.layers.0.post_attention_layernorm.weight']")
#loc7 = loc("params_and_buffers['vllm_model.language_model.model.layers.0.self_attn.k_norm.weight']")
#loc8 = loc("params_and_buffers['vllm_model.language_model.model.layers.0.self_attn.o_proj.weight']")
#loc9 = loc("params_and_buffers['vllm_model.language_model.model.layers.0.self_attn.q_norm.weight']")
#loc10 = loc("params_and_buffers['vllm_model.language_model.model.layers.0.self_attn.qkv_proj.weight']")
#loc11 = loc("params_and_buffers['vllm_model.language_model.model.layers.0.self_attn.rotary_emb.cos_sin_cache']")
#loc12 = loc("params_and_buffers['vllm_model.language_model.model.layers.1.input_layernorm.weight']")
#loc13 = loc("params_and_buffers['vllm_model.language_model.model.layers.1.mlp.experts.w13_weight']")
#loc14 = loc("params_and_buffers['vllm_model.language_model.model.layers.1.mlp.experts.w2_weight']")
#loc15 = loc("params_and_buffers['vllm_model.language_model.model.layers.1.mlp.gate.weight']")
#loc16 = loc("params_and_buffers['vllm_model.language_model.model.layers.1.post_attention_layernorm.weight']")
#loc17 = loc("params_and_buffers['vllm_model.language_model.model.layers.1.self_attn.k_norm.weight']")
#loc18 = loc("params_and_buffers['vllm_model.language_model.model.layers.1.self_attn.o_proj.weight']")
#loc19 = loc("params_and_buffers['vllm_model.language_model.model.layers.1.self_attn.q_norm.weight']")
#loc20 = loc("params_and_buffers['vllm_model.language_model.model.layers.1.self_attn.qkv_proj.weight']")
#loc21 = loc("params_and_buffers['vllm_model.language_model.model.layers.10.input_layernorm.weight']")
#loc22 = loc("params_and_buffers['vllm_model.language_model.model.layers.10.mlp.experts.w13_weight']")
#loc23 = loc("params_and_buffers['vllm_model.language_model.model.layers.10.mlp.experts.w2_weight']")
#loc24 = loc("params_and_buffers['vllm_model.language_model.model.layers.10.mlp.gate.weight']")
#loc25 = loc("params_and_buffers['vllm_model.language_model.model.layers.10.post_attention_layernorm.weight']")
#loc26 = loc("params_and_buffers['vllm_model.language_model.model.layers.10.self_attn.k_norm.weight']")
#loc27 = loc("params_and_buffers['vllm_model.language_model.model.layers.10.self_attn.o_proj.weight']")
#loc28 = loc("params_and_buffers['vllm_model.language_model.model.layers.10.self_attn.q_norm.weight']")
#loc29 = loc("params_and_buffers['vllm_model.language_model.model.layers.10.self_attn.qkv_proj.weight']")
#loc30 = loc("params_and_buffers['vllm_model.language_model.model.layers.11.input_layernorm.weight']")
#loc31 = loc("params_and_buffers['vllm_model.language_model.model.layers.11.mlp.experts.w13_weight']")
#loc32 = loc("params_and_buffers['vllm_model.language_model.model.layers.11.mlp.experts.w2_weight']")
#loc33 = loc("params_and_buffers['vllm_model.language_model.model.layers.11.mlp.gate.weight']")
#loc34 = loc("params_and_buffers['vllm_model.language_model.model.layers.11.post_attention_layernorm.weight']")
#loc35 = loc("params_and_buffers['vllm_model.language_model.model.layers.11.self_attn.k_norm.weight']")
#loc36 = loc("params_and_buffers['vllm_model.language_model.model.layers.11.self_attn.o_proj.weight']")
#loc37 = loc("params_and_buffers['vllm_model.language_model.model.layers.11.self_attn.q_norm.weight']")
#loc38 = loc("params_and_buffers['vllm_model.language_model.model.layers.11.self_attn.qkv_proj.weight']")
#loc39 = loc("params_and_buffers['vllm_model.language_model.model.layers.12.input_layernorm.weight']")
#loc40 = loc("params_and_buffers['vllm_model.language_model.model.layers.12.mlp.experts.w13_weight']")
#loc41 = loc("params_and_buffers['vllm_model.language_model.model.layers.12.mlp.experts.w2_weight']")
#loc42 = loc("params_and_buffers['vllm_model.language_model.model.layers.12.mlp.gate.weight']")
#loc43 = loc("params_and_buffers['vllm_model.language_model.model.layers.12.post_attention_layernorm.weight']")
#loc44 = loc("params_and_buffers['vllm_model.language_model.model.layers.12.self_attn.k_norm.weight']")
#loc45 = loc("params_and_buffers['vllm_model.language_model.model.layers.12.self_attn.o_proj.weight']")
#loc46 = loc("params_and_buffers['vllm_model.language_model.model.layers.12.self_attn.q_norm.weight']")
#loc47 = loc("params_and_buffers['vllm_model.language_model.model.layers.12.self_attn.qkv_proj.weight']")
#loc48 = loc("params_and_buffers['vllm_model.language_model.model.layers.13.input_layernorm.weight']")
#loc49 = loc("params_and_buffers['vllm_model.language_model.model.layers.13.mlp.experts.w13_weight']")
#loc50 = loc("params_and_buffers['vllm_model.language_model.model.layers.13.mlp.experts.w2_weight']")
#loc51 = loc("params_and_buffers['vllm_model.language_model.model.layers.13.mlp.gate.weight']")
#loc52 = loc("params_and_buffers['vllm_model.language_model.model.layers.13.post_attention_layernorm.weight']")
#loc53 = loc("params_and_buffers['vllm_model.language_model.model.layers.13.self_attn.k_norm.weight']")
#loc54 = loc("params_and_buffers['vllm_model.language_model.model.layers.13.self_attn.o_proj.weight']")
#loc55 = loc("params_and_buffers['vllm_model.language_model.model.layers.13.self_attn.q_norm.weight']")
#loc56 = loc("params_and_buffers['vllm_model.language_model.model.layers.13.self_attn.qkv_proj.weight']")
#loc57 = loc("params_and_buffers['vllm_model.language_model.model.layers.14.input_layernorm.weight']")
#loc58 = loc("params_and_buffers['vllm_model.language_model.model.layers.14.mlp.experts.w13_weight']")
#loc59 = loc("params_and_buffers['vllm_model.language_model.model.layers.14.mlp.experts.w2_weight']")
#loc60 = loc("params_and_buffers['vllm_model.language_model.model.layers.14.mlp.gate.weight']")
#loc61 = loc("params_and_buffers['vllm_model.language_model.model.layers.14.post_attention_layernorm.weight']")
#loc62 = loc("params_and_buffers['vllm_model.language_model.model.layers.14.self_attn.k_norm.weight']")
#loc63 = loc("params_and_buffers['vllm_model.language_model.model.layers.14.self_attn.o_proj.weight']")
#loc64 = loc("params_and_buffers['vllm_model.language_model.model.layers.14.self_attn.q_norm.weight']")
#loc65 = loc("params_and_buffers['vllm_model.language_model.model.layers.14.self_attn.qkv_proj.weight']")
#loc66 = loc("params_and_buffers['vllm_model.language_model.model.layers.15.input_layernorm.weight']")
#loc67 = loc("params_and_buffers['vllm_model.language_model.model.layers.15.mlp.experts.w13_weight']")
#loc68 = loc("params_and_buffers['vllm_model.language_model.model.layers.15.mlp.experts.w2_weight']")
#loc69 = loc("params_and_buffers['vllm_model.language_model.model.layers.15.mlp.gate.weight']")
#loc70 = loc("params_and_buffers['vllm_model.language_model.model.layers.15.post_attention_layernorm.weight']")
#loc71 = loc("params_and_buffers['vllm_model.language_model.model.layers.15.self_attn.k_norm.weight']")
#loc72 = loc("params_and_buffers['vllm_model.language_model.model.layers.15.self_attn.o_proj.weight']")
#loc73 = loc("params_and_buffers['vllm_model.language_model.model.layers.15.self_attn.q_norm.weight']")
#loc74 = loc("params_and_buffers['vllm_model.language_model.model.layers.15.self_attn.qkv_proj.weight']")
#loc75 = loc("params_and_buffers['vllm_model.language_model.model.layers.16.input_layernorm.weight']")
#loc76 = loc("params_and_buffers['vllm_model.language_model.model.layers.16.mlp.experts.w13_weight']")
#loc77 = loc("params_and_buffers['vllm_model.language_model.model.layers.16.mlp.experts.w2_weight']")
#loc78 = loc("params_and_buffers['vllm_model.language_model.model.layers.16.mlp.gate.weight']")
#loc79 = loc("params_and_buffers['vllm_model.language_model.model.layers.16.post_attention_layernorm.weight']")
#loc80 = loc("params_and_buffers['vllm_model.language_model.model.layers.16.self_attn.k_norm.weight']")
#loc81 = loc("params_and_buffers['vllm_model.language_model.model.layers.16.self_attn.o_proj.weight']")
#loc82 = loc("params_and_buffers['vllm_model.language_model.model.layers.16.self_attn.q_norm.weight']")
#loc83 = loc("params_and_buffers['vllm_model.language_model.model.layers.16.self_attn.qkv_proj.weight']")
#loc84 = loc("params_and_buffers['vllm_model.language_model.model.layers.17.input_layernorm.weight']")
#loc85 = loc("params_and_buffers['vllm_model.language_model.model.layers.17.mlp.experts.w13_weight']")
#loc86 = loc("params_and_buffers['vllm_model.language_model.model.layers.17.mlp.experts.w2_weight']")
#loc87 = loc("params_and_buffers['vllm_model.language_model.model.layers.17.mlp.gate.weight']")
#loc88 = loc("params_and_buffers['vllm_model.language_model.model.layers.17.post_attention_layernorm.weight']")
#loc89 = loc("params_and_buffers['vllm_model.language_model.model.layers.17.self_attn.k_norm.weight']")
#loc90 = loc("params_and_buffers['vllm_model.language_model.model.layers.17.self_attn.o_proj.weight']")
#loc91 = loc("params_and_buffers['vllm_model.language_model.model.layers.17.self_attn.q_norm.weight']")
#loc92 = loc("params_and_buffers['vllm_model.language_model.model.layers.17.self_attn.qkv_proj.weight']")
#loc93 = loc("params_and_buffers['vllm_model.language_model.model.layers.18.input_layernorm.weight']")
#loc94 = loc("params_and_buffers['vllm_model.language_model.model.layers.18.mlp.experts.w13_weight']")
#loc95 = loc("params_and_buffers['vllm_model.language_model.model.layers.18.mlp.experts.w2_weight']")
#loc96 = loc("params_and_buffers['vllm_model.language_model.model.layers.18.mlp.gate.weight']")
#loc97 = loc("params_and_buffers['vllm_model.language_model.model.layers.18.post_attention_layernorm.weight']")
#loc98 = loc("params_and_buffers['vllm_model.language_model.model.layers.18.self_attn.k_norm.weight']")
#loc99 = loc("params_and_buffers['vllm_model.language_model.model.layers.18.self_attn.o_proj.weight']")
#loc100 = loc("params_and_buffers['vllm_model.language_model.model.layers.18.self_attn.q_norm.weight']")
#loc101 = loc("params_and_buffers['vllm_model.language_model.model.layers.18.self_attn.qkv_proj.weight']")
#loc102 = loc("params_and_buffers['vllm_model.language_model.model.layers.19.input_layernorm.weight']")
#loc103 = loc("params_and_buffers['vllm_model.language_model.model.layers.19.mlp.experts.w13_weight']")
#loc104 = loc("params_and_buffers['vllm_model.language_model.model.layers.19.mlp.experts.w2_weight']")
#loc105 = loc("params_and_buffers['vllm_model.language_model.model.layers.19.mlp.gate.weight']")
#loc106 = loc("params_and_buffers['vllm_model.language_model.model.layers.19.post_attention_layernorm.weight']")
#loc107 = loc("params_and_buffers['vllm_model.language_model.model.layers.19.self_attn.k_norm.weight']")
#loc108 = loc("params_and_buffers['vllm_model.language_model.model.layers.19.self_attn.o_proj.weight']")
#loc109 = loc("params_and_buffers['vllm_model.language_model.model.layers.19.self_attn.q_norm.weight']")
#loc110 = loc("params_and_buffers['vllm_model.language_model.model.layers.19.self_attn.qkv_proj.weight']")
#loc111 = loc("params_and_buffers['vllm_model.language_model.model.layers.2.input_layernorm.weight']")
#loc112 = loc("params_and_buffers['vllm_model.language_model.model.layers.2.mlp.experts.w13_weight']")
#loc113 = loc("params_and_buffers['vllm_model.language_model.model.layers.2.mlp.experts.w2_weight']")
#loc114 = loc("params_and_buffers['vllm_model.language_model.model.layers.2.mlp.gate.weight']")
#loc115 = loc("params_and_buffers['vllm_model.language_model.model.layers.2.post_attention_layernorm.weight']")
#loc116 = loc("params_and_buffers['vllm_model.language_model.model.layers.2.self_attn.k_norm.weight']")
#loc117 = loc("params_and_buffers['vllm_model.language_model.model.layers.2.self_attn.o_proj.weight']")
#loc118 = loc("params_and_buffers['vllm_model.language_model.model.layers.2.self_attn.q_norm.weight']")
#loc119 = loc("params_and_buffers['vllm_model.language_model.model.layers.2.self_attn.qkv_proj.weight']")
#loc120 = loc("params_and_buffers['vllm_model.language_model.model.layers.20.input_layernorm.weight']")
#loc121 = loc("params_and_buffers['vllm_model.language_model.model.layers.20.mlp.experts.w13_weight']")
#loc122 = loc("params_and_buffers['vllm_model.language_model.model.layers.20.mlp.experts.w2_weight']")
#loc123 = loc("params_and_buffers['vllm_model.language_model.model.layers.20.mlp.gate.weight']")
#loc124 = loc("params_and_buffers['vllm_model.language_model.model.layers.20.post_attention_layernorm.weight']")
#loc125 = loc("params_and_buffers['vllm_model.language_model.model.layers.20.self_attn.k_norm.weight']")
#loc126 = loc("params_and_buffers['vllm_model.language_model.model.layers.20.self_attn.o_proj.weight']")
#loc127 = loc("params_and_buffers['vllm_model.language_model.model.layers.20.self_attn.q_norm.weight']")
#loc128 = loc("params_and_buffers['vllm_model.language_model.model.layers.20.self_attn.qkv_proj.weight']")
#loc129 = loc("params_and_buffers['vllm_model.language_model.model.layers.21.input_layernorm.weight']")
#loc130 = loc("params_and_buffers['vllm_model.language_model.model.layers.21.mlp.experts.w13_weight']")
#loc131 = loc("params_and_buffers['vllm_model.language_model.model.layers.21.mlp.experts.w2_weight']")
#loc132 = loc("params_and_buffers['vllm_model.language_model.model.layers.21.mlp.gate.weight']")
#loc133 = loc("params_and_buffers['vllm_model.language_model.model.layers.21.post_attention_layernorm.weight']")
#loc134 = loc("params_and_buffers['vllm_model.language_model.model.layers.21.self_attn.k_norm.weight']")
#loc135 = loc("params_and_buffers['vllm_model.language_model.model.layers.21.self_attn.o_proj.weight']")
#loc136 = loc("params_and_buffers['vllm_model.language_model.model.layers.21.self_attn.q_norm.weight']")
#loc137 = loc("params_and_buffers['vllm_model.language_model.model.layers.21.self_attn.qkv_proj.weight']")
#loc138 = loc("params_and_buffers['vllm_model.language_model.model.layers.22.input_layernorm.weight']")
#loc139 = loc("params_and_buffers['vllm_model.language_model.model.layers.22.mlp.experts.w13_weight']")
#loc140 = loc("params_and_buffers['vllm_model.language_model.model.layers.22.mlp.experts.w2_weight']")
#loc141 = loc("params_and_buffers['vllm_model.language_model.model.layers.22.mlp.gate.weight']")
#loc142 = loc("params_and_buffers['vllm_model.language_model.model.layers.22.post_attention_layernorm.weight']")
#loc143 = loc("params_and_buffers['vllm_model.language_model.model.layers.22.self_attn.k_norm.weight']")
#loc144 = loc("params_and_buffers['vllm_model.language_model.model.layers.22.self_attn.o_proj.weight']")
#loc145 = loc("params_and_buffers['vllm_model.language_model.model.layers.22.self_attn.q_norm.weight']")
#loc146 = loc("params_and_buffers['vllm_model.language_model.model.layers.22.self_attn.qkv_proj.weight']")
#loc147 = loc("params_and_buffers['vllm_model.language_model.model.layers.23.input_layernorm.weight']")
#loc148 = loc("params_and_buffers['vllm_model.language_model.model.layers.23.mlp.experts.w13_weight']")
#loc149 = loc("params_and_buffers['vllm_model.language_model.model.layers.23.mlp.experts.w2_weight']")
#loc150 = loc("params_and_buffers['vllm_model.language_model.model.layers.23.mlp.gate.weight']")
#loc151 = loc("params_and_buffers['vllm_model.language_model.model.layers.23.post_attention_layernorm.weight']")
#loc152 = loc("params_and_buffers['vllm_model.language_model.model.layers.23.self_attn.k_norm.weight']")
#loc153 = loc("params_and_buffers['vllm_model.language_model.model.layers.23.self_attn.o_proj.weight']")
#loc154 = loc("params_and_buffers['vllm_model.language_model.model.layers.23.self_attn.q_norm.weight']")
#loc155 = loc("params_and_buffers['vllm_model.language_model.model.layers.23.self_attn.qkv_proj.weight']")
#loc156 = loc("params_and_buffers['vllm_model.language_model.model.layers.24.input_layernorm.weight']")
#loc157 = loc("params_and_buffers['vllm_model.language_model.model.layers.24.mlp.experts.w13_weight']")
#loc158 = loc("params_and_buffers['vllm_model.language_model.model.layers.24.mlp.experts.w2_weight']")
#loc159 = loc("params_and_buffers['vllm_model.language_model.model.layers.24.mlp.gate.weight']")
#loc160 = loc("params_and_buffers['vllm_model.language_model.model.layers.24.post_attention_layernorm.weight']")
#loc161 = loc("params_and_buffers['vllm_model.language_model.model.layers.24.self_attn.k_norm.weight']")
#loc162 = loc("params_and_buffers['vllm_model.language_model.model.layers.24.self_attn.o_proj.weight']")
#loc163 = loc("params_and_buffers['vllm_model.language_model.model.layers.24.self_attn.q_norm.weight']")
#loc164 = loc("params_and_buffers['vllm_model.language_model.model.layers.24.self_attn.qkv_proj.weight']")
#loc165 = loc("params_and_buffers['vllm_model.language_model.model.layers.25.input_layernorm.weight']")
#loc166 = loc("params_and_buffers['vllm_model.language_model.model.layers.25.mlp.experts.w13_weight']")
#loc167 = loc("params_and_buffers['vllm_model.language_model.model.layers.25.mlp.experts.w2_weight']")
#loc168 = loc("params_and_buffers['vllm_model.language_model.model.layers.25.mlp.gate.weight']")
#loc169 = loc("params_and_buffers['vllm_model.language_model.model.layers.25.post_attention_layernorm.weight']")
#loc170 = loc("params_and_buffers['vllm_model.language_model.model.layers.25.self_attn.k_norm.weight']")
#loc171 = loc("params_and_buffers['vllm_model.language_model.model.layers.25.self_attn.o_proj.weight']")
#loc172 = loc("params_and_buffers['vllm_model.language_model.model.layers.25.self_attn.q_norm.weight']")
#loc173 = loc("params_and_buffers['vllm_model.language_model.model.layers.25.self_attn.qkv_proj.weight']")
#loc174 = loc("params_and_buffers['vllm_model.language_model.model.layers.26.input_layernorm.weight']")
#loc175 = loc("params_and_buffers['vllm_model.language_model.model.layers.26.mlp.experts.w13_weight']")
#loc176 = loc("params_and_buffers['vllm_model.language_model.model.layers.26.mlp.experts.w2_weight']")
#loc177 = loc("params_and_buffers['vllm_model.language_model.model.layers.26.mlp.gate.weight']")
#loc178 = loc("params_and_buffers['vllm_model.language_model.model.layers.26.post_attention_layernorm.weight']")
#loc179 = loc("params_and_buffers['vllm_model.language_model.model.layers.26.self_attn.k_norm.weight']")
#loc180 = loc("params_and_buffers['vllm_model.language_model.model.layers.26.self_attn.o_proj.weight']")
#loc181 = loc("params_and_buffers['vllm_model.language_model.model.layers.26.self_attn.q_norm.weight']")
#loc182 = loc("params_and_buffers['vllm_model.language_model.model.layers.26.self_attn.qkv_proj.weight']")
#loc183 = loc("params_and_buffers['vllm_model.language_model.model.layers.27.input_layernorm.weight']")
#loc184 = loc("params_and_buffers['vllm_model.language_model.model.layers.27.mlp.experts.w13_weight']")
#loc185 = loc("params_and_buffers['vllm_model.language_model.model.layers.27.mlp.experts.w2_weight']")
#loc186 = loc("params_and_buffers['vllm_model.language_model.model.layers.27.mlp.gate.weight']")
#loc187 = loc("params_and_buffers['vllm_model.language_model.model.layers.27.post_attention_layernorm.weight']")
#loc188 = loc("params_and_buffers['vllm_model.language_model.model.layers.27.self_attn.k_norm.weight']")
#loc189 = loc("params_and_buffers['vllm_model.language_model.model.layers.27.self_attn.o_proj.weight']")
#loc190 = loc("params_and_buffers['vllm_model.language_model.model.layers.27.self_attn.q_norm.weight']")
#loc191 = loc("params_and_buffers['vllm_model.language_model.model.layers.27.self_attn.qkv_proj.weight']")
#loc192 = loc("params_and_buffers['vllm_model.language_model.model.layers.28.input_layernorm.weight']")
#loc193 = loc("params_and_buffers['vllm_model.language_model.model.layers.28.mlp.experts.w13_weight']")
#loc194 = loc("params_and_buffers['vllm_model.language_model.model.layers.28.mlp.experts.w2_weight']")
#loc195 = loc("params_and_buffers['vllm_model.language_model.model.layers.28.mlp.gate.weight']")
#loc196 = loc("params_and_buffers['vllm_model.language_model.model.layers.28.post_attention_layernorm.weight']")
#loc197 = loc("params_and_buffers['vllm_model.language_model.model.layers.28.self_attn.k_norm.weight']")
#loc198 = loc("params_and_buffers['vllm_model.language_model.model.layers.28.self_attn.o_proj.weight']")
#loc199 = loc("params_and_buffers['vllm_model.language_model.model.layers.28.self_attn.q_norm.weight']")
#loc200 = loc("params_and_buffers['vllm_model.language_model.model.layers.28.self_attn.qkv_proj.weight']")
#loc201 = loc("params_and_buffers['vllm_model.language_model.model.layers.29.input_layernorm.weight']")
#loc202 = loc("params_and_buffers['vllm_model.language_model.model.layers.29.mlp.experts.w13_weight']")
#loc203 = loc("params_and_buffers['vllm_model.language_model.model.layers.29.mlp.experts.w2_weight']")
#loc204 = loc("params_and_buffers['vllm_model.language_model.model.layers.29.mlp.gate.weight']")
#loc205 = loc("params_and_buffers['vllm_model.language_model.model.layers.29.post_attention_layernorm.weight']")
#loc206 = loc("params_and_buffers['vllm_model.language_model.model.layers.29.self_attn.k_norm.weight']")
#loc207 = loc("params_and_buffers['vllm_model.language_model.model.layers.29.self_attn.o_proj.weight']")
#loc208 = loc("params_and_buffers['vllm_model.language_model.model.layers.29.self_attn.q_norm.weight']")
#loc209 = loc("params_and_buffers['vllm_model.language_model.model.layers.29.self_attn.qkv_proj.weight']")
#loc210 = loc("params_and_buffers['vllm_model.language_model.model.layers.3.input_layernorm.weight']")
#loc211 = loc("params_and_buffers['vllm_model.language_model.model.layers.3.mlp.experts.w13_weight']")
#loc212 = loc("params_and_buffers['vllm_model.language_model.model.layers.3.mlp.experts.w2_weight']")
#loc213 = loc("params_and_buffers['vllm_model.language_model.model.layers.3.mlp.gate.weight']")
#loc214 = loc("params_and_buffers['vllm_model.language_model.model.layers.3.post_attention_layernorm.weight']")
#loc215 = loc("params_and_buffers['vllm_model.language_model.model.layers.3.self_attn.k_norm.weight']")
#loc216 = loc("params_and_buffers['vllm_model.language_model.model.layers.3.self_attn.o_proj.weight']")
#loc217 = loc("params_and_buffers['vllm_model.language_model.model.layers.3.self_attn.q_norm.weight']")
#loc218 = loc("params_and_buffers['vllm_model.language_model.model.layers.3.self_attn.qkv_proj.weight']")
#loc219 = loc("params_and_buffers['vllm_model.language_model.model.layers.30.input_layernorm.weight']")
#loc220 = loc("params_and_buffers['vllm_model.language_model.model.layers.30.mlp.experts.w13_weight']")
#loc221 = loc("params_and_buffers['vllm_model.language_model.model.layers.30.mlp.experts.w2_weight']")
#loc222 = loc("params_and_buffers['vllm_model.language_model.model.layers.30.mlp.gate.weight']")
#loc223 = loc("params_and_buffers['vllm_model.language_model.model.layers.30.post_attention_layernorm.weight']")
#loc224 = loc("params_and_buffers['vllm_model.language_model.model.layers.30.self_attn.k_norm.weight']")
#loc225 = loc("params_and_buffers['vllm_model.language_model.model.layers.30.self_attn.o_proj.weight']")
#loc226 = loc("params_and_buffers['vllm_model.language_model.model.layers.30.self_attn.q_norm.weight']")
#loc227 = loc("params_and_buffers['vllm_model.language_model.model.layers.30.self_attn.qkv_proj.weight']")
#loc228 = loc("params_and_buffers['vllm_model.language_model.model.layers.31.input_layernorm.weight']")
#loc229 = loc("params_and_buffers['vllm_model.language_model.model.layers.31.mlp.experts.w13_weight']")
#loc230 = loc("params_and_buffers['vllm_model.language_model.model.layers.31.mlp.experts.w2_weight']")
#loc231 = loc("params_and_buffers['vllm_model.language_model.model.layers.31.mlp.gate.weight']")
#loc232 = loc("params_and_buffers['vllm_model.language_model.model.layers.31.post_attention_layernorm.weight']")
#loc233 = loc("params_and_buffers['vllm_model.language_model.model.layers.31.self_attn.k_norm.weight']")
#loc234 = loc("params_and_buffers['vllm_model.language_model.model.layers.31.self_attn.o_proj.weight']")
#loc235 = loc("params_and_buffers['vllm_model.language_model.model.layers.31.self_attn.q_norm.weight']")
#loc236 = loc("params_and_buffers['vllm_model.language_model.model.layers.31.self_attn.qkv_proj.weight']")
#loc237 = loc("params_and_buffers['vllm_model.language_model.model.layers.32.input_layernorm.weight']")
#loc238 = loc("params_and_buffers['vllm_model.language_model.model.layers.32.mlp.experts.w13_weight']")
#loc239 = loc("params_and_buffers['vllm_model.language_model.model.layers.32.mlp.experts.w2_weight']")
#loc240 = loc("params_and_buffers['vllm_model.language_model.model.layers.32.mlp.gate.weight']")
#loc241 = loc("params_and_buffers['vllm_model.language_model.model.layers.32.post_attention_layernorm.weight']")
#loc242 = loc("params_and_buffers['vllm_model.language_model.model.layers.32.self_attn.k_norm.weight']")
#loc243 = loc("params_and_buffers['vllm_model.language_model.model.layers.32.self_attn.o_proj.weight']")
#loc244 = loc("params_and_buffers['vllm_model.language_model.model.layers.32.self_attn.q_norm.weight']")
#loc245 = loc("params_and_buffers['vllm_model.language_model.model.layers.32.self_attn.qkv_proj.weight']")
#loc246 = loc("params_and_buffers['vllm_model.language_model.model.layers.33.input_layernorm.weight']")
#loc247 = loc("params_and_buffers['vllm_model.language_model.model.layers.33.mlp.experts.w13_weight']")
#loc248 = loc("params_and_buffers['vllm_model.language_model.model.layers.33.mlp.experts.w2_weight']")
#loc249 = loc("params_and_buffers['vllm_model.language_model.model.layers.33.mlp.gate.weight']")
#loc250 = loc("params_and_buffers['vllm_model.language_model.model.layers.33.post_attention_layernorm.weight']")
#loc251 = loc("params_and_buffers['vllm_model.language_model.model.layers.33.self_attn.k_norm.weight']")
#loc252 = loc("params_and_buffers['vllm_model.language_model.model.layers.33.self_attn.o_proj.weight']")
#loc253 = loc("params_and_buffers['vllm_model.language_model.model.layers.33.self_attn.q_norm.weight']")
#loc254 = loc("params_and_buffers['vllm_model.language_model.model.layers.33.self_attn.qkv_proj.weight']")
#loc255 = loc("params_and_buffers['vllm_model.language_model.model.layers.34.input_layernorm.weight']")
#loc256 = loc("params_and_buffers['vllm_model.language_model.model.layers.34.mlp.experts.w13_weight']")
#loc257 = loc("params_and_buffers['vllm_model.language_model.model.layers.34.mlp.experts.w2_weight']")
#loc258 = loc("params_and_buffers['vllm_model.language_model.model.layers.34.mlp.gate.weight']")
#loc259 = loc("params_and_buffers['vllm_model.language_model.model.layers.34.post_attention_layernorm.weight']")
#loc260 = loc("params_and_buffers['vllm_model.language_model.model.layers.34.self_attn.k_norm.weight']")
#loc261 = loc("params_and_buffers['vllm_model.language_model.model.layers.34.self_attn.o_proj.weight']")
#loc262 = loc("params_and_buffers['vllm_model.language_model.model.layers.34.self_attn.q_norm.weight']")
#loc263 = loc("params_and_buffers['vllm_model.language_model.model.layers.34.self_attn.qkv_proj.weight']")
#loc264 = loc("params_and_buffers['vllm_model.language_model.model.layers.35.input_layernorm.weight']")
#loc265 = loc("params_and_buffers['vllm_model.language_model.model.layers.35.mlp.experts.w13_weight']")
#loc266 = loc("params_and_buffers['vllm_model.language_model.model.layers.35.mlp.experts.w2_weight']")
#loc267 = loc("params_and_buffers['vllm_model.language_model.model.layers.35.mlp.gate.weight']")
#loc268 = loc("params_and_buffers['vllm_model.language_model.model.layers.35.post_attention_layernorm.weight']")
#loc269 = loc("params_and_buffers['vllm_model.language_model.model.layers.35.self_attn.k_norm.weight']")
#loc270 = loc("params_and_buffers['vllm_model.language_model.model.layers.35.self_attn.o_proj.weight']")
#loc271 = loc("params_and_buffers['vllm_model.language_model.model.layers.35.self_attn.q_norm.weight']")
#loc272 = loc("params_and_buffers['vllm_model.language_model.model.layers.35.self_attn.qkv_proj.weight']")
#loc273 = loc("params_and_buffers['vllm_model.language_model.model.layers.36.input_layernorm.weight']")
#loc274 = loc("params_and_buffers['vllm_model.language_model.model.layers.36.mlp.experts.w13_weight']")
#loc275 = loc("params_and_buffers['vllm_model.language_model.model.layers.36.mlp.experts.w2_weight']")
#loc276 = loc("params_and_buffers['vllm_model.language_model.model.layers.36.mlp.gate.weight']")
#loc277 = loc("params_and_buffers['vllm_model.language_model.model.layers.36.post_attention_layernorm.weight']")
#loc278 = loc("params_and_buffers['vllm_model.language_model.model.layers.36.self_attn.k_norm.weight']")
#loc279 = loc("params_and_buffers['vllm_model.language_model.model.layers.36.self_attn.o_proj.weight']")
#loc280 = loc("params_and_buffers['vllm_model.language_model.model.layers.36.self_attn.q_norm.weight']")
#loc281 = loc("params_and_buffers['vllm_model.language_model.model.layers.36.self_attn.qkv_proj.weight']")
#loc282 = loc("params_and_buffers['vllm_model.language_model.model.layers.37.input_layernorm.weight']")
#loc283 = loc("params_and_buffers['vllm_model.language_model.model.layers.37.mlp.experts.w13_weight']")
#loc284 = loc("params_and_buffers['vllm_model.language_model.model.layers.37.mlp.experts.w2_weight']")
#loc285 = loc("params_and_buffers['vllm_model.language_model.model.layers.37.mlp.gate.weight']")
#loc286 = loc("params_and_buffers['vllm_model.language_model.model.layers.37.post_attention_layernorm.weight']")
#loc287 = loc("params_and_buffers['vllm_model.language_model.model.layers.37.self_attn.k_norm.weight']")
#loc288 = loc("params_and_buffers['vllm_model.language_model.model.layers.37.self_attn.o_proj.weight']")
#loc289 = loc("params_and_buffers['vllm_model.language_model.model.layers.37.self_attn.q_norm.weight']")
#loc290 = loc("params_and_buffers['vllm_model.language_model.model.layers.37.self_attn.qkv_proj.weight']")
#loc291 = loc("params_and_buffers['vllm_model.language_model.model.layers.38.input_layernorm.weight']")
#loc292 = loc("params_and_buffers['vllm_model.language_model.model.layers.38.mlp.experts.w13_weight']")
#loc293 = loc("params_and_buffers['vllm_model.language_model.model.layers.38.mlp.experts.w2_weight']")
#loc294 = loc("params_and_buffers['vllm_model.language_model.model.layers.38.mlp.gate.weight']")
#loc295 = loc("params_and_buffers['vllm_model.language_model.model.layers.38.post_attention_layernorm.weight']")
#loc296 = loc("params_and_buffers['vllm_model.language_model.model.layers.38.self_attn.k_norm.weight']")
#loc297 = loc("params_and_buffers['vllm_model.language_model.model.layers.38.self_attn.o_proj.weight']")
#loc298 = loc("params_and_buffers['vllm_model.language_model.model.layers.38.self_attn.q_norm.weight']")
#loc299 = loc("params_and_buffers['vllm_model.language_model.model.layers.38.self_attn.qkv_proj.weight']")
#loc300 = loc("params_and_buffers['vllm_model.language_model.model.layers.39.input_layernorm.weight']")
#loc301 = loc("params_and_buffers['vllm_model.language_model.model.layers.39.mlp.experts.w13_weight']")
#loc302 = loc("params_and_buffers['vllm_model.language_model.model.layers.39.mlp.experts.w2_weight']")
#loc303 = loc("params_and_buffers['vllm_model.language_model.model.layers.39.mlp.gate.weight']")
#loc304 = loc("params_and_buffers['vllm_model.language_model.model.layers.39.post_attention_layernorm.weight']")
#loc305 = loc("params_and_buffers['vllm_model.language_model.model.layers.39.self_attn.k_norm.weight']")
#loc306 = loc("params_and_buffers['vllm_model.language_model.model.layers.39.self_attn.o_proj.weight']")
#loc307 = loc("params_and_buffers['vllm_model.language_model.model.layers.39.self_attn.q_norm.weight']")
#loc308 = loc("params_and_buffers['vllm_model.language_model.model.layers.39.self_attn.qkv_proj.weight']")
#loc309 = loc("params_and_buffers['vllm_model.language_model.model.layers.4.input_layernorm.weight']")
#loc310 = loc("params_and_buffers['vllm_model.language_model.model.layers.4.mlp.experts.w13_weight']")
#loc311 = loc("params_and_buffers['vllm_model.language_model.model.layers.4.mlp.experts.w2_weight']")
#loc312 = loc("params_and_buffers['vllm_model.language_model.model.layers.4.mlp.gate.weight']")
#loc313 = loc("params_and_buffers['vllm_model.language_model.model.layers.4.post_attention_layernorm.weight']")
#loc314 = loc("params_and_buffers['vllm_model.language_model.model.layers.4.self_attn.k_norm.weight']")
#loc315 = loc("params_and_buffers['vllm_model.language_model.model.layers.4.self_attn.o_proj.weight']")
#loc316 = loc("params_and_buffers['vllm_model.language_model.model.layers.4.self_attn.q_norm.weight']")
#loc317 = loc("params_and_buffers['vllm_model.language_model.model.layers.4.self_attn.qkv_proj.weight']")
#loc318 = loc("params_and_buffers['vllm_model.language_model.model.layers.40.input_layernorm.weight']")
#loc319 = loc("params_and_buffers['vllm_model.language_model.model.layers.40.mlp.experts.w13_weight']")
#loc320 = loc("params_and_buffers['vllm_model.language_model.model.layers.40.mlp.experts.w2_weight']")
#loc321 = loc("params_and_buffers['vllm_model.language_model.model.layers.40.mlp.gate.weight']")
#loc322 = loc("params_and_buffers['vllm_model.language_model.model.layers.40.post_attention_layernorm.weight']")
#loc323 = loc("params_and_buffers['vllm_model.language_model.model.layers.40.self_attn.k_norm.weight']")
#loc324 = loc("params_and_buffers['vllm_model.language_model.model.layers.40.self_attn.o_proj.weight']")
#loc325 = loc("params_and_buffers['vllm_model.language_model.model.layers.40.self_attn.q_norm.weight']")
#loc326 = loc("params_and_buffers['vllm_model.language_model.model.layers.40.self_attn.qkv_proj.weight']")
#loc327 = loc("params_and_buffers['vllm_model.language_model.model.layers.41.input_layernorm.weight']")
#loc328 = loc("params_and_buffers['vllm_model.language_model.model.layers.41.mlp.experts.w13_weight']")
#loc329 = loc("params_and_buffers['vllm_model.language_model.model.layers.41.mlp.experts.w2_weight']")
#loc330 = loc("params_and_buffers['vllm_model.language_model.model.layers.41.mlp.gate.weight']")
#loc331 = loc("params_and_buffers['vllm_model.language_model.model.layers.41.post_attention_layernorm.weight']")
#loc332 = loc("params_and_buffers['vllm_model.language_model.model.layers.41.self_attn.k_norm.weight']")
#loc333 = loc("params_and_buffers['vllm_model.language_model.model.layers.41.self_attn.o_proj.weight']")
#loc334 = loc("params_and_buffers['vllm_model.language_model.model.layers.41.self_attn.q_norm.weight']")
#loc335 = loc("params_and_buffers['vllm_model.language_model.model.layers.41.self_attn.qkv_proj.weight']")
#loc336 = loc("params_and_buffers['vllm_model.language_model.model.layers.42.input_layernorm.weight']")
#loc337 = loc("params_and_buffers['vllm_model.language_model.model.layers.42.mlp.experts.w13_weight']")
#loc338 = loc("params_and_buffers['vllm_model.language_model.model.layers.42.mlp.experts.w2_weight']")
#loc339 = loc("params_and_buffers['vllm_model.language_model.model.layers.42.mlp.gate.weight']")
#loc340 = loc("params_and_buffers['vllm_model.language_model.model.layers.42.post_attention_layernorm.weight']")
#loc341 = loc("params_and_buffers['vllm_model.language_model.model.layers.42.self_attn.k_norm.weight']")
#loc342 = loc("params_and_buffers['vllm_model.language_model.model.layers.42.self_attn.o_proj.weight']")
#loc343 = loc("params_and_buffers['vllm_model.language_model.model.layers.42.self_attn.q_norm.weight']")
#loc344 = loc("params_and_buffers['vllm_model.language_model.model.layers.42.self_attn.qkv_proj.weight']")
#loc345 = loc("params_and_buffers['vllm_model.language_model.model.layers.43.input_layernorm.weight']")
#loc346 = loc("params_and_buffers['vllm_model.language_model.model.layers.43.mlp.experts.w13_weight']")
#loc347 = loc("params_and_buffers['vllm_model.language_model.model.layers.43.mlp.experts.w2_weight']")
#loc348 = loc("params_and_buffers['vllm_model.language_model.model.layers.43.mlp.gate.weight']")
#loc349 = loc("params_and_buffers['vllm_model.language_model.model.layers.43.post_attention_layernorm.weight']")
#loc350 = loc("params_and_buffers['vllm_model.language_model.model.layers.43.self_attn.k_norm.weight']")
#loc351 = loc("params_and_buffers['vllm_model.language_model.model.layers.43.self_attn.o_proj.weight']")
#loc352 = loc("params_and_buffers['vllm_model.language_model.model.layers.43.self_attn.q_norm.weight']")
#loc353 = loc("params_and_buffers['vllm_model.language_model.model.layers.43.self_attn.qkv_proj.weight']")
#loc354 = loc("params_and_buffers['vllm_model.language_model.model.layers.44.input_layernorm.weight']")
#loc355 = loc("params_and_buffers['vllm_model.language_model.model.layers.44.mlp.experts.w13_weight']")
#loc356 = loc("params_and_buffers['vllm_model.language_model.model.layers.44.mlp.experts.w2_weight']")
#loc357 = loc("params_and_buffers['vllm_model.language_model.model.layers.44.mlp.gate.weight']")
#loc358 = loc("params_and_buffers['vllm_model.language_model.model.layers.44.post_attention_layernorm.weight']")
#loc359 = loc("params_and_buffers['vllm_model.language_model.model.layers.44.self_attn.k_norm.weight']")
#loc360 = loc("params_and_buffers['vllm_model.language_model.model.layers.44.self_attn.o_proj.weight']")
#loc361 = loc("params_and_buffers['vllm_model.language_model.model.layers.44.self_attn.q_norm.weight']")
#loc362 = loc("params_and_buffers['vllm_model.language_model.model.layers.44.self_attn.qkv_proj.weight']")
#loc363 = loc("params_and_buffers['vllm_model.language_model.model.layers.45.input_layernorm.weight']")
#loc364 = loc("params_and_buffers['vllm_model.language_model.model.layers.45.mlp.experts.w13_weight']")
#loc365 = loc("params_and_buffers['vllm_model.language_model.model.layers.45.mlp.experts.w2_weight']")
#loc366 = loc("params_and_buffers['vllm_model.language_model.model.layers.45.mlp.gate.weight']")
#loc367 = loc("params_and_buffers['vllm_model.language_model.model.layers.45.post_attention_layernorm.weight']")
#loc368 = loc("params_and_buffers['vllm_model.language_model.model.layers.45.self_attn.k_norm.weight']")
#loc369 = loc("params_and_buffers['vllm_model.language_model.model.layers.45.self_attn.o_proj.weight']")
#loc370 = loc("params_and_buffers['vllm_model.language_model.model.layers.45.self_attn.q_norm.weight']")
#loc371 = loc("params_and_buffers['vllm_model.language_model.model.layers.45.self_attn.qkv_proj.weight']")
#loc372 = loc("params_and_buffers['vllm_model.language_model.model.layers.46.input_layernorm.weight']")
#loc373 = loc("params_and_buffers['vllm_model.language_model.model.layers.46.mlp.experts.w13_weight']")
#loc374 = loc("params_and_buffers['vllm_model.language_model.model.layers.46.mlp.experts.w2_weight']")
#loc375 = loc("params_and_buffers['vllm_model.language_model.model.layers.46.mlp.gate.weight']")
#loc376 = loc("params_and_buffers['vllm_model.language_model.model.layers.46.post_attention_layernorm.weight']")
#loc377 = loc("params_and_buffers['vllm_model.language_model.model.layers.46.self_attn.k_norm.weight']")
#loc378 = loc("params_and_buffers['vllm_model.language_model.model.layers.46.self_attn.o_proj.weight']")
#loc379 = loc("params_and_buffers['vllm_model.language_model.model.layers.46.self_attn.q_norm.weight']")
#loc380 = loc("params_and_buffers['vllm_model.language_model.model.layers.46.self_attn.qkv_proj.weight']")
#loc381 = loc("params_and_buffers['vllm_model.language_model.model.layers.47.input_layernorm.weight']")
#loc382 = loc("params_and_buffers['vllm_model.language_model.model.layers.47.mlp.experts.w13_weight']")
#loc383 = loc("params_and_buffers['vllm_model.language_model.model.layers.47.mlp.experts.w2_weight']")
#loc384 = loc("params_and_buffers['vllm_model.language_model.model.layers.47.mlp.gate.weight']")
#loc385 = loc("params_and_buffers['vllm_model.language_model.model.layers.47.post_attention_layernorm.weight']")
#loc386 = loc("params_and_buffers['vllm_model.language_model.model.layers.47.self_attn.k_norm.weight']")
#loc387 = loc("params_and_buffers['vllm_model.language_model.model.layers.47.self_attn.o_proj.weight']")
#loc388 = loc("params_and_buffers['vllm_model.language_model.model.layers.47.self_attn.q_norm.weight']")
#loc389 = loc("params_and_buffers['vllm_model.language_model.model.layers.47.self_attn.qkv_proj.weight']")
#loc390 = loc("params_and_buffers['vllm_model.language_model.model.layers.5.input_layernorm.weight']")
#loc391 = loc("params_and_buffers['vllm_model.language_model.model.layers.5.mlp.experts.w13_weight']")
#loc392 = loc("params_and_buffers['vllm_model.language_model.model.layers.5.mlp.experts.w2_weight']")
#loc393 = loc("params_and_buffers['vllm_model.language_model.model.layers.5.mlp.gate.weight']")
#loc394 = loc("params_and_buffers['vllm_model.language_model.model.layers.5.post_attention_layernorm.weight']")
#loc395 = loc("params_and_buffers['vllm_model.language_model.model.layers.5.self_attn.k_norm.weight']")
#loc396 = loc("params_and_buffers['vllm_model.language_model.model.layers.5.self_attn.o_proj.weight']")
#loc397 = loc("params_and_buffers['vllm_model.language_model.model.layers.5.self_attn.q_norm.weight']")
#loc398 = loc("params_and_buffers['vllm_model.language_model.model.layers.5.self_attn.qkv_proj.weight']")
#loc399 = loc("params_and_buffers['vllm_model.language_model.model.layers.6.input_layernorm.weight']")
#loc400 = loc("params_and_buffers['vllm_model.language_model.model.layers.6.mlp.experts.w13_weight']")
#loc401 = loc("params_and_buffers['vllm_model.language_model.model.layers.6.mlp.experts.w2_weight']")
#loc402 = loc("params_and_buffers['vllm_model.language_model.model.layers.6.mlp.gate.weight']")
#loc403 = loc("params_and_buffers['vllm_model.language_model.model.layers.6.post_attention_layernorm.weight']")
#loc404 = loc("params_and_buffers['vllm_model.language_model.model.layers.6.self_attn.k_norm.weight']")
#loc405 = loc("params_and_buffers['vllm_model.language_model.model.layers.6.self_attn.o_proj.weight']")
#loc406 = loc("params_and_buffers['vllm_model.language_model.model.layers.6.self_attn.q_norm.weight']")
#loc407 = loc("params_and_buffers['vllm_model.language_model.model.layers.6.self_attn.qkv_proj.weight']")
#loc408 = loc("params_and_buffers['vllm_model.language_model.model.layers.7.input_layernorm.weight']")
#loc409 = loc("params_and_buffers['vllm_model.language_model.model.layers.7.mlp.experts.w13_weight']")
#loc410 = loc("params_and_buffers['vllm_model.language_model.model.layers.7.mlp.experts.w2_weight']")
#loc411 = loc("params_and_buffers['vllm_model.language_model.model.layers.7.mlp.gate.weight']")
#loc412 = loc("params_and_buffers['vllm_model.language_model.model.layers.7.post_attention_layernorm.weight']")
#loc413 = loc("params_and_buffers['vllm_model.language_model.model.layers.7.self_attn.k_norm.weight']")
#loc414 = loc("params_and_buffers['vllm_model.language_model.model.layers.7.self_attn.o_proj.weight']")
#loc415 = loc("params_and_buffers['vllm_model.language_model.model.layers.7.self_attn.q_norm.weight']")
#loc416 = loc("params_and_buffers['vllm_model.language_model.model.layers.7.self_attn.qkv_proj.weight']")
#loc417 = loc("params_and_buffers['vllm_model.language_model.model.layers.8.input_layernorm.weight']")
#loc418 = loc("params_and_buffers['vllm_model.language_model.model.layers.8.mlp.experts.w13_weight']")
#loc419 = loc("params_and_buffers['vllm_model.language_model.model.layers.8.mlp.experts.w2_weight']")
#loc420 = loc("params_and_buffers['vllm_model.language_model.model.layers.8.mlp.gate.weight']")
#loc421 = loc("params_and_buffers['vllm_model.language_model.model.layers.8.post_attention_layernorm.weight']")
#loc422 = loc("params_and_buffers['vllm_model.language_model.model.layers.8.self_attn.k_norm.weight']")
#loc423 = loc("params_and_buffers['vllm_model.language_model.model.layers.8.self_attn.o_proj.weight']")
#loc424 = loc("params_and_buffers['vllm_model.language_model.model.layers.8.self_attn.q_norm.weight']")
#loc425 = loc("params_and_buffers['vllm_model.language_model.model.layers.8.self_attn.qkv_proj.weight']")
#loc426 = loc("params_and_buffers['vllm_model.language_model.model.layers.9.input_layernorm.weight']")
#loc427 = loc("params_and_buffers['vllm_model.language_model.model.layers.9.mlp.experts.w13_weight']")
#loc428 = loc("params_and_buffers['vllm_model.language_model.model.layers.9.mlp.experts.w2_weight']")
#loc429 = loc("params_and_buffers['vllm_model.language_model.model.layers.9.mlp.gate.weight']")
#loc430 = loc("params_and_buffers['vllm_model.language_model.model.layers.9.post_attention_layernorm.weight']")
#loc431 = loc("params_and_buffers['vllm_model.language_model.model.layers.9.self_attn.k_norm.weight']")
#loc432 = loc("params_and_buffers['vllm_model.language_model.model.layers.9.self_attn.o_proj.weight']")
#loc433 = loc("params_and_buffers['vllm_model.language_model.model.layers.9.self_attn.q_norm.weight']")
#loc434 = loc("params_and_buffers['vllm_model.language_model.model.layers.9.self_attn.qkv_proj.weight']")
#loc435 = loc("params_and_buffers['vllm_model.language_model.model.norm.weight']")
#loc436 = loc("kv_caches[0]")
#loc437 = loc("kv_caches[1]")
#loc438 = loc("kv_caches[2]")
#loc439 = loc("kv_caches[3]")
#loc440 = loc("kv_caches[4]")
#loc441 = loc("kv_caches[5]")
#loc442 = loc("kv_caches[6]")
#loc443 = loc("kv_caches[7]")
#loc444 = loc("kv_caches[8]")
#loc445 = loc("kv_caches[9]")
#loc446 = loc("kv_caches[10]")
#loc447 = loc("kv_caches[11]")
#loc448 = loc("kv_caches[12]")
#loc449 = loc("kv_caches[13]")
#loc450 = loc("kv_caches[14]")
#loc451 = loc("kv_caches[15]")
#loc452 = loc("kv_caches[16]")
#loc453 = loc("kv_caches[17]")
#loc454 = loc("kv_caches[18]")
#loc455 = loc("kv_caches[19]")
#loc456 = loc("kv_caches[20]")
#loc457 = loc("kv_caches[21]")
#loc458 = loc("kv_caches[22]")
#loc459 = loc("kv_caches[23]")
#loc460 = loc("kv_caches[24]")
#loc461 = loc("kv_caches[25]")
#loc462 = loc("kv_caches[26]")
#loc463 = loc("kv_caches[27]")
#loc464 = loc("kv_caches[28]")
#loc465 = loc("kv_caches[29]")
#loc466 = loc("kv_caches[30]")
#loc467 = loc("kv_caches[31]")
#loc468 = loc("kv_caches[32]")
#loc469 = loc("kv_caches[33]")
#loc470 = loc("kv_caches[34]")
#loc471 = loc("kv_caches[35]")
#loc472 = loc("kv_caches[36]")
#loc473 = loc("kv_caches[37]")
#loc474 = loc("kv_caches[38]")
#loc475 = loc("kv_caches[39]")
#loc476 = loc("kv_caches[40]")
#loc477 = loc("kv_caches[41]")
#loc478 = loc("kv_caches[42]")
#loc479 = loc("kv_caches[43]")
#loc480 = loc("kv_caches[44]")
#loc481 = loc("kv_caches[45]")
#loc482 = loc("kv_caches[46]")
#loc483 = loc("kv_caches[47]")
#loc484 = loc("input_ids")
#loc485 = loc("attn_metadata.input_positions")
#loc486 = loc("attn_metadata.block_tables")
#loc487 = loc("attn_metadata.seq_lens")
#loc488 = loc("attn_metadata.query_start_loc")
#loc489 = loc("attn_metadata.request_distribution")
#loc499 = loc("/home/eporat/benchmarking_qwen_omni_tpu/.venv/lib/python3.11/site-packages/vllm/model_executor/custom_op.py":76:15 to :51)
#loc506 = loc("/home/eporat/benchmarking_qwen_omni_tpu/.venv/lib/python3.11/site-packages/vllm/model_executor/custom_op.py":46:15 to :52)
#loc596 = loc("/home/eporat/benchmarking_qwen_omni_tpu/.venv/lib/python3.11/site-packages/tpu_inference/layers/vllm/quantization/unquantized.py":256:17 to 261:9)
#loc597 = loc("/home/eporat/benchmarking_qwen_omni_tpu/.venv/lib/python3.11/site-packages/vllm/model_executor/layers/fused_moe/layer.py":2239:34 to 2260:13)
#loc598 = loc("/home/eporat/benchmarking_qwen_omni_tpu/.venv/lib/python3.11/site-packages/vllm/model_executor/layers/fused_moe/layer.py":2023:31 to :78)
#loc608 = loc("shard_map")
#loc630 = loc("/home/eporat/benchmarking_qwen_omni_tpu/.venv/lib/python3.11/site-packages/tpu_inference/layers/vllm/fused_moe.py":397:15 to 399:63)
#loc643 = loc("scatter-add")
#loc645 = loc("/home/eporat/benchmarking_qwen_omni_tpu/.venv/lib/python3.11/site-packages/tpu_inference/layers/vllm/fused_moe.py":96:17 to 102:28)
#loc646 = loc("/home/eporat/benchmarking_qwen_omni_tpu/.venv/lib/python3.11/site-packages/tpu_inference/layers/vllm/fused_moe.py":334:17 to 340:48)
#loc655 = loc("psum")
#loc662 = loc("sort")
#loc666 = loc("/home/eporat/benchmarking_qwen_omni_tpu/.venv/lib/python3.11/site-packages/jax/experimental/pallas/ops/tpu/megablox/gmm.py":384:37 to 391:3)
#loc668 = loc("/home/eporat/benchmarking_qwen_omni_tpu/.venv/lib/python3.11/site-packages/jax/experimental/pallas/ops/tpu/megablox/gmm.py":126:15 to :38)
#loc686 = loc("scatter")
#loc699 = loc("/home/eporat/benchmarking_qwen_omni_tpu/.venv/lib/python3.11/site-packages/jax/experimental/pallas/ops/tpu/megablox/gmm.py":232:15 to 236:3)
#loc713 = loc("reduce_window_sum")
#loc723 = loc("CustomOp.forward_tpu"(#loc499))
#loc730 = loc("CustomOp.forward"(#loc506))
#loc820 = loc("VllmUnquantizedFusedMoEMethod.apply"(#loc596))
#loc821 = loc("FusedMoE.forward_impl"(#loc597))
#loc822 = loc("FusedMoE.forward_native"(#loc598))
#loc853 = loc("jax_fused_moe_func_padded"(#loc630))
#loc867 = loc("tensor_sharded_gmm_merged_column_parallel"(#loc645))
#loc868 = loc("jax_fused_moe_func"(#loc646))
#loc886 = loc("gmm"(#loc666))
#loc888 = loc("make_group_metadata"(#loc668))
#loc918 = loc("make_group_metadata"(#loc699))
#loc943 = loc(callsite(#loc723 at #loc730))
#loc980 = loc(callsite(#loc822 at #loc943))
#loc1012 = loc(callsite(#loc821 at #loc980))
#loc1052 = loc(callsite(#loc820 at #loc1012))
#loc1144 = loc(callsite(#loc853 at #loc1052))
#loc1236 = loc(callsite(#loc868 at #loc1144))
#loc1330 = loc(callsite(#loc867 at #loc1236))
#loc1427 = loc(callsite(#loc886 at #loc1330))
#loc1579 = loc(callsite(#loc888 at #loc1427))
#loc1609 = loc(callsite(#loc918 at #loc1427))
module @jit_step_fun attributes {mhlo.num_partitions = 4 : i32, mhlo.num_replicas = 1 : i32} {
  sdy.mesh @mesh = <["data"=1, "model"=4]> loc(#loc)
  func.func public @main(%arg0: tensor<152064x2048xbf16> {sdy.sharding = #sdy.sharding<@mesh, [{"model"}, {}]>} loc("params_and_buffers['vllm_model.language_model.model.embed_tokens.weight']"), %arg1: tensor<2048xbf16> {sdy.sharding = #sdy.sharding<@mesh, [{}]>} loc("params_and_buffers['vllm_model.language_model.model.layers.0.input_layernorm.weight']"), %arg2: tensor<128x1536x2048xbf16> {sdy.sharding = #sdy.sharding<@mesh, [{}, {"model"}, {}]>} loc("params_and_buffers['vllm_model.language_model.model.layers.0.mlp.experts.w13_weight']"), %arg3: tensor<128x2048x768xbf16> {mhlo.layout_mode = "{2,1,0:T(8,128)(2,1)}", sdy.sharding = #sdy.sharding<@mesh, [{}, {}, {"model"}]>} loc("params_and_buffers['vllm_model.language_model.model.layers.0.mlp.experts.w2_weight']"), %arg4: tensor<128x2048xbf16> {sdy.sharding = #sdy.sharding<@mesh, [{}, {}]>} loc("params_and_buffers['vllm_model.language_model.model.layers.0.mlp.gate.weight']"), %arg5: tensor<2048xbf16> {sdy.sharding = #sdy.sharding<@mesh, [{}]>} loc("params_and_buffers['vllm_model.language_model.model.layers.0.post_attention_layernorm.weight']"), %arg6: tensor<128xbf16> {sdy.sharding = #sdy.sharding<@mesh, [{}]>} loc("params_and_buffers['vllm_model.language_model.model.layers.0.self_attn.k_norm.weight']"), %arg7: tensor<2048x4096xbf16> {sdy.sharding = #sdy.sharding<@mesh, [{}, {"model"}]>} loc("params_and_buffers['vllm_model.language_model.model.layers.0.self_attn.o_proj.weight']"), %arg8: tensor<128xbf16> {sdy.sharding = #sdy.sharding<@mesh, [{}]>} loc("params_and_buffers['vllm_model.language_model.model.layers.0.self_attn.q_norm.weight']"), %arg9: tensor<5120x2048xbf16> {sdy.sharding = #sdy.sharding<@mesh, [{"model"}, {}]>} loc("params_and_buffers['vllm_model.language_model.model.layers.0.self_attn.qkv_proj.weight']"), %arg10: tensor<262144x128xbf16> {sdy.sharding = #sdy.sharding<@mesh, [{}, {}]>} loc("params_and_buffers['vllm_model.language_model.model.layers.0.self_attn.rotary_emb.cos_sin_cache']"), %arg11: tensor<2048xbf16> {sdy.sharding = #sdy.sharding<@mesh, [{}]>} loc("params_and_buffers['vllm_model.language_model.model.layers.1.input_layernorm.weight']"), %arg12: tensor<128x1536x2048xbf16> {sdy.sharding = #sdy.sharding<@mesh, [{}, {"model"}, {}]>} loc("params_and_buffers['vllm_model.language_model.model.layers.1.mlp.experts.w13_weight']"), %arg13: tensor<128x2048x768xbf16> {mhlo.layout_mode = "{2,1,0:T(8,128)(2,1)}", sdy.sharding = #sdy.sharding<@mesh, [{}, {}, {"model"}]>} loc("params_and_buffers['vllm_model.language_model.model.layers.1.mlp.experts.w2_weight']"), %arg14: tensor<128x2048xbf16> {sdy.sharding = #sdy.sharding<@mesh, [{}, {}]>} loc("params_and_buffers['vllm_model.language_model.model.layers.1.mlp.gate.weight']"), %arg15: tensor<2048xbf16> {sdy.sharding = #sdy.sharding<@mesh, [{}]>} loc("params_and_buffers['vllm_model.language_model.model.layers.1.post_attention_layernorm.weight']"), %arg16: tensor<128xbf16> {sdy.sharding = #sdy.sharding<@mesh, [{}]>} loc("params_and_buffers['vllm_model.language_model.model.layers.1.self_attn.k_norm.weight']"), %arg17: tensor<2048x4096xbf16> {sdy.sharding = #sdy.sharding<@mesh, [{}, {"model"}]>} loc("params_and_buffers['vllm_model.language_model.model.layers.1.self_attn.o_proj.weight']"), %arg18: tensor<128xbf16> {sdy.sharding = #sdy.sharding<@mesh, [{}]>} loc("params_and_buffers['vllm_model.language_model.model.layers.1.self_attn.q_norm.weight']"), %arg19: tensor<5120x2048xbf16> {sdy.sharding = #sdy.sharding<@mesh, [{"model"}, {}]>} loc("params_and_buffers['vllm_model.language_model.model.layers.1.self_attn.qkv_proj.weight']"), %arg20: tensor<2048xbf16> {sdy.sharding = #sdy.sharding<@mesh, [{}]>} loc("params_and_buffers['vllm_model.language_model.model.layers.10.input_layernorm.weight']"), %arg21: tensor<128x1536x2048xbf16> {sdy.sharding = #sdy.sharding<@mesh, [{}, {"model"}, {}]>} loc("params_and_buffers['vllm_model.language_model.model.layers.10.mlp.experts.w13_weight']"), %arg22: tensor<128x2048x768xbf16> {mhlo.layout_mode = "{2,1,0:T(8,128)(2,1)}", sdy.sharding = #sdy.sharding<@mesh, [{}, {}, {"model"}]>} loc("params_and_buffers['vllm_model.language_model.model.layers.10.mlp.experts.w2_weight']"), %arg23: tensor<128x2048xbf16> {sdy.sharding = #sdy.sharding<@mesh, [{}, {}]>} loc("params_and_buffers['vllm_model.language_model.model.layers.10.mlp.gate.weight']"), %arg24: tensor<2048xbf16> {sdy.sharding = #sdy.sharding<@mesh, [{}]>} loc("params_and_buffers['vllm_model.language_model.model.layers.10.post_attention_layernorm.weight']"), %arg25: tensor<128xbf16> {sdy.sharding = #sdy.sharding<@mesh, [{}]>} loc("params_and_buffers['vllm_model.language_model.model.layers.10.self_attn.k_norm.weight']"), %arg26: tensor<2048x4096xbf16> {sdy.sharding = #sdy.sharding<@mesh, [{}, {"model"}]>} loc("params_and_buffers['vllm_model.language_model.model.layers.10.self_attn.o_proj.weight']"), %arg27: tensor<128xbf16> {sdy.sharding = #sdy.sharding<@mesh, [{}]>} loc("params_and_buffers['vllm_model.language_model.model.layers.10.self_attn.q_norm.weight']"), %arg28: tensor<5120x2048xbf16> {sdy.sharding = #sdy.sharding<@mesh, [{"model"}, {}]>} loc("params_and_buffers['vllm_model.language_model.model.layers.10.self_attn.qkv_proj.weight']"), %arg29: tensor<2048xbf16> {sdy.sharding = #sdy.sharding<@mesh, [{}]>} loc("params_and_buffers['vllm_model.language_model.model.layers.11.input_layernorm.weight']"), %arg30: tensor<128x1536x2048xbf16> {sdy.sharding = #sdy.sharding<@mesh, [{}, {"model"}, {}]>} loc("params_and_buffers['vllm_model.language_model.model.layers.11.mlp.experts.w13_weight']"), %arg31: tensor<128x2048x768xbf16> {mhlo.layout_mode = "{2,1,0:T(8,128)(2,1)}", sdy.sharding = #sdy.sharding<@mesh, [{}, {}, {"model"}]>} loc("params_and_buffers['vllm_model.language_model.model.layers.11.mlp.experts.w2_weight']"), %arg32: tensor<128x2048xbf16> {sdy.sharding = #sdy.sharding<@mesh, [{}, {}]>} loc("params_and_buffers['vllm_model.language_model.model.layers.11.mlp.gate.weight']"), %arg33: tensor<2048xbf16> {sdy.sharding = #sdy.sharding<@mesh, [{}]>} loc("params_and_buffers['vllm_model.language_model.model.layers.11.post_attention_layernorm.weight']"), %arg34: tensor<128xbf16> {sdy.sharding = #sdy.sharding<@mesh, [{}]>} loc("params_and_buffers['vllm_model.language_model.model.layers.11.self_attn.k_norm.weight']"), %arg35: tensor<2048x4096xbf16> {sdy.sharding = #sdy.sharding<@mesh, [{}, {"model"}]>} loc("params_and_buffers['vllm_model.language_model.model.layers.11.self_attn.o_proj.weight']"), %arg36: tensor<128xbf16> {sdy.sharding = #sdy.sharding<@mesh, [{}]>} loc("params_and_buffers['vllm_model.language_model.model.layers.11.self_attn.q_norm.weight']"), %arg37: tensor<5120x2048xbf16> {sdy.sharding = #sdy.sharding<@mesh, [{"model"}, {}]>} loc("params_and_buffers['vllm_model.language_model.model.layers.11.self_attn.qkv_proj.weight']"), %arg38: tensor<2048xbf16> {sdy.sharding = #sdy.sharding<@mesh, [{}]>} loc("params_and_buffers['vllm_model.language_model.model.layers.12.input_layernorm.weight']"), %arg39: tensor<128x1536x2048xbf16> {sdy.sharding = #sdy.sharding<@mesh, [{}, {"model"}, {}]>} loc("params_and_buffers['vllm_model.language_model.model.layers.12.mlp.experts.w13_weight']"), %arg40: tensor<128x2048x768xbf16> {mhlo.layout_mode = "{2,1,0:T(8,128)(2,1)}", sdy.sharding = #sdy.sharding<@mesh, [{}, {}, {"model"}]>} loc("params_and_buffers['vllm_model.language_model.model.layers.12.mlp.experts.w2_weight']"), %arg41: tensor<128x2048xbf16> {sdy.sharding = #sdy.sharding<@mesh, [{}, {}]>} loc("params_and_buffers['vllm_model.language_model.model.layers.12.mlp.gate.weight']"), %arg42: tensor<2048xbf16> {sdy.sharding = #sdy.sharding<@mesh, [{}]>} loc("params_and_buffers['vllm_model.language_model.model.layers.12.post_attention_layernorm.weight']"), %arg43: tensor<128xbf16> {sdy.sharding = #sdy.sharding<@mesh, [{}]>} loc("params_and_buffers['vllm_model.language_model.model.layers.12.self_attn.k_norm.weight']"), %arg44: tensor<2048x4096xbf16> {sdy.sharding = #sdy.sharding<@mesh, [{}, {"model"}]>} loc("params_and_buffers['vllm_model.language_model.model.layers.12.self_attn.o_proj.weight']"), %arg45: tensor<128xbf16> {sdy.sharding = #sdy.sharding<@mesh, [{}]>} loc("params_and_buffers['vllm_model.language_model.model.layers.12.self_attn.q_norm.weight']"), %arg46: tensor<5120x2048xbf16> {sdy.sharding = #sdy.sharding<@mesh, [{"model"}, {}]>} loc("params_and_buffers['vllm_model.language_model.model.layers.12.self_attn.qkv_proj.weight']"), %arg47: tensor<2048xbf16> {sdy.sharding = #sdy.sharding<@mesh, [{}]>} loc("params_and_buffers['vllm_model.language_model.model.layers.13.input_layernorm.weight']"), %arg48: tensor<128x1536x2048xbf16> {sdy.sharding = #sdy.sharding<@mesh, [{}, {"model"}, {}]>} loc("params_and_buffers['vllm_model.language_model.model.layers.13.mlp.experts.w13_weight']"), %arg49: tensor<128x2048x768xbf16> {mhlo.layout_mode = "{2,1,0:T(8,128)(2,1)}", sdy.sharding = #sdy.sharding<@mesh, [{}, {}, {"model"}]>} loc("params_and_buffers['vllm_model.language_model.model.layers.13.mlp.experts.w2_weight']"), %arg50: tensor<128x2048xbf16> {sdy.sharding = #sdy.sharding<@mesh, [{}, {}]>} loc("params_and_buffers['vllm_model.language_model.model.layers.13.mlp.gate.weight']"), %arg51: tensor<2048xbf16> {sdy.sharding = #sdy.sharding<@mesh, [{}]>} loc("params_and_buffers['vllm_model.language_model.model.layers.13.post_attention_layernorm.weight']"), %arg52: tensor<128xbf16> {sdy.sharding = #sdy.sharding<@mesh, [{}]>} loc("params_and_buffers['vllm_model.language_model.model.layers.13.self_attn.k_norm.weight']"), %arg53: tensor<2048x4096xbf16> {sdy.sharding = #sdy.sharding<@mesh, [{}, {"model"}]>} loc("params_and_buffers['vllm_model.language_model.model.layers.13.self_attn.o_proj.weight']"), %arg54: tensor<128xbf16> {sdy.sharding = #sdy.sharding<@mesh, [{}]>} loc("params_and_buffers['vllm_model.language_model.model.layers.13.self_attn.q_norm.weight']"), %arg55: tensor<5120x2048xbf16> {sdy.sharding = #sdy.sharding<@mesh, [{"model"}, {}]>} loc("params_and_buffers['vllm_model.language_model.model.layers.13.self_attn.qkv_proj.weight']"), %arg56: tensor<2048xbf16> {sdy.sharding = #sdy.sharding<@mesh, [{}]>} loc("params_and_buffers['vllm_model.language_model.model.layers.14.input_layernorm.weight']"), %arg57: tensor<128x1536x2048xbf16> {sdy.sharding = #sdy.sharding<@mesh, [{}, {"model"}, {}]>} loc("params_and_buffers['vllm_model.language_model.model.layers.14.mlp.experts.w13_weight']"), %arg58: tensor<128x2048x768xbf16> {mhlo.layout_mode = "{2,1,0:T(8,128)(2,1)}", sdy.sharding = #sdy.sharding<@mesh, [{}, {}, {"model"}]>} loc("params_and_buffers['vllm_model.language_model.model.layers.14.mlp.experts.w2_weight']"), %arg59: tensor<128x2048xbf16> {sdy.sharding = #sdy.sharding<@mesh, [{}, {}]>} loc("params_and_buffers['vllm_model.language_model.model.layers.14.mlp.gate.weight']"), %arg60: tensor<2048xbf16> {sdy.sharding = #sdy.sharding<@mesh, [{}]>} loc("params_and_buffers['vllm_model.language_model.model.layers.14.post_attention_layernorm.weight']"), %arg61: tensor<128xbf16> {sdy.sharding = #sdy.sharding<@mesh, [{}]>} loc("params_and_buffers['vllm_model.language_model.model.layers.14.self_attn.k_norm.weight']"), %arg62: tensor<2048x4096xbf16> {sdy.sharding = #sdy.sharding<@mesh, [{}, {"model"}]>} loc("params_and_buffers['vllm_model.language_model.model.layers.14.self_attn.o_proj.weight']"), %arg63: tensor<128xbf16> {sdy.sharding = #sdy.sharding<@mesh, [{}]>} loc("params_and_buffers['vllm_model.language_model.model.layers.14.self_attn.q_norm.weight']"), %arg64: tensor<5120x2048xbf16> {sdy.sharding = #sdy.sharding<@mesh, [{"model"}, {}]>} loc("params_and_buffers['vllm_model.language_model.model.layers.14.self_attn.qkv_proj.weight']"), %arg65: tensor<2048xbf16> {sdy.sharding = #sdy.sharding<@mesh, [{}]>} loc("params_and_buffers['vllm_model.language_model.model.layers.15.input_layernorm.weight']"), %arg66: tensor<128x1536x2048xbf16> {sdy.sharding = #sdy.sharding<@mesh, [{}, {"model"}, {}]>} loc("params_and_buffers['vllm_model.language_model.model.layers.15.mlp.experts.w13_weight']"), %arg67: tensor<128x2048x768xbf16> {mhlo.layout_mode = "{2,1,0:T(8,128)(2,1)}", sdy.sharding = #sdy.sharding<@mesh, [{}, {}, {"model"}]>} loc("params_and_buffers['vllm_model.language_model.model.layers.15.mlp.experts.w2_weight']"), %arg68: tensor<128x2048xbf16> {sdy.sharding = #sdy.sharding<@mesh, [{}, {}]>} loc("params_and_buffers['vllm_model.language_model.model.layers.15.mlp.gate.weight']"), %arg69: tensor<2048xbf16> {sdy.sharding = #sdy.sharding<@mesh, [{}]>} loc("params_and_buffers['vllm_model.language_model.model.layers.15.post_attention_layernorm.weight']"), %arg70: tensor<128xbf16> {sdy.sharding = #sdy.sharding<@mesh, [{}]>} loc("params_and_buffers['vllm_model.language_model.model.layers.15.self_attn.k_norm.weight']"), %arg71: tensor<2048x4096xbf16> {sdy.sharding = #sdy.sharding<@mesh, [{}, {"model"}]>} loc("params_and_buffers['vllm_model.language_model.model.layers.15.self_attn.o_proj.weight']"), %arg72: tensor<128xbf16> {sdy.sharding = #sdy.sharding<@mesh, [{}]>} loc("params_and_buffers['vllm_model.language_model.model.layers.15.self_attn.q_norm.weight']"), %arg73: tensor<5120x2048xbf16> {sdy.sharding = #sdy.sharding<@mesh, [{"model"}, {}]>} loc("params_and_buffers['vllm_model.language_model.model.layers.15.self_attn.qkv_proj.weight']"), %arg74: tensor<2048xbf16> {sdy.sharding = #sdy.sharding<@mesh, [{}]>} loc("params_and_buffers['vllm_model.language_model.model.layers.16.input_layernorm.weight']"), %arg75: tensor<128x1536x2048xbf16> {sdy.sharding = #sdy.sharding<@mesh, [{}, {"model"}, {}]>} loc("params_and_buffers['vllm_model.language_model.model.layers.16.mlp.experts.w13_weight']"), %arg76: tensor<128x2048x768xbf16> {mhlo.layout_mode = "{2,1,0:T(8,128)(2,1)}", sdy.sharding = #sdy.sharding<@mesh, [{}, {}, {"model"}]>} loc("params_and_buffers['vllm_model.language_model.model.layers.16.mlp.experts.w2_weight']"), %arg77: tensor<128x2048xbf16> {sdy.sharding = #sdy.sharding<@mesh, [{}, {}]>} loc("params_and_buffers['vllm_model.language_model.model.layers.16.mlp.gate.weight']"), %arg78: tensor<2048xbf16> {sdy.sharding = #sdy.sharding<@mesh, [{}]>} loc("params_and_buffers['vllm_model.language_model.model.layers.16.post_attention_layernorm.weight']"), %arg79: tensor<128xbf16> {sdy.sharding = #sdy.sharding<@mesh, [{}]>} loc("params_and_buffers['vllm_model.language_model.model.layers.16.self_attn.k_norm.weight']"), %arg80: tensor<2048x4096xbf16> {sdy.sharding = #sdy.sharding<@mesh, [{}, {"model"}]>} loc("params_and_buffers['vllm_model.language_model.model.layers.16.self_attn.o_proj.weight']"), %arg81: tensor<128xbf16> {sdy.sharding = #sdy.sharding<@mesh, [{}]>} loc("params_and_buffers['vllm_model.language_model.model.layers.16.self_attn.q_norm.weight']"), %arg82: tensor<5120x2048xbf16> {sdy.sharding = #sdy.sharding<@mesh, [{"model"}, {}]>} loc("params_and_buffers['vllm_model.language_model.model.layers.16.self_attn.qkv_proj.weight']"), %arg83: tensor<2048xbf16> {sdy.sharding = #sdy.sharding<@mesh, [{}]>} loc("params_and_buffers['vllm_model.language_model.model.layers.17.input_layernorm.weight']"), %arg84: tensor<128x1536x2048xbf16> {sdy.sharding = #sdy.sharding<@mesh, [{}, {"model"}, {}]>} loc("params_and_buffers['vllm_model.language_model.model.layers.17.mlp.experts.w13_weight']"), %arg85: tensor<128x2048x768xbf16> {mhlo.layout_mode = "{2,1,0:T(8,128)(2,1)}", sdy.sharding = #sdy.sharding<@mesh, [{}, {}, {"model"}]>} loc("params_and_buffers['vllm_model.language_model.model.layers.17.mlp.experts.w2_weight']"), %arg86: tensor<128x2048xbf16> {sdy.sharding = #sdy.sharding<@mesh, [{}, {}]>} loc("params_and_buffers['vllm_model.language_model.model.layers.17.mlp.gate.weight']"), %arg87: tensor<2048xbf16> {sdy.sharding = #sdy.sharding<@mesh, [{}]>} loc("params_and_buffers['vllm_model.language_model.model.layers.17.post_attention_layernorm.weight']"), %arg88: tensor<128xbf16> {sdy.sharding = #sdy.sharding<@mesh, [{}]>} loc("params_and_buffers['vllm_model.language_model.model.layers.17.self_attn.k_norm.weight']"), %arg89: tensor<2048x4096xbf16> {sdy.sharding = #sdy.sharding<@mesh, [{}, {"model"}]>} loc("params_and_buffers['vllm_model.language_model.model.layers.17.self_attn.o_proj.weight']"), %arg90: tensor<128xbf16> {sdy.sharding = #sdy.sharding<@mesh, [{}]>} loc("params_and_buffers['vllm_model.language_model.model.layers.17.self_attn.q_norm.weight']"), %arg91: tensor<5120x2048xbf16> {sdy.sharding = #sdy.sharding<@mesh, [{"model"}, {}]>} loc("params_and_buffers['vllm_model.language_model.model.layers.17.self_attn.qkv_proj.weight']"), %arg92: tensor<2048xbf16> {sdy.sharding = #sdy.sharding<@mesh, [{}]>} loc("params_and_buffers['vllm_model.language_model.model.layers.18.input_layernorm.weight']"), %arg93: tensor<128x1536x2048xbf16> {sdy.sharding = #sdy.sharding<@mesh, [{}, {"model"}, {}]>} loc("params_and_buffers['vllm_model.language_model.model.layers.18.mlp.experts.w13_weight']"), %arg94: tensor<128x2048x768xbf16> {mhlo.layout_mode = "{2,1,0:T(8,128)(2,1)}", sdy.sharding = #sdy.sharding<@mesh, [{}, {}, {"model"}]>} loc("params_and_buffers['vllm_model.language_model.model.layers.18.mlp.experts.w2_weight']"), %arg95: tensor<128x2048xbf16> {sdy.sharding = #sdy.sharding<@mesh, [{}, {}]>} loc("params_and_buffers['vllm_model.language_model.model.layers.18.mlp.gate.weight']"), %arg96: tensor<2048xbf16> {sdy.sharding = #sdy.sharding<@mesh, [{}]>} loc("params_and_buffers['vllm_model.language_model.model.layers.18.post_attention_layernorm.weight']"), %arg97: tensor<128xbf16> {sdy.sharding = #sdy.sharding<@mesh, [{}]>} loc("params_and_buffers['vllm_model.language_model.model.layers.18.self_attn.k_norm.weight']"), %arg98: tensor<2048x4096xbf16> {sdy.sharding = #sdy.sharding<@mesh, [{}, {"model"}]>} loc("params_and_buffers['vllm_model.language_model.model.layers.18.self_attn.o_proj.weight']"), %arg99: tensor<128xbf16> {sdy.sharding = #sdy.sharding<@mesh, [{}]>} loc("params_and_buffers['vllm_model.language_model.model.layers.18.self_attn.q_norm.weight']"), %arg100: tensor<5120x2048xbf16> {sdy.sharding = #sdy.sharding<@mesh, [{"model"}, {}]>} loc("params_and_buffers['vllm_model.language_model.model.layers.18.self_attn.qkv_proj.weight']"), %arg101: tensor<2048xbf16> {sdy.sharding = #sdy.sharding<@mesh, [{}]>} loc("params_and_buffers['vllm_model.language_model.model.layers.19.input_layernorm.weight']"), %arg102: tensor<128x1536x2048xbf16> {sdy.sharding = #sdy.sharding<@mesh, [{}, {"model"}, {}]>} loc("params_and_buffers['vllm_model.language_model.model.layers.19.mlp.experts.w13_weight']"), %arg103: tensor<128x2048x768xbf16> {mhlo.layout_mode = "{2,1,0:T(8,128)(2,1)}", sdy.sharding = #sdy.sharding<@mesh, [{}, {}, {"model"}]>} loc("params_and_buffers['vllm_model.language_model.model.layers.19.mlp.experts.w2_weight']"), %arg104: tensor<128x2048xbf16> {sdy.sharding = #sdy.sharding<@mesh, [{}, {}]>} loc("params_and_buffers['vllm_model.language_model.model.layers.19.mlp.gate.weight']"), %arg105: tensor<2048xbf16> {sdy.sharding = #sdy.sharding<@mesh, [{}]>} loc("params_and_buffers['vllm_model.language_model.model.layers.19.post_attention_layernorm.weight']"), %arg106: tensor<128xbf16> {sdy.sharding = #sdy.sharding<@mesh, [{}]>} loc("params_and_buffers['vllm_model.language_model.model.layers.19.self_attn.k_norm.weight']"), %arg107: tensor<2048x4096xbf16> {sdy.sharding = #sdy.sharding<@mesh, [{}, {"model"}]>} loc("params_and_buffers['vllm_model.language_model.model.layers.19.self_attn.o_proj.weight']"), %arg108: tensor<128xbf16> {sdy.sharding = #sdy.sharding<@mesh, [{}]>} loc("params_and_buffers['vllm_model.language_model.model.layers.19.self_attn.q_norm.weight']"), %arg109: tensor<5120x2048xbf16> {sdy.sharding = #sdy.sharding<@mesh, [{"model"}, {}]>} loc("params_and_buffers['vllm_model.language_model.model.layers.19.self_attn.qkv_proj.weight']"), %arg110: tensor<2048xbf16> {sdy.sharding = #sdy.sharding<@mesh, [{}]>} loc("params_and_buffers['vllm_model.language_model.model.layers.2.input_layernorm.weight']"), %arg111: tensor<128x1536x2048xbf16> {sdy.sharding = #sdy.sharding<@mesh, [{}, {"model"}, {}]>} loc("params_and_buffers['vllm_model.language_model.model.layers.2.mlp.experts.w13_weight']"), %arg112: tensor<128x2048x768xbf16> {mhlo.layout_mode = "{2,1,0:T(8,128)(2,1)}", sdy.sharding = #sdy.sharding<@mesh, [{}, {}, {"model"}]>} loc("params_and_buffers['vllm_model.language_model.model.layers.2.mlp.experts.w2_weight']"), %arg113: tensor<128x2048xbf16> {sdy.sharding = #sdy.sharding<@mesh, [{}, {}]>} loc("params_and_buffers['vllm_model.language_model.model.layers.2.mlp.gate.weight']"), %arg114: tensor<2048xbf16> {sdy.sharding = #sdy.sharding<@mesh, [{}]>} loc("params_and_buffers['vllm_model.language_model.model.layers.2.post_attention_layernorm.weight']"), %arg115: tensor<128xbf16> {sdy.sharding = #sdy.sharding<@mesh, [{}]>} loc("params_and_buffers['vllm_model.language_model.model.layers.2.self_attn.k_norm.weight']"), %arg116: tensor<2048x4096xbf16> {sdy.sharding = #sdy.sharding<@mesh, [{}, {"model"}]>} loc("params_and_buffers['vllm_model.language_model.model.layers.2.self_attn.o_proj.weight']"), %arg117: tensor<128xbf16> {sdy.sharding = #sdy.sharding<@mesh, [{}]>} loc("params_and_buffers['vllm_model.language_model.model.layers.2.self_attn.q_norm.weight']"), %arg118: tensor<5120x2048xbf16> {sdy.sharding = #sdy.sharding<@mesh, [{"model"}, {}]>} loc("params_and_buffers['vllm_model.language_model.model.layers.2.self_attn.qkv_proj.weight']"), %arg119: tensor<2048xbf16> {sdy.sharding = #sdy.sharding<@mesh, [{}]>} loc("params_and_buffers['vllm_model.language_model.model.layers.20.input_layernorm.weight']"), %arg120: tensor<128x1536x2048xbf16> {sdy.sharding = #sdy.sharding<@mesh, [{}, {"model"}, {}]>} loc("params_and_buffers['vllm_model.language_model.model.layers.20.mlp.experts.w13_weight']"), %arg121: tensor<128x2048x768xbf16> {mhlo.layout_mode = "{2,1,0:T(8,128)(2,1)}", sdy.sharding = #sdy.sharding<@mesh, [{}, {}, {"model"}]>} loc("params_and_buffers['vllm_model.language_model.model.layers.20.mlp.experts.w2_weight']"), %arg122: tensor<128x2048xbf16> {sdy.sharding = #sdy.sharding<@mesh, [{}, {}]>} loc("params_and_buffers['vllm_model.language_model.model.layers.20.mlp.gate.weight']"), %arg123: tensor<2048xbf16> {sdy.sharding = #sdy.sharding<@mesh, [{}]>} loc("params_and_buffers['vllm_model.language_model.model.layers.20.post_attention_layernorm.weight']"), %arg124: tensor<128xbf16> {sdy.sharding = #sdy.sharding<@mesh, [{}]>} loc("params_and_buffers['vllm_model.language_model.model.layers.20.self_attn.k_norm.weight']"), %arg125: tensor<2048x4096xbf16> {sdy.sharding = #sdy.sharding<@mesh, [{}, {"model"}]>} loc("params_and_buffers['vllm_model.language_model.model.layers.20.self_attn.o_proj.weight']"), %arg126: tensor<128xbf16> {sdy.sharding = #sdy.sharding<@mesh, [{}]>} loc("params_and_buffers['vllm_model.language_model.model.layers.20.self_attn.q_norm.weight']"), %arg127: tensor<5120x2048xbf16> {sdy.sharding = #sdy.sharding<@mesh, [{"model"}, {}]>} loc("params_and_buffers['vllm_model.language_model.model.layers.20.self_attn.qkv_proj.weight']"), %arg128: tensor<2048xbf16> {sdy.sharding = #sdy.sharding<@mesh, [{}]>} loc("params_and_buffers['vllm_model.language_model.model.layers.21.input_layernorm.weight']"), %arg129: tensor<128x1536x2048xbf16> {sdy.sharding = #sdy.sharding<@mesh, [{}, {"model"}, {}]>} loc("params_and_buffers['vllm_model.language_model.model.layers.21.mlp.experts.w13_weight']"), %arg130: tensor<128x2048x768xbf16> {mhlo.layout_mode = "{2,1,0:T(8,128)(2,1)}", sdy.sharding = #sdy.sharding<@mesh, [{}, {}, {"model"}]>} loc("params_and_buffers['vllm_model.language_model.model.layers.21.mlp.experts.w2_weight']"), %arg131: tensor<128x2048xbf16> {sdy.sharding = #sdy.sharding<@mesh, [{}, {}]>} loc("params_and_buffers['vllm_model.language_model.model.layers.21.mlp.gate.weight']"), %arg132: tensor<2048xbf16> {sdy.sharding = #sdy.sharding<@mesh, [{}]>} loc("params_and_buffers['vllm_model.language_model.model.layers.21.post_attention_layernorm.weight']"), %arg133: tensor<128xbf16> {sdy.sharding = #sdy.sharding<@mesh, [{}]>} loc("params_and_buffers['vllm_model.language_model.model.layers.21.self_attn.k_norm.weight']"), %arg134: tensor<2048x4096xbf16> {sdy.sharding = #sdy.sharding<@mesh, [{}, {"model"}]>} loc("params_and_buffers['vllm_model.language_model.model.layers.21.self_attn.o_proj.weight']"), %arg135: tensor<128xbf16> {sdy.sharding = #sdy.sharding<@mesh, [{}]>} loc("params_and_buffers['vllm_model.language_model.model.layers.21.self_attn.q_norm.weight']"), %arg136: tensor<5120x2048xbf16> {sdy.sharding = #sdy.sharding<@mesh, [{"model"}, {}]>} loc("params_and_buffers['vllm_model.language_model.model.layers.21.self_attn.qkv_proj.weight']"), %arg137: tensor<2048xbf16> {sdy.sharding = #sdy.sharding<@mesh, [{}]>} loc("params_and_buffers['vllm_model.language_model.model.layers.22.input_layernorm.weight']"), %arg138: tensor<128x1536x2048xbf16> {sdy.sharding = #sdy.sharding<@mesh, [{}, {"model"}, {}]>} loc("params_and_buffers['vllm_model.language_model.model.layers.22.mlp.experts.w13_weight']"), %arg139: tensor<128x2048x768xbf16> {mhlo.layout_mode = "{2,1,0:T(8,128)(2,1)}", sdy.sharding = #sdy.sharding<@mesh, [{}, {}, {"model"}]>} loc("params_and_buffers['vllm_model.language_model.model.layers.22.mlp.experts.w2_weight']"), %arg140: tensor<128x2048xbf16> {sdy.sharding = #sdy.sharding<@mesh, [{}, {}]>} loc("params_and_buffers['vllm_model.language_model.model.layers.22.mlp.gate.weight']"), %arg141: tensor<2048xbf16> {sdy.sharding = #sdy.sharding<@mesh, [{}]>} loc("params_and_buffers['vllm_model.language_model.model.layers.22.post_attention_layernorm.weight']"), %arg142: tensor<128xbf16> {sdy.sharding = #sdy.sharding<@mesh, [{}]>} loc("params_and_buffers['vllm_model.language_model.model.layers.22.self_attn.k_norm.weight']"), %arg143: tensor<2048x4096xbf16> {sdy.sharding = #sdy.sharding<@mesh, [{}, {"model"}]>} loc("params_and_buffers['vllm_model.language_model.model.layers.22.self_attn.o_proj.weight']"), %arg144: tensor<128xbf16> {sdy.sharding = #sdy.sharding<@mesh, [{}]>} loc("params_and_buffers['vllm_model.language_model.model.layers.22.self_attn.q_norm.weight']"), %arg145: tensor<5120x2048xbf16> {sdy.sharding = #sdy.sharding<@mesh, [{"model"}, {}]>} loc("params_and_buffers['vllm_model.language_model.model.layers.22.self_attn.qkv_proj.weight']"), %arg146: tensor<2048xbf16> {sdy.sharding = #sdy.sharding<@mesh, [{}]>} loc("params_and_buffers['vllm_model.language_model.model.layers.23.input_layernorm.weight']"), %arg147: tensor<128x1536x2048xbf16> {sdy.sharding = #sdy.sharding<@mesh, [{}, {"model"}, {}]>} loc("params_and_buffers['vllm_model.language_model.model.layers.23.mlp.experts.w13_weight']"), %arg148: tensor<128x2048x768xbf16> {mhlo.layout_mode = "{2,1,0:T(8,128)(2,1)}", sdy.sharding = #sdy.sharding<@mesh, [{}, {}, {"model"}]>} loc("params_and_buffers['vllm_model.language_model.model.layers.23.mlp.experts.w2_weight']"), %arg149: tensor<128x2048xbf16> {sdy.sharding = #sdy.sharding<@mesh, [{}, {}]>} loc("params_and_buffers['vllm_model.language_model.model.layers.23.mlp.gate.weight']"), %arg150: tensor<2048xbf16> {sdy.sharding = #sdy.sharding<@mesh, [{}]>} loc("params_and_buffers['vllm_model.language_model.model.layers.23.post_attention_layernorm.weight']"), %arg151: tensor<128xbf16> {sdy.sharding = #sdy.sharding<@mesh, [{}]>} loc("params_and_buffers['vllm_model.language_model.model.layers.23.self_attn.k_norm.weight']"), %arg152: tensor<2048x4096xbf16> {sdy.sharding = #sdy.sharding<@mesh, [{}, {"model"}]>} loc("params_and_buffers['vllm_model.language_model.model.layers.23.self_attn.o_proj.weight']"), %arg153: tensor<128xbf16> {sdy.sharding = #sdy.sharding<@mesh, [{}]>} loc("params_and_buffers['vllm_model.language_model.model.layers.23.self_attn.q_norm.weight']"), %arg154: tensor<5120x2048xbf16> {sdy.sharding = #sdy.sharding<@mesh, [{"model"}, {}]>} loc("params_and_buffers['vllm_model.language_model.model.layers.23.self_attn.qkv_proj.weight']"), %arg155: tensor<2048xbf16> {sdy.sharding = #sdy.sharding<@mesh, [{}]>} loc("params_and_buffers['vllm_model.language_model.model.layers.24.input_layernorm.weight']"), %arg156: tensor<128x1536x2048xbf16> {sdy.sharding = #sdy.sharding<@mesh, [{}, {"model"}, {}]>} loc("params_and_buffers['vllm_model.language_model.model.layers.24.mlp.experts.w13_weight']"), %arg157: tensor<128x2048x768xbf16> {mhlo.layout_mode = "{2,1,0:T(8,128)(2,1)}", sdy.sharding = #sdy.sharding<@mesh, [{}, {}, {"model"}]>} loc("params_and_buffers['vllm_model.language_model.model.layers.24.mlp.experts.w2_weight']"), %arg158: tensor<128x2048xbf16> {sdy.sharding = #sdy.sharding<@mesh, [{}, {}]>} loc("params_and_buffers['vllm_model.language_model.model.layers.24.mlp.gate.weight']"), %arg159: tensor<2048xbf16> {sdy.sharding = #sdy.sharding<@mesh, [{}]>} loc("params_and_buffers['vllm_model.language_model.model.layers.24.post_attention_layernorm.weight']"), %arg160: tensor<128xbf16> {sdy.sharding = #sdy.sharding<@mesh, [{}]>} loc("params_and_buffers['vllm_model.language_model.model.layers.24.self_attn.k_norm.weight']"), %arg161: tensor<2048x4096xbf16> {sdy.sharding = #sdy.sharding<@mesh, [{}, {"model"}]>} loc("params_and_buffers['vllm_model.language_model.model.layers.24.self_attn.o_proj.weight']"), %arg162: tensor<128xbf16> {sdy.sharding = #sdy.sharding<@mesh, [{}]>} loc("params_and_buffers['vllm_model.language_model.model.layers.24.self_attn.q_norm.weight']"), %arg163: tensor<5120x2048xbf16> {sdy.sharding = #sdy.sharding<@mesh, [{"model"}, {}]>} loc("params_and_buffers['vllm_model.language_model.model.layers.24.self_attn.qkv_proj.weight']"), %arg164: tensor<2048xbf16> {sdy.sharding = #sdy.sharding<@mesh, [{}]>} loc("params_and_buffers['vllm_model.language_model.model.layers.25.input_layernorm.weight']"), %arg165: tensor<128x1536x2048xbf16> {sdy.sharding = #sdy.sharding<@mesh, [{}, {"model"}, {}]>} loc("params_and_buffers['vllm_model.language_model.model.layers.25.mlp.experts.w13_weight']"), %arg166: tensor<128x2048x768xbf16> {mhlo.layout_mode = "{2,1,0:T(8,128)(2,1)}", sdy.sharding = #sdy.sharding<@mesh, [{}, {}, {"model"}]>} loc("params_and_buffers['vllm_model.language_model.model.layers.25.mlp.experts.w2_weight']"), %arg167: tensor<128x2048xbf16> {sdy.sharding = #sdy.sharding<@mesh, [{}, {}]>} loc("params_and_buffers['vllm_model.language_model.model.layers.25.mlp.gate.weight']"), %arg168: tensor<2048xbf16> {sdy.sharding = #sdy.sharding<@mesh, [{}]>} loc("params_and_buffers['vllm_model.language_model.model.layers.25.post_attention_layernorm.weight']"), %arg169: tensor<128xbf16> {sdy.sharding = #sdy.sharding<@mesh, [{}]>} loc("params_and_buffers['vllm_model.language_model.model.layers.25.self_attn.k_norm.weight']"), %arg170: tensor<2048x4096xbf16> {sdy.sharding = #sdy.sharding<@mesh, [{}, {"model"}]>} loc("params_and_buffers['vllm_model.language_model.model.layers.25.self_attn.o_proj.weight']"), %arg171: tensor<128xbf16> {sdy.sharding = #sdy.sharding<@mesh, [{}]>} loc("params_and_buffers['vllm_model.language_model.model.layers.25.self_attn.q_norm.weight']"), %arg172: tensor<5120x2048xbf16> {sdy.sharding = #sdy.sharding<@mesh, [{"model"}, {}]>} loc("params_and_buffers['vllm_model.language_model.model.layers.25.self_attn.qkv_proj.weight']"), %arg173: tensor<2048xbf16> {sdy.sharding = #sdy.sharding<@mesh, [{}]>} loc("params_and_buffers['vllm_model.language_model.model.layers.26.input_layernorm.weight']"), %arg174: tensor<128x1536x2048xbf16> {sdy.sharding = #sdy.sharding<@mesh, [{}, {"model"}, {}]>} loc("params_and_buffers['vllm_model.language_model.model.layers.26.mlp.experts.w13_weight']"), %arg175: tensor<128x2048x768xbf16> {mhlo.layout_mode = "{2,1,0:T(8,128)(2,1)}", sdy.sharding = #sdy.sharding<@mesh, [{}, {}, {"model"}]>} loc("params_and_buffers['vllm_model.language_model.model.layers.26.mlp.experts.w2_weight']"), %arg176: tensor<128x2048xbf16> {sdy.sharding = #sdy.sharding<@mesh, [{}, {}]>} loc("params_and_buffers['vllm_model.language_model.model.layers.26.mlp.gate.weight']"), %arg177: tensor<2048xbf16> {sdy.sharding = #sdy.sharding<@mesh, [{}]>} loc("params_and_buffers['vllm_model.language_model.model.layers.26.post_attention_layernorm.weight']"), %arg178: tensor<128xbf16> {sdy.sharding = #sdy.sharding<@mesh, [{}]>} loc("params_and_buffers['vllm_model.language_model.model.layers.26.self_attn.k_norm.weight']"), %arg179: tensor<2048x4096xbf16> {sdy.sharding = #sdy.sharding<@mesh, [{}, {"model"}]>} loc("params_and_buffers['vllm_model.language_model.model.layers.26.self_attn.o_proj.weight']"), %arg180: tensor<128xbf16> {sdy.sharding = #sdy.sharding<@mesh, [{}]>} loc("params_and_buffers['vllm_model.language_model.model.layers.26.self_attn.q_norm.weight']"), %arg181: tensor<5120x2048xbf16> {sdy.sharding = #sdy.sharding<@mesh, [{"model"}, {}]>} loc("params_and_buffers['vllm_model.language_model.model.layers.26.self_attn.qkv_proj.weight']"), %arg182: tensor<2048xbf16> {sdy.sharding = #sdy.sharding<@mesh, [{}]>} loc("params_and_buffers['vllm_model.language_model.model.layers.27.input_layernorm.weight']"), %arg183: tensor<128x1536x2048xbf16> {sdy.sharding = #sdy.sharding<@mesh, [{}, {"model"}, {}]>} loc("params_and_buffers['vllm_model.language_model.model.layers.27.mlp.experts.w13_weight']"), %arg184: tensor<128x2048x768xbf16> {mhlo.layout_mode = "{2,1,0:T(8,128)(2,1)}", sdy.sharding = #sdy.sharding<@mesh, [{}, {}, {"model"}]>} loc("params_and_buffers['vllm_model.language_model.model.layers.27.mlp.experts.w2_weight']"), %arg185: tensor<128x2048xbf16> {sdy.sharding = #sdy.sharding<@mesh, [{}, {}]>} loc("params_and_buffers['vllm_model.language_model.model.layers.27.mlp.gate.weight']"), %arg186: tensor<2048xbf16> {sdy.sharding = #sdy.sharding<@mesh, [{}]>} loc("params_and_buffers['vllm_model.language_model.model.layers.27.post_attention_layernorm.weight']"), %arg187: tensor<128xbf16> {sdy.sharding = #sdy.sharding<@mesh, [{}]>} loc("params_and_buffers['vllm_model.language_model.model.layers.27.self_attn.k_norm.weight']"), %arg188: tensor<2048x4096xbf16> {sdy.sharding = #sdy.sharding<@mesh, [{}, {"model"}]>} loc("params_and_buffers['vllm_model.language_model.model.layers.27.self_attn.o_proj.weight']"), %arg189: tensor<128xbf16> {sdy.sharding = #sdy.sharding<@mesh, [{}]>} loc("params_and_buffers['vllm_model.language_model.model.layers.27.self_attn.q_norm.weight']"), %arg190: tensor<5120x2048xbf16> {sdy.sharding = #sdy.sharding<@mesh, [{"model"}, {}]>} loc("params_and_buffers['vllm_model.language_model.model.layers.27.self_attn.qkv_proj.weight']"), %arg191: tensor<2048xbf16> {sdy.sharding = #sdy.sharding<@mesh, [{}]>} loc("params_and_buffers['vllm_model.language_model.model.layers.28.input_layernorm.weight']"), %arg192: tensor<128x1536x2048xbf16> {sdy.sharding = #sdy.sharding<@mesh, [{}, {"model"}, {}]>} loc("params_and_buffers['vllm_model.language_model.model.layers.28.mlp.experts.w13_weight']"), %arg193: tensor<128x2048x768xbf16> {mhlo.layout_mode = "{2,1,0:T(8,128)(2,1)}", sdy.sharding = #sdy.sharding<@mesh, [{}, {}, {"model"}]>} loc("params_and_buffers['vllm_model.language_model.model.layers.28.mlp.experts.w2_weight']"), %arg194: tensor<128x2048xbf16> {sdy.sharding = #sdy.sharding<@mesh, [{}, {}]>} loc("params_and_buffers['vllm_model.language_model.model.layers.28.mlp.gate.weight']"), %arg195: tensor<2048xbf16> {sdy.sharding = #sdy.sharding<@mesh, [{}]>} loc("params_and_buffers['vllm_model.language_model.model.layers.28.post_attention_layernorm.weight']"), %arg196: tensor<128xbf16> {sdy.sharding = #sdy.sharding<@mesh, [{}]>} loc("params_and_buffers['vllm_model.language_model.model.layers.28.self_attn.k_norm.weight']"), %arg197: tensor<2048x4096xbf16> {sdy.sharding = #sdy.sharding<@mesh, [{}, {"model"}]>} loc("params_and_buffers['vllm_model.language_model.model.layers.28.self_attn.o_proj.weight']"), %arg198: tensor<128xbf16> {sdy.sharding = #sdy.sharding<@mesh, [{}]>} loc("params_and_buffers['vllm_model.language_model.model.layers.28.self_attn.q_norm.weight']"), %arg199: tensor<5120x2048xbf16> {sdy.sharding = #sdy.sharding<@mesh, [{"model"}, {}]>} loc("params_and_buffers['vllm_model.language_model.model.layers.28.self_attn.qkv_proj.weight']"), %arg200: tensor<2048xbf16> {sdy.sharding = #sdy.sharding<@mesh, [{}]>} loc("params_and_buffers['vllm_model.language_model.model.layers.29.input_layernorm.weight']"), %arg201: tensor<128x1536x2048xbf16> {sdy.sharding = #sdy.sharding<@mesh, [{}, {"model"}, {}]>} loc("params_and_buffers['vllm_model.language_model.model.layers.29.mlp.experts.w13_weight']"), %arg202: tensor<128x2048x768xbf16> {mhlo.layout_mode = "{2,1,0:T(8,128)(2,1)}", sdy.sharding = #sdy.sharding<@mesh, [{}, {}, {"model"}]>} loc("params_and_buffers['vllm_model.language_model.model.layers.29.mlp.experts.w2_weight']"), %arg203: tensor<128x2048xbf16> {sdy.sharding = #sdy.sharding<@mesh, [{}, {}]>} loc("params_and_buffers['vllm_model.language_model.model.layers.29.mlp.gate.weight']"), %arg204: tensor<2048xbf16> {sdy.sharding = #sdy.sharding<@mesh, [{}]>} loc("params_and_buffers['vllm_model.language_model.model.layers.29.post_attention_layernorm.weight']"), %arg205: tensor<128xbf16> {sdy.sharding = #sdy.sharding<@mesh, [{}]>} loc("params_and_buffers['vllm_model.language_model.model.layers.29.self_attn.k_norm.weight']"), %arg206: tensor<2048x4096xbf16> {sdy.sharding = #sdy.sharding<@mesh, [{}, {"model"}]>} loc("params_and_buffers['vllm_model.language_model.model.layers.29.self_attn.o_proj.weight']"), %arg207: tensor<128xbf16> {sdy.sharding = #sdy.sharding<@mesh, [{}]>} loc("params_and_buffers['vllm_model.language_model.model.layers.29.self_attn.q_norm.weight']"), %arg208: tensor<5120x2048xbf16> {sdy.sharding = #sdy.sharding<@mesh, [{"model"}, {}]>} loc("params_and_buffers['vllm_model.language_model.model.layers.29.self_attn.qkv_proj.weight']"), %arg209: tensor<2048xbf16> {sdy.sharding = #sdy.sharding<@mesh, [{}]>} loc("params_and_buffers['vllm_model.language_model.model.layers.3.input_layernorm.weight']"), %arg210: tensor<128x1536x2048xbf16> {sdy.sharding = #sdy.sharding<@mesh, [{}, {"model"}, {}]>} loc("params_and_buffers['vllm_model.language_model.model.layers.3.mlp.experts.w13_weight']"), %arg211: tensor<128x2048x768xbf16> {mhlo.layout_mode = "{2,1,0:T(8,128)(2,1)}", sdy.sharding = #sdy.sharding<@mesh, [{}, {}, {"model"}]>} loc("params_and_buffers['vllm_model.language_model.model.layers.3.mlp.experts.w2_weight']"), %arg212: tensor<128x2048xbf16> {sdy.sharding = #sdy.sharding<@mesh, [{}, {}]>} loc("params_and_buffers['vllm_model.language_model.model.layers.3.mlp.gate.weight']"), %arg213: tensor<2048xbf16> {sdy.sharding = #sdy.sharding<@mesh, [{}]>} loc("params_and_buffers['vllm_model.language_model.model.layers.3.post_attention_layernorm.weight']"), %arg214: tensor<128xbf16> {sdy.sharding = #sdy.sharding<@mesh, [{}]>} loc("params_and_buffers['vllm_model.language_model.model.layers.3.self_attn.k_norm.weight']"), %arg215: tensor<2048x4096xbf16> {sdy.sharding = #sdy.sharding<@mesh, [{}, {"model"}]>} loc("params_and_buffers['vllm_model.language_model.model.layers.3.self_attn.o_proj.weight']"), %arg216: tensor<128xbf16> {sdy.sharding = #sdy.sharding<@mesh, [{}]>} loc("params_and_buffers['vllm_model.language_model.model.layers.3.self_attn.q_norm.weight']"), %arg217: tensor<5120x2048xbf16> {sdy.sharding = #sdy.sharding<@mesh, [{"model"}, {}]>} loc("params_and_buffers['vllm_model.language_model.model.layers.3.self_attn.qkv_proj.weight']"), %arg218: tensor<2048xbf16> {sdy.sharding = #sdy.sharding<@mesh, [{}]>} loc("params_and_buffers['vllm_model.language_model.model.layers.30.input_layernorm.weight']"), %arg219: tensor<128x1536x2048xbf16> {sdy.sharding = #sdy.sharding<@mesh, [{}, {"model"}, {}]>} loc("params_and_buffers['vllm_model.language_model.model.layers.30.mlp.experts.w13_weight']"), %arg220: tensor<128x2048x768xbf16> {mhlo.layout_mode = "{2,1,0:T(8,128)(2,1)}", sdy.sharding = #sdy.sharding<@mesh, [{}, {}, {"model"}]>} loc("params_and_buffers['vllm_model.language_model.model.layers.30.mlp.experts.w2_weight']"), %arg221: tensor<128x2048xbf16> {sdy.sharding = #sdy.sharding<@mesh, [{}, {}]>} loc("params_and_buffers['vllm_model.language_model.model.layers.30.mlp.gate.weight']"), %arg222: tensor<2048xbf16> {sdy.sharding = #sdy.sharding<@mesh, [{}]>} loc("params_and_buffers['vllm_model.language_model.model.layers.30.post_attention_layernorm.weight']"), %arg223: tensor<128xbf16> {sdy.sharding = #sdy.sharding<@mesh, [{}]>} loc("params_and_buffers['vllm_model.language_model.model.layers.30.self_attn.k_norm.weight']"), %arg224: tensor<2048x4096xbf16> {sdy.sharding = #sdy.sharding<@mesh, [{}, {"model"}]>} loc("params_and_buffers['vllm_model.language_model.model.layers.30.self_attn.o_proj.weight']"), %arg225: tensor<128xbf16> {sdy.sharding = #sdy.sharding<@mesh, [{}]>} loc("params_and_buffers['vllm_model.language_model.model.layers.30.self_attn.q_norm.weight']"), %arg226: tensor<5120x2048xbf16> {sdy.sharding = #sdy.sharding<@mesh, [{"model"}, {}]>} loc("params_and_buffers['vllm_model.language_model.model.layers.30.self_attn.qkv_proj.weight']"), %arg227: tensor<2048xbf16> {sdy.sharding = #sdy.sharding<@mesh, [{}]>} loc("params_and_buffers['vllm_model.language_model.model.layers.31.input_layernorm.weight']"), %arg228: tensor<128x1536x2048xbf16> {sdy.sharding = #sdy.sharding<@mesh, [{}, {"model"}, {}]>} loc("params_and_buffers['vllm_model.language_model.model.layers.31.mlp.experts.w13_weight']"), %arg229: tensor<128x2048x768xbf16> {mhlo.layout_mode = "{2,1,0:T(8,128)(2,1)}", sdy.sharding = #sdy.sharding<@mesh, [{}, {}, {"model"}]>} loc("params_and_buffers['vllm_model.language_model.model.layers.31.mlp.experts.w2_weight']"), %arg230: tensor<128x2048xbf16> {sdy.sharding = #sdy.sharding<@mesh, [{}, {}]>} loc("params_and_buffers['vllm_model.language_model.model.layers.31.mlp.gate.weight']"), %arg231: tensor<2048xbf16> {sdy.sharding = #sdy.sharding<@mesh, [{}]>} loc("params_and_buffers['vllm_model.language_model.model.layers.31.post_attention_layernorm.weight']"), %arg232: tensor<128xbf16> {sdy.sharding = #sdy.sharding<@mesh, [{}]>} loc("params_and_buffers['vllm_model.language_model.model.layers.31.self_attn.k_norm.weight']"), %arg233: tensor<2048x4096xbf16> {sdy.sharding = #sdy.sharding<@mesh, [{}, {"model"}]>} loc("params_and_buffers['vllm_model.language_model.model.layers.31.self_attn.o_proj.weight']"), %arg234: tensor<128xbf16> {sdy.sharding = #sdy.sharding<@mesh, [{}]>} loc("params_and_buffers['vllm_model.language_model.model.layers.31.self_attn.q_norm.weight']"), %arg235: tensor<5120x2048xbf16> {sdy.sharding = #sdy.sharding<@mesh, [{"model"}, {}]>} loc("params_and_buffers['vllm_model.language_model.model.layers.31.self_attn.qkv_proj.weight']"), %arg236: tensor<2048xbf16> {sdy.sharding = #sdy.sharding<@mesh, [{}]>} loc("params_and_buffers['vllm_model.language_model.model.layers.32.input_layernorm.weight']"), %arg237: tensor<128x1536x2048xbf16> {sdy.sharding = #sdy.sharding<@mesh, [{}, {"model"}, {}]>} loc("params_and_buffers['vllm_model.language_model.model.layers.32.mlp.experts.w13_weight']"), %arg238: tensor<128x2048x768xbf16> {mhlo.layout_mode = "{2,1,0:T(8,128)(2,1)}", sdy.sharding = #sdy.sharding<@mesh, [{}, {}, {"model"}]>} loc("params_and_buffers['vllm_model.language_model.model.layers.32.mlp.experts.w2_weight']"), %arg239: tensor<128x2048xbf16> {sdy.sharding = #sdy.sharding<@mesh, [{}, {}]>} loc("params_and_buffers['vllm_model.language_model.model.layers.32.mlp.gate.weight']"), %arg240: tensor<2048xbf16> {sdy.sharding = #sdy.sharding<@mesh, [{}]>} loc("params_and_buffers['vllm_model.language_model.model.layers.32.post_attention_layernorm.weight']"), %arg241: tensor<128xbf16> {sdy.sharding = #sdy.sharding<@mesh, [{}]>} loc("params_and_buffers['vllm_model.language_model.model.layers.32.self_attn.k_norm.weight']"), %arg242: tensor<2048x4096xbf16> {sdy.sharding = #sdy.sharding<@mesh, [{}, {"model"}]>} loc("params_and_buffers['vllm_model.language_model.model.layers.32.self_attn.o_proj.weight']"), %arg243: tensor<128xbf16> {sdy.sharding = #sdy.sharding<@mesh, [{}]>} loc("params_and_buffers['vllm_model.language_model.model.layers.32.self_attn.q_norm.weight']"), %arg244: tensor<5120x2048xbf16> {sdy.sharding = #sdy.sharding<@mesh, [{"model"}, {}]>} loc("params_and_buffers['vllm_model.language_model.model.layers.32.self_attn.qkv_proj.weight']"), %arg245: tensor<2048xbf16> {sdy.sharding = #sdy.sharding<@mesh, [{}]>} loc("params_and_buffers['vllm_model.language_model.model.layers.33.input_layernorm.weight']"), %arg246: tensor<128x1536x2048xbf16> {sdy.sharding = #sdy.sharding<@mesh, [{}, {"model"}, {}]>} loc("params_and_buffers['vllm_model.language_model.model.layers.33.mlp.experts.w13_weight']"), %arg247: tensor<128x2048x768xbf16> {mhlo.layout_mode = "{2,1,0:T(8,128)(2,1)}", sdy.sharding = #sdy.sharding<@mesh, [{}, {}, {"model"}]>} loc("params_and_buffers['vllm_model.language_model.model.layers.33.mlp.experts.w2_weight']"), %arg248: tensor<128x2048xbf16> {sdy.sharding = #sdy.sharding<@mesh, [{}, {}]>} loc("params_and_buffers['vllm_model.language_model.model.layers.33.mlp.gate.weight']"), %arg249: tensor<2048xbf16> {sdy.sharding = #sdy.sharding<@mesh, [{}]>} loc("params_and_buffers['vllm_model.language_model.model.layers.33.post_attention_layernorm.weight']"), %arg250: tensor<128xbf16> {sdy.sharding = #sdy.sharding<@mesh, [{}]>} loc("params_and_buffers['vllm_model.language_model.model.layers.33.self_attn.k_norm.weight']"), %arg251: tensor<2048x4096xbf16> {sdy.sharding = #sdy.sharding<@mesh, [{}, {"model"}]>} loc("params_and_buffers['vllm_model.language_model.model.layers.33.self_attn.o_proj.weight']"), %arg252: tensor<128xbf16> {sdy.sharding = #sdy.sharding<@mesh, [{}]>} loc("params_and_buffers['vllm_model.language_model.model.layers.33.self_attn.q_norm.weight']"), %arg253: tensor<5120x2048xbf16> {sdy.sharding = #sdy.sharding<@mesh, [{"model"}, {}]>} loc("params_and_buffers['vllm_model.language_model.model.layers.33.self_attn.qkv_proj.weight']"), %arg254: tensor<2048xbf16> {sdy.sharding = #sdy.sharding<@mesh, [{}]>} loc("params_and_buffers['vllm_model.language_model.model.layers.34.input_layernorm.weight']"), %arg255: tensor<128x1536x2048xbf16> {sdy.sharding = #sdy.sharding<@mesh, [{}, {"model"}, {}]>} loc("params_and_buffers['vllm_model.language_model.model.layers.34.mlp.experts.w13_weight']"), %arg256: tensor<128x2048x768xbf16> {mhlo.layout_mode = "{2,1,0:T(8,128)(2,1)}", sdy.sharding = #sdy.sharding<@mesh, [{}, {}, {"model"}]>} loc("params_and_buffers['vllm_model.language_model.model.layers.34.mlp.experts.w2_weight']"), %arg257: tensor<128x2048xbf16> {sdy.sharding = #sdy.sharding<@mesh, [{}, {}]>} loc("params_and_buffers['vllm_model.language_model.model.layers.34.mlp.gate.weight']"), %arg258: tensor<2048xbf16> {sdy.sharding = #sdy.sharding<@mesh, [{}]>} loc("params_and_buffers['vllm_model.language_model.model.layers.34.post_attention_layernorm.weight']"), %arg259: tensor<128xbf16> {sdy.sharding = #sdy.sharding<@mesh, [{}]>} loc("params_and_buffers['vllm_model.language_model.model.layers.34.self_attn.k_norm.weight']"), %arg260: tensor<2048x4096xbf16> {sdy.sharding = #sdy.sharding<@mesh, [{}, {"model"}]>} loc("params_and_buffers['vllm_model.language_model.model.layers.34.self_attn.o_proj.weight']"), %arg261: tensor<128xbf16> {sdy.sharding = #sdy.sharding<@mesh, [{}]>} loc("params_and_buffers['vllm_model.language_model.model.layers.34.self_attn.q_norm.weight']"), %arg262: tensor<5120x2048xbf16> {sdy.sharding = #sdy.sharding<@mesh, [{"model"}, {}]>} loc("params_and_buffers['vllm_model.language_model.model.layers.34.self_attn.qkv_proj.weight']"), %arg263: tensor<2048xbf16> {sdy.sharding = #sdy.sharding<@mesh, [{}]>} loc("params_and_buffers['vllm_model.language_model.model.layers.35.input_layernorm.weight']"), %arg264: tensor<128x1536x2048xbf16> {sdy.sharding = #sdy.sharding<@mesh, [{}, {"model"}, {}]>} loc("params_and_buffers['vllm_model.language_model.model.layers.35.mlp.experts.w13_weight']"), %arg265: tensor<128x2048x768xbf16> {mhlo.layout_mode = "{2,1,0:T(8,128)(2,1)}", sdy.sharding = #sdy.sharding<@mesh, [{}, {}, {"model"}]>} loc("params_and_buffers['vllm_model.language_model.model.layers.35.mlp.experts.w2_weight']"), %arg266: tensor<128x2048xbf16> {sdy.sharding = #sdy.sharding<@mesh, [{}, {}]>} loc("params_and_buffers['vllm_model.language_model.model.layers.35.mlp.gate.weight']"), %arg267: tensor<2048xbf16> {sdy.sharding = #sdy.sharding<@mesh, [{}]>} loc("params_and_buffers['vllm_model.language_model.model.layers.35.post_attention_layernorm.weight']"), %arg268: tensor<128xbf16> {sdy.sharding = #sdy.sharding<@mesh, [{}]>} loc("params_and_buffers['vllm_model.language_model.model.layers.35.self_attn.k_norm.weight']"), %arg269: tensor<2048x4096xbf16> {sdy.sharding = #sdy.sharding<@mesh, [{}, {"model"}]>} loc("params_and_buffers['vllm_model.language_model.model.layers.35.self_attn.o_proj.weight']"), %arg270: tensor<128xbf16> {sdy.sharding = #sdy.sharding<@mesh, [{}]>} loc("params_and_buffers['vllm_model.language_model.model.layers.35.self_attn.q_norm.weight']"), %arg271: tensor<5120x2048xbf16> {sdy.sharding = #sdy.sharding<@mesh, [{"model"}, {}]>} loc("params_and_buffers['vllm_model.language_model.model.layers.35.self_attn.qkv_proj.weight']"), %arg272: tensor<2048xbf16> {sdy.sharding = #sdy.sharding<@mesh, [{}]>} loc("params_and_buffers['vllm_model.language_model.model.layers.36.input_layernorm.weight']"), %arg273: tensor<128x1536x2048xbf16> {sdy.sharding = #sdy.sharding<@mesh, [{}, {"model"}, {}]>} loc("params_and_buffers['vllm_model.language_model.model.layers.36.mlp.experts.w13_weight']"), %arg274: tensor<128x2048x768xbf16> {mhlo.layout_mode = "{2,1,0:T(8,128)(2,1)}", sdy.sharding = #sdy.sharding<@mesh, [{}, {}, {"model"}]>} loc("params_and_buffers['vllm_model.language_model.model.layers.36.mlp.experts.w2_weight']"), %arg275: tensor<128x2048xbf16> {sdy.sharding = #sdy.sharding<@mesh, [{}, {}]>} loc("params_and_buffers['vllm_model.language_model.model.layers.36.mlp.gate.weight']"), %arg276: tensor<2048xbf16> {sdy.sharding = #sdy.sharding<@mesh, [{}]>} loc("params_and_buffers['vllm_model.language_model.model.layers.36.post_attention_layernorm.weight']"), %arg277: tensor<128xbf16> {sdy.sharding = #sdy.sharding<@mesh, [{}]>} loc("params_and_buffers['vllm_model.language_model.model.layers.36.self_attn.k_norm.weight']"), %arg278: tensor<2048x4096xbf16> {sdy.sharding = #sdy.sharding<@mesh, [{}, {"model"}]>} loc("params_and_buffers['vllm_model.language_model.model.layers.36.self_attn.o_proj.weight']"), %arg279: tensor<128xbf16> {sdy.sharding = #sdy.sharding<@mesh, [{}]>} loc("params_and_buffers['vllm_model.language_model.model.layers.36.self_attn.q_norm.weight']"), %arg280: tensor<5120x2048xbf16> {sdy.sharding = #sdy.sharding<@mesh, [{"model"}, {}]>} loc("params_and_buffers['vllm_model.language_model.model.layers.36.self_attn.qkv_proj.weight']"), %arg281: tensor<2048xbf16> {sdy.sharding = #sdy.sharding<@mesh, [{}]>} loc("params_and_buffers['vllm_model.language_model.model.layers.37.input_layernorm.weight']"), %arg282: tensor<128x1536x2048xbf16> {sdy.sharding = #sdy.sharding<@mesh, [{}, {"model"}, {}]>} loc("params_and_buffers['vllm_model.language_model.model.layers.37.mlp.experts.w13_weight']"), %arg283: tensor<128x2048x768xbf16> {mhlo.layout_mode = "{2,1,0:T(8,128)(2,1)}", sdy.sharding = #sdy.sharding<@mesh, [{}, {}, {"model"}]>} loc("params_and_buffers['vllm_model.language_model.model.layers.37.mlp.experts.w2_weight']"), %arg284: tensor<128x2048xbf16> {sdy.sharding = #sdy.sharding<@mesh, [{}, {}]>} loc("params_and_buffers['vllm_model.language_model.model.layers.37.mlp.gate.weight']"), %arg285: tensor<2048xbf16> {sdy.sharding = #sdy.sharding<@mesh, [{}]>} loc("params_and_buffers['vllm_model.language_model.model.layers.37.post_attention_layernorm.weight']"), %arg286: tensor<128xbf16> {sdy.sharding = #sdy.sharding<@mesh, [{}]>} loc("params_and_buffers['vllm_model.language_model.model.layers.37.self_attn.k_norm.weight']"), %arg287: tensor<2048x4096xbf16> {sdy.sharding = #sdy.sharding<@mesh, [{}, {"model"}]>} loc("params_and_buffers['vllm_model.language_model.model.layers.37.self_attn.o_proj.weight']"), %arg288: tensor<128xbf16> {sdy.sharding = #sdy.sharding<@mesh, [{}]>} loc("params_and_buffers['vllm_model.language_model.model.layers.37.self_attn.q_norm.weight']"), %arg289: tensor<5120x2048xbf16> {sdy.sharding = #sdy.sharding<@mesh, [{"model"}, {}]>} loc("params_and_buffers['vllm_model.language_model.model.layers.37.self_attn.qkv_proj.weight']"), %arg290: tensor<2048xbf16> {sdy.sharding = #sdy.sharding<@mesh, [{}]>} loc("params_and_buffers['vllm_model.language_model.model.layers.38.input_layernorm.weight']"), %arg291: tensor<128x1536x2048xbf16> {sdy.sharding = #sdy.sharding<@mesh, [{}, {"model"}, {}]>} loc("params_and_buffers['vllm_model.language_model.model.layers.38.mlp.experts.w13_weight']"), %arg292: tensor<128x2048x768xbf16> {mhlo.layout_mode = "{2,1,0:T(8,128)(2,1)}", sdy.sharding = #sdy.sharding<@mesh, [{}, {}, {"model"}]>} loc("params_and_buffers['vllm_model.language_model.model.layers.38.mlp.experts.w2_weight']"), %arg293: tensor<128x2048xbf16> {sdy.sharding = #sdy.sharding<@mesh, [{}, {}]>} loc("params_and_buffers['vllm_model.language_model.model.layers.38.mlp.gate.weight']"), %arg294: tensor<2048xbf16> {sdy.sharding = #sdy.sharding<@mesh, [{}]>} loc("params_and_buffers['vllm_model.language_model.model.layers.38.post_attention_layernorm.weight']"), %arg295: tensor<128xbf16> {sdy.sharding = #sdy.sharding<@mesh, [{}]>} loc("params_and_buffers['vllm_model.language_model.model.layers.38.self_attn.k_norm.weight']"), %arg296: tensor<2048x4096xbf16> {sdy.sharding = #sdy.sharding<@mesh, [{}, {"model"}]>} loc("params_and_buffers['vllm_model.language_model.model.layers.38.self_attn.o_proj.weight']"), %arg297: tensor<128xbf16> {sdy.sharding = #sdy.sharding<@mesh, [{}]>} loc("params_and_buffers['vllm_model.language_model.model.layers.38.self_attn.q_norm.weight']"), %arg298: tensor<5120x2048xbf16> {sdy.sharding = #sdy.sharding<@mesh, [{"model"}, {}]>} loc("params_and_buffers['vllm_model.language_model.model.layers.38.self_attn.qkv_proj.weight']"), %arg299: tensor<2048xbf16> {sdy.sharding = #sdy.sharding<@mesh, [{}]>} loc("params_and_buffers['vllm_model.language_model.model.layers.39.input_layernorm.weight']"), %arg300: tensor<128x1536x2048xbf16> {sdy.sharding = #sdy.sharding<@mesh, [{}, {"model"}, {}]>} loc("params_and_buffers['vllm_model.language_model.model.layers.39.mlp.experts.w13_weight']"), %arg301: tensor<128x2048x768xbf16> {mhlo.layout_mode = "{2,1,0:T(8,128)(2,1)}", sdy.sharding = #sdy.sharding<@mesh, [{}, {}, {"model"}]>} loc("params_and_buffers['vllm_model.language_model.model.layers.39.mlp.experts.w2_weight']"), %arg302: tensor<128x2048xbf16> {sdy.sharding = #sdy.sharding<@mesh, [{}, {}]>} loc("params_and_buffers['vllm_model.language_model.model.layers.39.mlp.gate.weight']"), %arg303: tensor<2048xbf16> {sdy.sharding = #sdy.sharding<@mesh, [{}]>} loc("params_and_buffers['vllm_model.language_model.model.layers.39.post_attention_layernorm.weight']"), %arg304: tensor<128xbf16> {sdy.sharding = #sdy.sharding<@mesh, [{}]>} loc("params_and_buffers['vllm_model.language_model.model.layers.39.self_attn.k_norm.weight']"), %arg305: tensor<2048x4096xbf16> {sdy.sharding = #sdy.sharding<@mesh, [{}, {"model"}]>} loc("params_and_buffers['vllm_model.language_model.model.layers.39.self_attn.o_proj.weight']"), %arg306: tensor<128xbf16> {sdy.sharding = #sdy.sharding<@mesh, [{}]>} loc("params_and_buffers['vllm_model.language_model.model.layers.39.self_attn.q_norm.weight']"), %arg307: tensor<5120x2048xbf16> {sdy.sharding = #sdy.sharding<@mesh, [{"model"}, {}]>} loc("params_and_buffers['vllm_model.language_model.model.layers.39.self_attn.qkv_proj.weight']"), %arg308: tensor<2048xbf16> {sdy.sharding = #sdy.sharding<@mesh, [{}]>} loc("params_and_buffers['vllm_model.language_model.model.layers.4.input_layernorm.weight']"), %arg309: tensor<128x1536x2048xbf16> {sdy.sharding = #sdy.sharding<@mesh, [{}, {"model"}, {}]>} loc("params_and_buffers['vllm_model.language_model.model.layers.4.mlp.experts.w13_weight']"), %arg310: tensor<128x2048x768xbf16> {mhlo.layout_mode = "{2,1,0:T(8,128)(2,1)}", sdy.sharding = #sdy.sharding<@mesh, [{}, {}, {"model"}]>} loc("params_and_buffers['vllm_model.language_model.model.layers.4.mlp.experts.w2_weight']"), %arg311: tensor<128x2048xbf16> {sdy.sharding = #sdy.sharding<@mesh, [{}, {}]>} loc("params_and_buffers['vllm_model.language_model.model.layers.4.mlp.gate.weight']"), %arg312: tensor<2048xbf16> {sdy.sharding = #sdy.sharding<@mesh, [{}]>} loc("params_and_buffers['vllm_model.language_model.model.layers.4.post_attention_layernorm.weight']"), %arg313: tensor<128xbf16> {sdy.sharding = #sdy.sharding<@mesh, [{}]>} loc("params_and_buffers['vllm_model.language_model.model.layers.4.self_attn.k_norm.weight']"), %arg314: tensor<2048x4096xbf16> {sdy.sharding = #sdy.sharding<@mesh, [{}, {"model"}]>} loc("params_and_buffers['vllm_model.language_model.model.layers.4.self_attn.o_proj.weight']"), %arg315: tensor<128xbf16> {sdy.sharding = #sdy.sharding<@mesh, [{}]>} loc("params_and_buffers['vllm_model.language_model.model.layers.4.self_attn.q_norm.weight']"), %arg316: tensor<5120x2048xbf16> {sdy.sharding = #sdy.sharding<@mesh, [{"model"}, {}]>} loc("params_and_buffers['vllm_model.language_model.model.layers.4.self_attn.qkv_proj.weight']"), %arg317: tensor<2048xbf16> {sdy.sharding = #sdy.sharding<@mesh, [{}]>} loc("params_and_buffers['vllm_model.language_model.model.layers.40.input_layernorm.weight']"), %arg318: tensor<128x1536x2048xbf16> {sdy.sharding = #sdy.sharding<@mesh, [{}, {"model"}, {}]>} loc("params_and_buffers['vllm_model.language_model.model.layers.40.mlp.experts.w13_weight']"), %arg319: tensor<128x2048x768xbf16> {mhlo.layout_mode = "{2,1,0:T(8,128)(2,1)}", sdy.sharding = #sdy.sharding<@mesh, [{}, {}, {"model"}]>} loc("params_and_buffers['vllm_model.language_model.model.layers.40.mlp.experts.w2_weight']"), %arg320: tensor<128x2048xbf16> {sdy.sharding = #sdy.sharding<@mesh, [{}, {}]>} loc("params_and_buffers['vllm_model.language_model.model.layers.40.mlp.gate.weight']"), %arg321: tensor<2048xbf16> {sdy.sharding = #sdy.sharding<@mesh, [{}]>} loc("params_and_buffers['vllm_model.language_model.model.layers.40.post_attention_layernorm.weight']"), %arg322: tensor<128xbf16> {sdy.sharding = #sdy.sharding<@mesh, [{}]>} loc("params_and_buffers['vllm_model.language_model.model.layers.40.self_attn.k_norm.weight']"), %arg323: tensor<2048x4096xbf16> {sdy.sharding = #sdy.sharding<@mesh, [{}, {"model"}]>} loc("params_and_buffers['vllm_model.language_model.model.layers.40.self_attn.o_proj.weight']"), %arg324: tensor<128xbf16> {sdy.sharding = #sdy.sharding<@mesh, [{}]>} loc("params_and_buffers['vllm_model.language_model.model.layers.40.self_attn.q_norm.weight']"), %arg325: tensor<5120x2048xbf16> {sdy.sharding = #sdy.sharding<@mesh, [{"model"}, {}]>} loc("params_and_buffers['vllm_model.language_model.model.layers.40.self_attn.qkv_proj.weight']"), %arg326: tensor<2048xbf16> {sdy.sharding = #sdy.sharding<@mesh, [{}]>} loc("params_and_buffers['vllm_model.language_model.model.layers.41.input_layernorm.weight']"), %arg327: tensor<128x1536x2048xbf16> {sdy.sharding = #sdy.sharding<@mesh, [{}, {"model"}, {}]>} loc("params_and_buffers['vllm_model.language_model.model.layers.41.mlp.experts.w13_weight']"), %arg328: tensor<128x2048x768xbf16> {mhlo.layout_mode = "{2,1,0:T(8,128)(2,1)}", sdy.sharding = #sdy.sharding<@mesh, [{}, {}, {"model"}]>} loc("params_and_buffers['vllm_model.language_model.model.layers.41.mlp.experts.w2_weight']"), %arg329: tensor<128x2048xbf16> {sdy.sharding = #sdy.sharding<@mesh, [{}, {}]>} loc("params_and_buffers['vllm_model.language_model.model.layers.41.mlp.gate.weight']"), %arg330: tensor<2048xbf16> {sdy.sharding = #sdy.sharding<@mesh, [{}]>} loc("params_and_buffers['vllm_model.language_model.model.layers.41.post_attention_layernorm.weight']"), %arg331: tensor<128xbf16> {sdy.sharding = #sdy.sharding<@mesh, [{}]>} loc("params_and_buffers['vllm_model.language_model.model.layers.41.self_attn.k_norm.weight']"), %arg332: tensor<2048x4096xbf16> {sdy.sharding = #sdy.sharding<@mesh, [{}, {"model"}]>} loc("params_and_buffers['vllm_model.language_model.model.layers.41.self_attn.o_proj.weight']"), %arg333: tensor<128xbf16> {sdy.sharding = #sdy.sharding<@mesh, [{}]>} loc("params_and_buffers['vllm_model.language_model.model.layers.41.self_attn.q_norm.weight']"), %arg334: tensor<5120x2048xbf16> {sdy.sharding = #sdy.sharding<@mesh, [{"model"}, {}]>} loc("params_and_buffers['vllm_model.language_model.model.layers.41.self_attn.qkv_proj.weight']"), %arg335: tensor<2048xbf16> {sdy.sharding = #sdy.sharding<@mesh, [{}]>} loc("params_and_buffers['vllm_model.language_model.model.layers.42.input_layernorm.weight']"), %arg336: tensor<128x1536x2048xbf16> {sdy.sharding = #sdy.sharding<@mesh, [{}, {"model"}, {}]>} loc("params_and_buffers['vllm_model.language_model.model.layers.42.mlp.experts.w13_weight']"), %arg337: tensor<128x2048x768xbf16> {mhlo.layout_mode = "{2,1,0:T(8,128)(2,1)}", sdy.sharding = #sdy.sharding<@mesh, [{}, {}, {"model"}]>} loc("params_and_buffers['vllm_model.language_model.model.layers.42.mlp.experts.w2_weight']"), %arg338: tensor<128x2048xbf16> {sdy.sharding = #sdy.sharding<@mesh, [{}, {}]>} loc("params_and_buffers['vllm_model.language_model.model.layers.42.mlp.gate.weight']"), %arg339: tensor<2048xbf16> {sdy.sharding = #sdy.sharding<@mesh, [{}]>} loc("params_and_buffers['vllm_model.language_model.model.layers.42.post_attention_layernorm.weight']"), %arg340: tensor<128xbf16> {sdy.sharding = #sdy.sharding<@mesh, [{}]>} loc("params_and_buffers['vllm_model.language_model.model.layers.42.self_attn.k_norm.weight']"), %arg341: tensor<2048x4096xbf16> {sdy.sharding = #sdy.sharding<@mesh, [{}, {"model"}]>} loc("params_and_buffers['vllm_model.language_model.model.layers.42.self_attn.o_proj.weight']"), %arg342: tensor<128xbf16> {sdy.sharding = #sdy.sharding<@mesh, [{}]>} loc("params_and_buffers['vllm_model.language_model.model.layers.42.self_attn.q_norm.weight']"), %arg343: tensor<5120x2048xbf16> {sdy.sharding = #sdy.sharding<@mesh, [{"model"}, {}]>} loc("params_and_buffers['vllm_model.language_model.model.layers.42.self_attn.qkv_proj.weight']"), %arg344: tensor<2048xbf16> {sdy.sharding = #sdy.sharding<@mesh, [{}]>} loc("params_and_buffers['vllm_model.language_model.model.layers.43.input_layernorm.weight']"), %arg345: tensor<128x1536x2048xbf16> {sdy.sharding = #sdy.sharding<@mesh, [{}, {"model"}, {}]>} loc("params_and_buffers['vllm_model.language_model.model.layers.43.mlp.experts.w13_weight']"), %arg346: tensor<128x2048x768xbf16> {mhlo.layout_mode = "{2,1,0:T(8,128)(2,1)}", sdy.sharding = #sdy.sharding<@mesh, [{}, {}, {"model"}]>} loc("params_and_buffers['vllm_model.language_model.model.layers.43.mlp.experts.w2_weight']"), %arg347: tensor<128x2048xbf16> {sdy.sharding = #sdy.sharding<@mesh, [{}, {}]>} loc("params_and_buffers['vllm_model.language_model.model.layers.43.mlp.gate.weight']"), %arg348: tensor<2048xbf16> {sdy.sharding = #sdy.sharding<@mesh, [{}]>} loc("params_and_buffers['vllm_model.language_model.model.layers.43.post_attention_layernorm.weight']"), %arg349: tensor<128xbf16> {sdy.sharding = #sdy.sharding<@mesh, [{}]>} loc("params_and_buffers['vllm_model.language_model.model.layers.43.self_attn.k_norm.weight']"), %arg350: tensor<2048x4096xbf16> {sdy.sharding = #sdy.sharding<@mesh, [{}, {"model"}]>} loc("params_and_buffers['vllm_model.language_model.model.layers.43.self_attn.o_proj.weight']"), %arg351: tensor<128xbf16> {sdy.sharding = #sdy.sharding<@mesh, [{}]>} loc("params_and_buffers['vllm_model.language_model.model.layers.43.self_attn.q_norm.weight']"), %arg352: tensor<5120x2048xbf16> {sdy.sharding = #sdy.sharding<@mesh, [{"model"}, {}]>} loc("params_and_buffers['vllm_model.language_model.model.layers.43.self_attn.qkv_proj.weight']"), %arg353: tensor<2048xbf16> {sdy.sharding = #sdy.sharding<@mesh, [{}]>} loc("params_and_buffers['vllm_model.language_model.model.layers.44.input_layernorm.weight']"), %arg354: tensor<128x1536x2048xbf16> {sdy.sharding = #sdy.sharding<@mesh, [{}, {"model"}, {}]>} loc("params_and_buffers['vllm_model.language_model.model.layers.44.mlp.experts.w13_weight']"), %arg355: tensor<128x2048x768xbf16> {mhlo.layout_mode = "{2,1,0:T(8,128)(2,1)}", sdy.sharding = #sdy.sharding<@mesh, [{}, {}, {"model"}]>} loc("params_and_buffers['vllm_model.language_model.model.layers.44.mlp.experts.w2_weight']"), %arg356: tensor<128x2048xbf16> {sdy.sharding = #sdy.sharding<@mesh, [{}, {}]>} loc("params_and_buffers['vllm_model.language_model.model.layers.44.mlp.gate.weight']"), %arg357: tensor<2048xbf16> {sdy.sharding = #sdy.sharding<@mesh, [{}]>} loc("params_and_buffers['vllm_model.language_model.model.layers.44.post_attention_layernorm.weight']"), %arg358: tensor<128xbf16> {sdy.sharding = #sdy.sharding<@mesh, [{}]>} loc("params_and_buffers['vllm_model.language_model.model.layers.44.self_attn.k_norm.weight']"), %arg359: tensor<2048x4096xbf16> {sdy.sharding = #sdy.sharding<@mesh, [{}, {"model"}]>} loc("params_and_buffers['vllm_model.language_model.model.layers.44.self_attn.o_proj.weight']"), %arg360: tensor<128xbf16> {sdy.sharding = #sdy.sharding<@mesh, [{}]>} loc("params_and_buffers['vllm_model.language_model.model.layers.44.self_attn.q_norm.weight']"), %arg361: tensor<5120x2048xbf16> {sdy.sharding = #sdy.sharding<@mesh, [{"model"}, {}]>} loc("params_and_buffers['vllm_model.language_model.model.layers.44.self_attn.qkv_proj.weight']"), %arg362: tensor<2048xbf16> {sdy.sharding = #sdy.sharding<@mesh, [{}]>} loc("params_and_buffers['vllm_model.language_model.model.layers.45.input_layernorm.weight']"), %arg363: tensor<128x1536x2048xbf16> {sdy.sharding = #sdy.sharding<@mesh, [{}, {"model"}, {}]>} loc("params_and_buffers['vllm_model.language_model.model.layers.45.mlp.experts.w13_weight']"), %arg364: tensor<128x2048x768xbf16> {mhlo.layout_mode = "{2,1,0:T(8,128)(2,1)}", sdy.sharding = #sdy.sharding<@mesh, [{}, {}, {"model"}]>} loc("params_and_buffers['vllm_model.language_model.model.layers.45.mlp.experts.w2_weight']"), %arg365: tensor<128x2048xbf16> {sdy.sharding = #sdy.sharding<@mesh, [{}, {}]>} loc("params_and_buffers['vllm_model.language_model.model.layers.45.mlp.gate.weight']"), %arg366: tensor<2048xbf16> {sdy.sharding = #sdy.sharding<@mesh, [{}]>} loc("params_and_buffers['vllm_model.language_model.model.layers.45.post_attention_layernorm.weight']"), %arg367: tensor<128xbf16> {sdy.sharding = #sdy.sharding<@mesh, [{}]>} loc("params_and_buffers['vllm_model.language_model.model.layers.45.self_attn.k_norm.weight']"), %arg368: tensor<2048x4096xbf16> {sdy.sharding = #sdy.sharding<@mesh, [{}, {"model"}]>} loc("params_and_buffers['vllm_model.language_model.model.layers.45.self_attn.o_proj.weight']"), %arg369: tensor<128xbf16> {sdy.sharding = #sdy.sharding<@mesh, [{}]>} loc("params_and_buffers['vllm_model.language_model.model.layers.45.self_attn.q_norm.weight']"), %arg370: tensor<5120x2048xbf16> {sdy.sharding = #sdy.sharding<@mesh, [{"model"}, {}]>} loc("params_and_buffers['vllm_model.language_model.model.layers.45.self_attn.qkv_proj.weight']"), %arg371: tensor<2048xbf16> {sdy.sharding = #sdy.sharding<@mesh, [{}]>} loc("params_and_buffers['vllm_model.language_model.model.layers.46.input_layernorm.weight']"), %arg372: tensor<128x1536x2048xbf16> {sdy.sharding = #sdy.sharding<@mesh, [{}, {"model"}, {}]>} loc("params_and_buffers['vllm_model.language_model.model.layers.46.mlp.experts.w13_weight']"), %arg373: tensor<128x2048x768xbf16> {mhlo.layout_mode = "{2,1,0:T(8,128)(2,1)}", sdy.sharding = #sdy.sharding<@mesh, [{}, {}, {"model"}]>} loc("params_and_buffers['vllm_model.language_model.model.layers.46.mlp.experts.w2_weight']"), %arg374: tensor<128x2048xbf16> {sdy.sharding = #sdy.sharding<@mesh, [{}, {}]>} loc("params_and_buffers['vllm_model.language_model.model.layers.46.mlp.gate.weight']"), %arg375: tensor<2048xbf16> {sdy.sharding = #sdy.sharding<@mesh, [{}]>} loc("params_and_buffers['vllm_model.language_model.model.layers.46.post_attention_layernorm.weight']"), %arg376: tensor<128xbf16> {sdy.sharding = #sdy.sharding<@mesh, [{}]>} loc("params_and_buffers['vllm_model.language_model.model.layers.46.self_attn.k_norm.weight']"), %arg377: tensor<2048x4096xbf16> {sdy.sharding = #sdy.sharding<@mesh, [{}, {"model"}]>} loc("params_and_buffers['vllm_model.language_model.model.layers.46.self_attn.o_proj.weight']"), %arg378: tensor<128xbf16> {sdy.sharding = #sdy.sharding<@mesh, [{}]>} loc("params_and_buffers['vllm_model.language_model.model.layers.46.self_attn.q_norm.weight']"), %arg379: tensor<5120x2048xbf16> {sdy.sharding = #sdy.sharding<@mesh, [{"model"}, {}]>} loc("params_and_buffers['vllm_model.language_model.model.layers.46.self_attn.qkv_proj.weight']"), %arg380: tensor<2048xbf16> {sdy.sharding = #sdy.sharding<@mesh, [{}]>} loc("params_and_buffers['vllm_model.language_model.model.layers.47.input_layernorm.weight']"), %arg381: tensor<128x1536x2048xbf16> {sdy.sharding = #sdy.sharding<@mesh, [{}, {"model"}, {}]>} loc("params_and_buffers['vllm_model.language_model.model.layers.47.mlp.experts.w13_weight']"), %arg382: tensor<128x2048x768xbf16> {mhlo.layout_mode = "{2,1,0:T(8,128)(2,1)}", sdy.sharding = #sdy.sharding<@mesh, [{}, {}, {"model"}]>} loc("params_and_buffers['vllm_model.language_model.model.layers.47.mlp.experts.w2_weight']"), %arg383: tensor<128x2048xbf16> {sdy.sharding = #sdy.sharding<@mesh, [{}, {}]>} loc("params_and_buffers['vllm_model.language_model.model.layers.47.mlp.gate.weight']"), %arg384: tensor<2048xbf16> {sdy.sharding = #sdy.sharding<@mesh, [{}]>} loc("params_and_buffers['vllm_model.language_model.model.layers.47.post_attention_layernorm.weight']"), %arg385: tensor<128xbf16> {sdy.sharding = #sdy.sharding<@mesh, [{}]>} loc("params_and_buffers['vllm_model.language_model.model.layers.47.self_attn.k_norm.weight']"), %arg386: tensor<2048x4096xbf16> {sdy.sharding = #sdy.sharding<@mesh, [{}, {"model"}]>} loc("params_and_buffers['vllm_model.language_model.model.layers.47.self_attn.o_proj.weight']"), %arg387: tensor<128xbf16> {sdy.sharding = #sdy.sharding<@mesh, [{}]>} loc("params_and_buffers['vllm_model.language_model.model.layers.47.self_attn.q_norm.weight']"), %arg388: tensor<5120x2048xbf16> {sdy.sharding = #sdy.sharding<@mesh, [{"model"}, {}]>} loc("params_and_buffers['vllm_model.language_model.model.layers.47.self_attn.qkv_proj.weight']"), %arg389: tensor<2048xbf16> {sdy.sharding = #sdy.sharding<@mesh, [{}]>} loc("params_and_buffers['vllm_model.language_model.model.layers.5.input_layernorm.weight']"), %arg390: tensor<128x1536x2048xbf16> {sdy.sharding = #sdy.sharding<@mesh, [{}, {"model"}, {}]>} loc("params_and_buffers['vllm_model.language_model.model.layers.5.mlp.experts.w13_weight']"), %arg391: tensor<128x2048x768xbf16> {mhlo.layout_mode = "{2,1,0:T(8,128)(2,1)}", sdy.sharding = #sdy.sharding<@mesh, [{}, {}, {"model"}]>} loc("params_and_buffers['vllm_model.language_model.model.layers.5.mlp.experts.w2_weight']"), %arg392: tensor<128x2048xbf16> {sdy.sharding = #sdy.sharding<@mesh, [{}, {}]>} loc("params_and_buffers['vllm_model.language_model.model.layers.5.mlp.gate.weight']"), %arg393: tensor<2048xbf16> {sdy.sharding = #sdy.sharding<@mesh, [{}]>} loc("params_and_buffers['vllm_model.language_model.model.layers.5.post_attention_layernorm.weight']"), %arg394: tensor<128xbf16> {sdy.sharding = #sdy.sharding<@mesh, [{}]>} loc("params_and_buffers['vllm_model.language_model.model.layers.5.self_attn.k_norm.weight']"), %arg395: tensor<2048x4096xbf16> {sdy.sharding = #sdy.sharding<@mesh, [{}, {"model"}]>} loc("params_and_buffers['vllm_model.language_model.model.layers.5.self_attn.o_proj.weight']"), %arg396: tensor<128xbf16> {sdy.sharding = #sdy.sharding<@mesh, [{}]>} loc("params_and_buffers['vllm_model.language_model.model.layers.5.self_attn.q_norm.weight']"), %arg397: tensor<5120x2048xbf16> {sdy.sharding = #sdy.sharding<@mesh, [{"model"}, {}]>} loc("params_and_buffers['vllm_model.language_model.model.layers.5.self_attn.qkv_proj.weight']"), %arg398: tensor<2048xbf16> {sdy.sharding = #sdy.sharding<@mesh, [{}]>} loc("params_and_buffers['vllm_model.language_model.model.layers.6.input_layernorm.weight']"), %arg399: tensor<128x1536x2048xbf16> {sdy.sharding = #sdy.sharding<@mesh, [{}, {"model"}, {}]>} loc("params_and_buffers['vllm_model.language_model.model.layers.6.mlp.experts.w13_weight']"), %arg400: tensor<128x2048x768xbf16> {mhlo.layout_mode = "{2,1,0:T(8,128)(2,1)}", sdy.sharding = #sdy.sharding<@mesh, [{}, {}, {"model"}]>} loc("params_and_buffers['vllm_model.language_model.model.layers.6.mlp.experts.w2_weight']"), %arg401: tensor<128x2048xbf16> {sdy.sharding = #sdy.sharding<@mesh, [{}, {}]>} loc("params_and_buffers['vllm_model.language_model.model.layers.6.mlp.gate.weight']"), %arg402: tensor<2048xbf16> {sdy.sharding = #sdy.sharding<@mesh, [{}]>} loc("params_and_buffers['vllm_model.language_model.model.layers.6.post_attention_layernorm.weight']"), %arg403: tensor<128xbf16> {sdy.sharding = #sdy.sharding<@mesh, [{}]>} loc("params_and_buffers['vllm_model.language_model.model.layers.6.self_attn.k_norm.weight']"), %arg404: tensor<2048x4096xbf16> {sdy.sharding = #sdy.sharding<@mesh, [{}, {"model"}]>} loc("params_and_buffers['vllm_model.language_model.model.layers.6.self_attn.o_proj.weight']"), %arg405: tensor<128xbf16> {sdy.sharding = #sdy.sharding<@mesh, [{}]>} loc("params_and_buffers['vllm_model.language_model.model.layers.6.self_attn.q_norm.weight']"), %arg406: tensor<5120x2048xbf16> {sdy.sharding = #sdy.sharding<@mesh, [{"model"}, {}]>} loc("params_and_buffers['vllm_model.language_model.model.layers.6.self_attn.qkv_proj.weight']"), %arg407: tensor<2048xbf16> {sdy.sharding = #sdy.sharding<@mesh, [{}]>} loc("params_and_buffers['vllm_model.language_model.model.layers.7.input_layernorm.weight']"), %arg408: tensor<128x1536x2048xbf16> {sdy.sharding = #sdy.sharding<@mesh, [{}, {"model"}, {}]>} loc("params_and_buffers['vllm_model.language_model.model.layers.7.mlp.experts.w13_weight']"), %arg409: tensor<128x2048x768xbf16> {mhlo.layout_mode = "{2,1,0:T(8,128)(2,1)}", sdy.sharding = #sdy.sharding<@mesh, [{}, {}, {"model"}]>} loc("params_and_buffers['vllm_model.language_model.model.layers.7.mlp.experts.w2_weight']"), %arg410: tensor<128x2048xbf16> {sdy.sharding = #sdy.sharding<@mesh, [{}, {}]>} loc("params_and_buffers['vllm_model.language_model.model.layers.7.mlp.gate.weight']"), %arg411: tensor<2048xbf16> {sdy.sharding = #sdy.sharding<@mesh, [{}]>} loc("params_and_buffers['vllm_model.language_model.model.layers.7.post_attention_layernorm.weight']"), %arg412: tensor<128xbf16> {sdy.sharding = #sdy.sharding<@mesh, [{}]>} loc("params_and_buffers['vllm_model.language_model.model.layers.7.self_attn.k_norm.weight']"), %arg413: tensor<2048x4096xbf16> {sdy.sharding = #sdy.sharding<@mesh, [{}, {"model"}]>} loc("params_and_buffers['vllm_model.language_model.model.layers.7.self_attn.o_proj.weight']"), %arg414: tensor<128xbf16> {sdy.sharding = #sdy.sharding<@mesh, [{}]>} loc("params_and_buffers['vllm_model.language_model.model.layers.7.self_attn.q_norm.weight']"), %arg415: tensor<5120x2048xbf16> {sdy.sharding = #sdy.sharding<@mesh, [{"model"}, {}]>} loc("params_and_buffers['vllm_model.language_model.model.layers.7.self_attn.qkv_proj.weight']"), %arg416: tensor<2048xbf16> {sdy.sharding = #sdy.sharding<@mesh, [{}]>} loc("params_and_buffers['vllm_model.language_model.model.layers.8.input_layernorm.weight']"), %arg417: tensor<128x1536x2048xbf16> {sdy.sharding = #sdy.sharding<@mesh, [{}, {"model"}, {}]>} loc("params_and_buffers['vllm_model.language_model.model.layers.8.mlp.experts.w13_weight']"), %arg418: tensor<128x2048x768xbf16> {mhlo.layout_mode = "{2,1,0:T(8,128)(2,1)}", sdy.sharding = #sdy.sharding<@mesh, [{}, {}, {"model"}]>} loc("params_and_buffers['vllm_model.language_model.model.layers.8.mlp.experts.w2_weight']"), %arg419: tensor<128x2048xbf16> {sdy.sharding = #sdy.sharding<@mesh, [{}, {}]>} loc("params_and_buffers['vllm_model.language_model.model.layers.8.mlp.gate.weight']"), %arg420: tensor<2048xbf16> {sdy.sharding = #sdy.sharding<@mesh, [{}]>} loc("params_and_buffers['vllm_model.language_model.model.layers.8.post_attention_layernorm.weight']"), %arg421: tensor<128xbf16> {sdy.sharding = #sdy.sharding<@mesh, [{}]>} loc("params_and_buffers['vllm_model.language_model.model.layers.8.self_attn.k_norm.weight']"), %arg422: tensor<2048x4096xbf16> {sdy.sharding = #sdy.sharding<@mesh, [{}, {"model"}]>} loc("params_and_buffers['vllm_model.language_model.model.layers.8.self_attn.o_proj.weight']"), %arg423: tensor<128xbf16> {sdy.sharding = #sdy.sharding<@mesh, [{}]>} loc("params_and_buffers['vllm_model.language_model.model.layers.8.self_attn.q_norm.weight']"), %arg424: tensor<5120x2048xbf16> {sdy.sharding = #sdy.sharding<@mesh, [{"model"}, {}]>} loc("params_and_buffers['vllm_model.language_model.model.layers.8.self_attn.qkv_proj.weight']"), %arg425: tensor<2048xbf16> {sdy.sharding = #sdy.sharding<@mesh, [{}]>} loc("params_and_buffers['vllm_model.language_model.model.layers.9.input_layernorm.weight']"), %arg426: tensor<128x1536x2048xbf16> {sdy.sharding = #sdy.sharding<@mesh, [{}, {"model"}, {}]>} loc("params_and_buffers['vllm_model.language_model.model.layers.9.mlp.experts.w13_weight']"), %arg427: tensor<128x2048x768xbf16> {mhlo.layout_mode = "{2,1,0:T(8,128)(2,1)}", sdy.sharding = #sdy.sharding<@mesh, [{}, {}, {"model"}]>} loc("params_and_buffers['vllm_model.language_model.model.layers.9.mlp.experts.w2_weight']"), %arg428: tensor<128x2048xbf16> {sdy.sharding = #sdy.sharding<@mesh, [{}, {}]>} loc("params_and_buffers['vllm_model.language_model.model.layers.9.mlp.gate.weight']"), %arg429: tensor<2048xbf16> {sdy.sharding = #sdy.sharding<@mesh, [{}]>} loc("params_and_buffers['vllm_model.language_model.model.layers.9.post_attention_layernorm.weight']"), %arg430: tensor<128xbf16> {sdy.sharding = #sdy.sharding<@mesh, [{}]>} loc("params_and_buffers['vllm_model.language_model.model.layers.9.self_attn.k_norm.weight']"), %arg431: tensor<2048x4096xbf16> {sdy.sharding = #sdy.sharding<@mesh, [{}, {"model"}]>} loc("params_and_buffers['vllm_model.language_model.model.layers.9.self_attn.o_proj.weight']"), %arg432: tensor<128xbf16> {sdy.sharding = #sdy.sharding<@mesh, [{}]>} loc("params_and_buffers['vllm_model.language_model.model.layers.9.self_attn.q_norm.weight']"), %arg433: tensor<5120x2048xbf16> {sdy.sharding = #sdy.sharding<@mesh, [{"model"}, {}]>} loc("params_and_buffers['vllm_model.language_model.model.layers.9.self_attn.qkv_proj.weight']"), %arg434: tensor<2048xbf16> {sdy.sharding = #sdy.sharding<@mesh, [{}]>} loc("params_and_buffers['vllm_model.language_model.model.norm.weight']"), %arg435: tensor<14813x32x4x2x128xbf16> {jax.buffer_donor = true, sdy.sharding = #sdy.sharding<@mesh, [{}, {}, {"model"}, {}, {}]>} loc("kv_caches[0]"), %arg436: tensor<14813x32x4x2x128xbf16> {jax.buffer_donor = true, sdy.sharding = #sdy.sharding<@mesh, [{}, {}, {"model"}, {}, {}]>} loc("kv_caches[1]"), %arg437: tensor<14813x32x4x2x128xbf16> {jax.buffer_donor = true, sdy.sharding = #sdy.sharding<@mesh, [{}, {}, {"model"}, {}, {}]>} loc("kv_caches[2]"), %arg438: tensor<14813x32x4x2x128xbf16> {jax.buffer_donor = true, sdy.sharding = #sdy.sharding<@mesh, [{}, {}, {"model"}, {}, {}]>} loc("kv_caches[3]"), %arg439: tensor<14813x32x4x2x128xbf16> {jax.buffer_donor = true, sdy.sharding = #sdy.sharding<@mesh, [{}, {}, {"model"}, {}, {}]>} loc("kv_caches[4]"), %arg440: tensor<14813x32x4x2x128xbf16> {jax.buffer_donor = true, sdy.sharding = #sdy.sharding<@mesh, [{}, {}, {"model"}, {}, {}]>} loc("kv_caches[5]"), %arg441: tensor<14813x32x4x2x128xbf16> {jax.buffer_donor = true, sdy.sharding = #sdy.sharding<@mesh, [{}, {}, {"model"}, {}, {}]>} loc("kv_caches[6]"), %arg442: tensor<14813x32x4x2x128xbf16> {jax.buffer_donor = true, sdy.sharding = #sdy.sharding<@mesh, [{}, {}, {"model"}, {}, {}]>} loc("kv_caches[7]"), %arg443: tensor<14813x32x4x2x128xbf16> {jax.buffer_donor = true, sdy.sharding = #sdy.sharding<@mesh, [{}, {}, {"model"}, {}, {}]>} loc("kv_caches[8]"), %arg444: tensor<14813x32x4x2x128xbf16> {jax.buffer_donor = true, sdy.sharding = #sdy.sharding<@mesh, [{}, {}, {"model"}, {}, {}]>} loc("kv_caches[9]"), %arg445: tensor<14813x32x4x2x128xbf16> {jax.buffer_donor = true, sdy.sharding = #sdy.sharding<@mesh, [{}, {}, {"model"}, {}, {}]>} loc("kv_caches[10]"), %arg446: tensor<14813x32x4x2x128xbf16> {jax.buffer_donor = true, sdy.sharding = #sdy.sharding<@mesh, [{}, {}, {"model"}, {}, {}]>} loc("kv_caches[11]"), %arg447: tensor<14813x32x4x2x128xbf16> {jax.buffer_donor = true, sdy.sharding = #sdy.sharding<@mesh, [{}, {}, {"model"}, {}, {}]>} loc("kv_caches[12]"), %arg448: tensor<14813x32x4x2x128xbf16> {jax.buffer_donor = true, sdy.sharding = #sdy.sharding<@mesh, [{}, {}, {"model"}, {}, {}]>} loc("kv_caches[13]"), %arg449: tensor<14813x32x4x2x128xbf16> {jax.buffer_donor = true, sdy.sharding = #sdy.sharding<@mesh, [{}, {}, {"model"}, {}, {}]>} loc("kv_caches[14]"), %arg450: tensor<14813x32x4x2x128xbf16> {jax.buffer_donor = true, sdy.sharding = #sdy.sharding<@mesh, [{}, {}, {"model"}, {}, {}]>} loc("kv_caches[15]"), %arg451: tensor<14813x32x4x2x128xbf16> {jax.buffer_donor = true, sdy.sharding = #sdy.sharding<@mesh, [{}, {}, {"model"}, {}, {}]>} loc("kv_caches[16]"), %arg452: tensor<14813x32x4x2x128xbf16> {jax.buffer_donor = true, sdy.sharding = #sdy.sharding<@mesh, [{}, {}, {"model"}, {}, {}]>} loc("kv_caches[17]"), %arg453: tensor<14813x32x4x2x128xbf16> {jax.buffer_donor = true, sdy.sharding = #sdy.sharding<@mesh, [{}, {}, {"model"}, {}, {}]>} loc("kv_caches[18]"), %arg454: tensor<14813x32x4x2x128xbf16> {jax.buffer_donor = true, sdy.sharding = #sdy.sharding<@mesh, [{}, {}, {"model"}, {}, {}]>} loc("kv_caches[19]"), %arg455: tensor<14813x32x4x2x128xbf16> {jax.buffer_donor = true, sdy.sharding = #sdy.sharding<@mesh, [{}, {}, {"model"}, {}, {}]>} loc("kv_caches[20]"), %arg456: tensor<14813x32x4x2x128xbf16> {jax.buffer_donor = true, sdy.sharding = #sdy.sharding<@mesh, [{}, {}, {"model"}, {}, {}]>} loc("kv_caches[21]"), %arg457: tensor<14813x32x4x2x128xbf16> {jax.buffer_donor = true, sdy.sharding = #sdy.sharding<@mesh, [{}, {}, {"model"}, {}, {}]>} loc("kv_caches[22]"), %arg458: tensor<14813x32x4x2x128xbf16> {jax.buffer_donor = true, sdy.sharding = #sdy.sharding<@mesh, [{}, {}, {"model"}, {}, {}]>} loc("kv_caches[23]"), %arg459: tensor<14813x32x4x2x128xbf16> {jax.buffer_donor = true, sdy.sharding = #sdy.sharding<@mesh, [{}, {}, {"model"}, {}, {}]>} loc("kv_caches[24]"), %arg460: tensor<14813x32x4x2x128xbf16> {jax.buffer_donor = true, sdy.sharding = #sdy.sharding<@mesh, [{}, {}, {"model"}, {}, {}]>} loc("kv_caches[25]"), %arg461: tensor<14813x32x4x2x128xbf16> {jax.buffer_donor = true, sdy.sharding = #sdy.sharding<@mesh, [{}, {}, {"model"}, {}, {}]>} loc("kv_caches[26]"), %arg462: tensor<14813x32x4x2x128xbf16> {jax.buffer_donor = true, sdy.sharding = #sdy.sharding<@mesh, [{}, {}, {"model"}, {}, {}]>} loc("kv_caches[27]"), %arg463: tensor<14813x32x4x2x128xbf16> {jax.buffer_donor = true, sdy.sharding = #sdy.sharding<@mesh, [{}, {}, {"model"}, {}, {}]>} loc("kv_caches[28]"), %arg464: tensor<14813x32x4x2x128xbf16> {jax.buffer_donor = true, sdy.sharding = #sdy.sharding<@mesh, [{}, {}, {"model"}, {}, {}]>} loc("kv_caches[29]"), %arg465: tensor<14813x32x4x2x128xbf16> {jax.buffer_donor = true, sdy.sharding = #sdy.sharding<@mesh, [{}, {}, {"model"}, {}, {}]>} loc("kv_caches[30]"), %arg466: tensor<14813x32x4x2x128xbf16> {jax.buffer_donor = true, sdy.sharding = #sdy.sharding<@mesh, [{}, {}, {"model"}, {}, {}]>} loc("kv_caches[31]"), %arg467: tensor<14813x32x4x2x128xbf16> {jax.buffer_donor = true, sdy.sharding = #sdy.sharding<@mesh, [{}, {}, {"model"}, {}, {}]>} loc("kv_caches[32]"), %arg468: tensor<14813x32x4x2x128xbf16> {jax.buffer_donor = true, sdy.sharding = #sdy.sharding<@mesh, [{}, {}, {"model"}, {}, {}]>} loc("kv_caches[33]"), %arg469: tensor<14813x32x4x2x128xbf16> {jax.buffer_donor = true, sdy.sharding = #sdy.sharding<@mesh, [{}, {}, {"model"}, {}, {}]>} loc("kv_caches[34]"), %arg470: tensor<14813x32x4x2x128xbf16> {jax.buffer_donor = true, sdy.sharding = #sdy.sharding<@mesh, [{}, {}, {"model"}, {}, {}]>} loc("kv_caches[35]"), %arg471: tensor<14813x32x4x2x128xbf16> {jax.buffer_donor = true, sdy.sharding = #sdy.sharding<@mesh, [{}, {}, {"model"}, {}, {}]>} loc("kv_caches[36]"), %arg472: tensor<14813x32x4x2x128xbf16> {jax.buffer_donor = true, sdy.sharding = #sdy.sharding<@mesh, [{}, {}, {"model"}, {}, {}]>} loc("kv_caches[37]"), %arg473: tensor<14813x32x4x2x128xbf16> {jax.buffer_donor = true, sdy.sharding = #sdy.sharding<@mesh, [{}, {}, {"model"}, {}, {}]>} loc("kv_caches[38]"), %arg474: tensor<14813x32x4x2x128xbf16> {jax.buffer_donor = true, sdy.sharding = #sdy.sharding<@mesh, [{}, {}, {"model"}, {}, {}]>} loc("kv_caches[39]"), %arg475: tensor<14813x32x4x2x128xbf16> {jax.buffer_donor = true, sdy.sharding = #sdy.sharding<@mesh, [{}, {}, {"model"}, {}, {}]>} loc("kv_caches[40]"), %arg476: tensor<14813x32x4x2x128xbf16> {jax.buffer_donor = true, sdy.sharding = #sdy.sharding<@mesh, [{}, {}, {"model"}, {}, {}]>} loc("kv_caches[41]"), %arg477: tensor<14813x32x4x2x128xbf16> {jax.buffer_donor = true, sdy.sharding = #sdy.sharding<@mesh, [{}, {}, {"model"}, {}, {}]>} loc("kv_caches[42]"), %arg478: tensor<14813x32x4x2x128xbf16> {jax.buffer_donor = true, sdy.sharding = #sdy.sharding<@mesh, [{}, {}, {"model"}, {}, {}]>} loc("kv_caches[43]"), %arg479: tensor<14813x32x4x2x128xbf16> {jax.buffer_donor = true, sdy.sharding = #sdy.sharding<@mesh, [{}, {}, {"model"}, {}, {}]>} loc("kv_caches[44]"), %arg480: tensor<14813x32x4x2x128xbf16> {jax.buffer_donor = true, sdy.sharding = #sdy.sharding<@mesh, [{}, {}, {"model"}, {}, {}]>} loc("kv_caches[45]"), %arg481: tensor<14813x32x4x2x128xbf16> {jax.buffer_donor = true, sdy.sharding = #sdy.sharding<@mesh, [{}, {}, {"model"}, {}, {}]>} loc("kv_caches[46]"), %arg482: tensor<14813x32x4x2x128xbf16> {jax.buffer_donor = true, sdy.sharding = #sdy.sharding<@mesh, [{}, {}, {"model"}, {}, {}]>} loc("kv_caches[47]"), %arg483: tensor<16xi32> {sdy.sharding = #sdy.sharding<@mesh, [{}]>} loc("input_ids"), %arg484: tensor<16xi32> {sdy.sharding = #sdy.sharding<@mesh, [{}]>} loc("attn_metadata.input_positions"), %arg485: tensor<131072xi32> {sdy.sharding = #sdy.sharding<@mesh, [{}]>} loc("attn_metadata.block_tables"), %arg486: tensor<256xi32> {sdy.sharding = #sdy.sharding<@mesh, [{}]>} loc("attn_metadata.seq_lens"), %arg487: tensor<257xi32> {sdy.sharding = #sdy.sharding<@mesh, [{}]>} loc("attn_metadata.query_start_loc"), %arg488: tensor<3xi32> {sdy.sharding = #sdy.sharding<@mesh, [{}]>} loc("attn_metadata.request_distribution")) -> (tensor<14813x32x4x2x128xbf16> {jax.result_info = "result[0][0]"}, tensor<14813x32x4x2x128xbf16> {jax.result_info = "result[0][1]"}, tensor<14813x32x4x2x128xbf16> {jax.result_info = "result[0][2]"}, tensor<14813x32x4x2x128xbf16> {jax.result_info = "result[0][3]"}, tensor<14813x32x4x2x128xbf16> {jax.result_info = "result[0][4]"}, tensor<14813x32x4x2x128xbf16> {jax.result_info = "result[0][5]"}, tensor<14813x32x4x2x128xbf16> {jax.result_info = "result[0][6]"}, tensor<14813x32x4x2x128xbf16> {jax.result_info = "result[0][7]"}, tensor<14813x32x4x2x128xbf16> {jax.result_info = "result[0][8]"}, tensor<14813x32x4x2x128xbf16> {jax.result_info = "result[0][9]"}, tensor<14813x32x4x2x128xbf16> {jax.result_info = "result[0][10]"}, tensor<14813x32x4x2x128xbf16> {jax.result_info = "result[0][11]"}, tensor<14813x32x4x2x128xbf16> {jax.result_info = "result[0][12]"}, tensor<14813x32x4x2x128xbf16> {jax.result_info = "result[0][13]"}, tensor<14813x32x4x2x128xbf16> {jax.result_info = "result[0][14]"}, tensor<14813x32x4x2x128xbf16> {jax.result_info = "result[0][15]"}, tensor<14813x32x4x2x128xbf16> {jax.result_info = "result[0][16]"}, tensor<14813x32x4x2x128xbf16> {jax.result_info = "result[0][17]"}, tensor<14813x32x4x2x128xbf16> {jax.result_info = "result[0][18]"}, tensor<14813x32x4x2x128xbf16> {jax.result_info = "result[0][19]"}, tensor<14813x32x4x2x128xbf16> {jax.result_info = "result[0][20]"}, tensor<14813x32x4x2x128xbf16> {jax.result_info = "result[0][21]"}, tensor<14813x32x4x2x128xbf16> {jax.result_info = "result[0][22]"}, tensor<14813x32x4x2x128xbf16> {jax.result_info = "result[0][23]"}, tensor<14813x32x4x2x128xbf16> {jax.result_info = "result[0][24]"}, tensor<14813x32x4x2x128xbf16> {jax.result_info = "result[0][25]"}, tensor<14813x32x4x2x128xbf16> {jax.result_info = "result[0][26]"}, tensor<14813x32x4x2x128xbf16> {jax.result_info = "result[0][27]"}, tensor<14813x32x4x2x128xbf16> {jax.result_info = "result[0][28]"}, tensor<14813x32x4x2x128xbf16> {jax.result_info = "result[0][29]"}, tensor<14813x32x4x2x128xbf16> {jax.result_info = "result[0][30]"}, tensor<14813x32x4x2x128xbf16> {jax.result_info = "result[0][31]"}, tensor<14813x32x4x2x128xbf16> {jax.result_info = "result[0][32]"}, tensor<14813x32x4x2x128xbf16> {jax.result_info = "result[0][33]"}, tensor<14813x32x4x2x128xbf16> {jax.result_info = "result[0][34]"}, tensor<14813x32x4x2x128xbf16> {jax.result_info = "result[0][35]"}, tensor<14813x32x4x2x128xbf16> {jax.result_info = "result[0][36]"}, tensor<14813x32x4x2x128xbf16> {jax.result_info = "result[0][37]"}, tensor<14813x32x4x2x128xbf16> {jax.result_info = "result[0][38]"}, tensor<14813x32x4x2x128xbf16> {jax.result_info = "result[0][39]"}, tensor<14813x32x4x2x128xbf16> {jax.result_info = "result[0][40]"}, tensor<14813x32x4x2x128xbf16> {jax.result_info = "result[0][41]"}, tensor<14813x32x4x2x128xbf16> {jax.result_info = "result[0][42]"}, tensor<14813x32x4x2x128xbf16> {jax.result_info = "result[0][43]"}, tensor<14813x32x4x2x128xbf16> {jax.result_info = "result[0][44]"}, tensor<14813x32x4x2x128xbf16> {jax.result_info = "result[0][45]"}, tensor<14813x32x4x2x128xbf16> {jax.result_info = "result[0][46]"}, tensor<14813x32x4x2x128xbf16> {jax.result_info = "result[0][47]"}, tensor<16x2048xbf16> {jax.result_info = "result[1]"}) {
    %cst = stablehlo.constant dense<1.000000e+00> : tensor<f32> loc(#loc)
    %cst_0 = stablehlo.constant dense<1.000000e+00> : tensor<bf16> loc(#loc)
    %c = stablehlo.constant dense<262144> : tensor<i32> loc(#loc)
    %c_1 = stablehlo.constant dense<0> : tensor<i32> loc(#loc)
    %cst_2 = stablehlo.constant dense<1.280000e+02> : tensor<f32> loc(#loc)
    %cst_3 = stablehlo.constant dense<9.99999997E-7> : tensor<f32> loc(#loc)
    %cst_4 = stablehlo.constant dense<2.048000e+03> : tensor<f32> loc(#loc)
    %cst_5 = stablehlo.constant dense<0.000000e+00> : tensor<f32> loc(#loc)
    %cst_6 = stablehlo.constant dense<2.000000e+00> : tensor<f32> loc(#loc)
    %0 = call @_take(%arg0, %arg483) : (tensor<152064x2048xbf16>, tensor<16xi32>) -> tensor<16x2048xbf16> loc(#loc1671)
    %1 = stablehlo.convert %0 : (tensor<16x2048xbf16>) -> tensor<16x2048xf32> loc(#loc1672)
    %2 = stablehlo.broadcast_in_dim %cst_6, dims = [] : (tensor<f32>) -> tensor<16x2048xf32> loc(#loc1673)
    %3 = stablehlo.power %1, %2 : tensor<16x2048xf32> loc(#loc1673)
    %4 = stablehlo.reduce(%3 init: %cst_5) applies stablehlo.add across dimensions = [1] : (tensor<16x2048xf32>, tensor<f32>) -> tensor<16xf32> loc(#loc1674)
    %5 = stablehlo.broadcast_in_dim %4, dims = [0] : (tensor<16xf32>) -> tensor<16x1xf32> loc(#loc1675)
    %6 = stablehlo.broadcast_in_dim %cst_4, dims = [] : (tensor<f32>) -> tensor<16x1xf32> loc(#loc1676)
    %7 = stablehlo.divide %5, %6 : tensor<16x1xf32> loc(#loc1676)
    %8 = stablehlo.broadcast_in_dim %cst_3, dims = [] : (tensor<f32>) -> tensor<16x1xf32> loc(#loc1677)
    %9 = stablehlo.add %7, %8 : tensor<16x1xf32> loc(#loc1677)
    %10 = stablehlo.rsqrt %9 : tensor<16x1xf32> loc(#loc1678)
    %11 = stablehlo.broadcast_in_dim %10, dims = [0, 1] : (tensor<16x1xf32>) -> tensor<16x2048xf32> loc(#loc1679)
    %12 = stablehlo.multiply %1, %11 : tensor<16x2048xf32> loc(#loc1679)
    %13 = stablehlo.convert %12 : (tensor<16x2048xf32>) -> tensor<16x2048xbf16> loc(#loc1680)
    %14 = stablehlo.broadcast_in_dim %arg1, dims = [1] : (tensor<2048xbf16>) -> tensor<1x2048xbf16> loc(#loc1681)
    %15 = stablehlo.broadcast_in_dim %14, dims = [0, 1] : (tensor<1x2048xbf16>) -> tensor<16x2048xbf16> loc(#loc1682)
    %16 = stablehlo.multiply %13, %15 : tensor<16x2048xbf16> loc(#loc1682)
    %17 = stablehlo.dot_general %16, %arg9, contracting_dims = [1] x [1] : (tensor<16x2048xbf16>, tensor<5120x2048xbf16>) -> tensor<16x5120xbf16> loc(#loc1683)
    %18 = stablehlo.reshape %17 : (tensor<16x5120xbf16>) -> tensor<16x4x1280xbf16> loc(#loc1684)
    %19 = stablehlo.slice %18 [0:16, 0:4, 0:1024] : (tensor<16x4x1280xbf16>) -> tensor<16x4x1024xbf16> loc(#loc1685)
    %20 = stablehlo.reshape %19 : (tensor<16x4x1024xbf16>) -> tensor<16x4096xbf16> loc(#loc1686)
    %21 = stablehlo.slice %18 [0:16, 0:4, 1024:1152] : (tensor<16x4x1280xbf16>) -> tensor<16x4x128xbf16> loc(#loc1685)
    %22 = stablehlo.reshape %21 : (tensor<16x4x128xbf16>) -> tensor<16x512xbf16> loc(#loc1686)
    %23 = stablehlo.slice %18 [0:16, 0:4, 1152:1280] : (tensor<16x4x1280xbf16>) -> tensor<16x4x128xbf16> loc(#loc1685)
    %24 = stablehlo.reshape %23 : (tensor<16x4x128xbf16>) -> tensor<16x512xbf16> loc(#loc1686)
    %25 = stablehlo.concatenate %20, %22, %24, dim = 1 : (tensor<16x4096xbf16>, tensor<16x512xbf16>, tensor<16x512xbf16>) -> tensor<16x5120xbf16> loc(#loc1687)
    %26 = stablehlo.slice %25 [0:16, 0:4096] : (tensor<16x5120xbf16>) -> tensor<16x4096xbf16> loc(#loc1688)
    %27 = stablehlo.slice %25 [0:16, 4096:4608] : (tensor<16x5120xbf16>) -> tensor<16x512xbf16> loc(#loc1688)
    %28 = stablehlo.slice %25 [0:16, 4608:5120] : (tensor<16x5120xbf16>) -> tensor<16x512xbf16> loc(#loc1688)
    %29 = stablehlo.reshape %26 : (tensor<16x4096xbf16>) -> tensor<16x32x128xbf16> loc(#loc1689)
    %30 = stablehlo.convert %29 : (tensor<16x32x128xbf16>) -> tensor<16x32x128xf32> loc(#loc1672)
    %31 = stablehlo.broadcast_in_dim %cst_6, dims = [] : (tensor<f32>) -> tensor<16x32x128xf32> loc(#loc1690)
    %32 = stablehlo.power %30, %31 : tensor<16x32x128xf32> loc(#loc1690)
    %33 = stablehlo.reduce(%32 init: %cst_5) applies stablehlo.add across dimensions = [2] : (tensor<16x32x128xf32>, tensor<f32>) -> tensor<16x32xf32> loc(#loc1691)
    %34 = stablehlo.broadcast_in_dim %33, dims = [0, 1] : (tensor<16x32xf32>) -> tensor<16x32x1xf32> loc(#loc1692)
    %35 = stablehlo.broadcast_in_dim %cst_2, dims = [] : (tensor<f32>) -> tensor<16x32x1xf32> loc(#loc1693)
    %36 = stablehlo.divide %34, %35 : tensor<16x32x1xf32> loc(#loc1693)
    %37 = stablehlo.broadcast_in_dim %cst_3, dims = [] : (tensor<f32>) -> tensor<16x32x1xf32> loc(#loc1694)
    %38 = stablehlo.add %36, %37 : tensor<16x32x1xf32> loc(#loc1694)
    %39 = stablehlo.rsqrt %38 : tensor<16x32x1xf32> loc(#loc1678)
    %40 = stablehlo.broadcast_in_dim %39, dims = [0, 1, 2] : (tensor<16x32x1xf32>) -> tensor<16x32x128xf32> loc(#loc1695)
    %41 = stablehlo.multiply %30, %40 : tensor<16x32x128xf32> loc(#loc1695)
    %42 = stablehlo.convert %41 : (tensor<16x32x128xf32>) -> tensor<16x32x128xbf16> loc(#loc1680)
    %43 = stablehlo.broadcast_in_dim %arg8, dims = [2] : (tensor<128xbf16>) -> tensor<1x1x128xbf16> loc(#loc1696)
    %44 = stablehlo.broadcast_in_dim %43, dims = [0, 1, 2] : (tensor<1x1x128xbf16>) -> tensor<16x32x128xbf16> loc(#loc1697)
    %45 = stablehlo.multiply %42, %44 : tensor<16x32x128xbf16> loc(#loc1697)
    %46 = stablehlo.reshape %45 : (tensor<16x32x128xbf16>) -> tensor<16x4096xbf16> loc(#loc1698)
    %47 = stablehlo.reshape %27 : (tensor<16x512xbf16>) -> tensor<16x4x128xbf16> loc(#loc1699)
    %48 = stablehlo.convert %47 : (tensor<16x4x128xbf16>) -> tensor<16x4x128xf32> loc(#loc1672)
    %49 = stablehlo.broadcast_in_dim %cst_6, dims = [] : (tensor<f32>) -> tensor<16x4x128xf32> loc(#loc1700)
    %50 = stablehlo.power %48, %49 : tensor<16x4x128xf32> loc(#loc1700)
    %51 = stablehlo.reduce(%50 init: %cst_5) applies stablehlo.add across dimensions = [2] : (tensor<16x4x128xf32>, tensor<f32>) -> tensor<16x4xf32> loc(#loc1701)
    %52 = stablehlo.broadcast_in_dim %51, dims = [0, 1] : (tensor<16x4xf32>) -> tensor<16x4x1xf32> loc(#loc1702)
    %53 = stablehlo.broadcast_in_dim %cst_2, dims = [] : (tensor<f32>) -> tensor<16x4x1xf32> loc(#loc1703)
    %54 = stablehlo.divide %52, %53 : tensor<16x4x1xf32> loc(#loc1703)
    %55 = stablehlo.broadcast_in_dim %cst_3, dims = [] : (tensor<f32>) -> tensor<16x4x1xf32> loc(#loc1704)
    %56 = stablehlo.add %54, %55 : tensor<16x4x1xf32> loc(#loc1704)
    %57 = stablehlo.rsqrt %56 : tensor<16x4x1xf32> loc(#loc1678)
    %58 = stablehlo.broadcast_in_dim %57, dims = [0, 1, 2] : (tensor<16x4x1xf32>) -> tensor<16x4x128xf32> loc(#loc1705)
    %59 = stablehlo.multiply %48, %58 : tensor<16x4x128xf32> loc(#loc1705)
    %60 = stablehlo.convert %59 : (tensor<16x4x128xf32>) -> tensor<16x4x128xbf16> loc(#loc1680)
    %61 = stablehlo.broadcast_in_dim %arg6, dims = [2] : (tensor<128xbf16>) -> tensor<1x1x128xbf16> loc(#loc1706)
    %62 = stablehlo.broadcast_in_dim %61, dims = [0, 1, 2] : (tensor<1x1x128xbf16>) -> tensor<16x4x128xbf16> loc(#loc1707)
    %63 = stablehlo.multiply %60, %62 : tensor<16x4x128xbf16> loc(#loc1707)
    %64 = stablehlo.reshape %63 : (tensor<16x4x128xbf16>) -> tensor<16x512xbf16> loc(#loc1708)
    %65 = stablehlo.broadcast_in_dim %c_1, dims = [] : (tensor<i32>) -> tensor<16xi32> loc(#loc1709)
    %66 = stablehlo.compare  LT, %arg484, %65,  SIGNED : (tensor<16xi32>, tensor<16xi32>) -> tensor<16xi1> loc(#loc1709)
    %67 = stablehlo.broadcast_in_dim %c, dims = [] : (tensor<i32>) -> tensor<16xi32> loc(#loc1710)
    %68 = stablehlo.add %arg484, %67 : tensor<16xi32> loc(#loc1710)
    %69 = stablehlo.select %66, %68, %arg484 : tensor<16xi1>, tensor<16xi32> loc(#loc1711)
    %70 = stablehlo.broadcast_in_dim %69, dims = [0] : (tensor<16xi32>) -> tensor<16x1xi32> loc(#loc1712)
    %71 = "stablehlo.gather"(%arg10, %70) <{dimension_numbers = #stablehlo.gather<offset_dims = [1], collapsed_slice_dims = [0], start_index_map = [0], index_vector_dim = 1>, slice_sizes = array<i64: 1, 128>}> : (tensor<262144x128xbf16>, tensor<16x1xi32>) -> tensor<16x128xbf16> loc(#loc1713)
    %72 = stablehlo.slice %71 [0:16, 0:64] : (tensor<16x128xbf16>) -> tensor<16x64xbf16> loc(#loc1714)
    %73 = stablehlo.slice %71 [0:16, 64:128] : (tensor<16x128xbf16>) -> tensor<16x64xbf16> loc(#loc1714)
    %74 = stablehlo.reshape %46 : (tensor<16x4096xbf16>) -> tensor<16x32x128xbf16> loc(#loc1715)
    %75 = stablehlo.broadcast_in_dim %72, dims = [0, 2] : (tensor<16x64xbf16>) -> tensor<16x1x64xbf16> loc(#loc1716)
    %76 = stablehlo.broadcast_in_dim %73, dims = [0, 2] : (tensor<16x64xbf16>) -> tensor<16x1x64xbf16> loc(#loc1717)
    %77 = stablehlo.slice %74 [0:16, 0:32, 0:64] : (tensor<16x32x128xbf16>) -> tensor<16x32x64xbf16> loc(#loc1718)
    %78 = stablehlo.slice %74 [0:16, 0:32, 64:128] : (tensor<16x32x128xbf16>) -> tensor<16x32x64xbf16> loc(#loc1718)
    %79 = stablehlo.broadcast_in_dim %75, dims = [0, 1, 2] : (tensor<16x1x64xbf16>) -> tensor<16x32x64xbf16> loc(#loc1719)
    %80 = stablehlo.multiply %77, %79 : tensor<16x32x64xbf16> loc(#loc1719)
    %81 = stablehlo.broadcast_in_dim %76, dims = [0, 1, 2] : (tensor<16x1x64xbf16>) -> tensor<16x32x64xbf16> loc(#loc1720)
    %82 = stablehlo.multiply %78, %81 : tensor<16x32x64xbf16> loc(#loc1720)
    %83 = stablehlo.broadcast_in_dim %cst_0, dims = [] : (tensor<bf16>) -> tensor<16x32x64xbf16> loc(#loc1721)
    %84 = stablehlo.multiply %82, %83 : tensor<16x32x64xbf16> loc(#loc1721)
    %85 = stablehlo.subtract %80, %84 : tensor<16x32x64xbf16> loc(#loc1722)
    %86 = stablehlo.broadcast_in_dim %75, dims = [0, 1, 2] : (tensor<16x1x64xbf16>) -> tensor<16x32x64xbf16> loc(#loc1723)
    %87 = stablehlo.multiply %78, %86 : tensor<16x32x64xbf16> loc(#loc1723)
    %88 = stablehlo.broadcast_in_dim %76, dims = [0, 1, 2] : (tensor<16x1x64xbf16>) -> tensor<16x32x64xbf16> loc(#loc1724)
    %89 = stablehlo.multiply %77, %88 : tensor<16x32x64xbf16> loc(#loc1724)
    %90 = stablehlo.broadcast_in_dim %cst_0, dims = [] : (tensor<bf16>) -> tensor<16x32x64xbf16> loc(#loc1725)
    %91 = stablehlo.multiply %89, %90 : tensor<16x32x64xbf16> loc(#loc1725)
…
#loc1069 = loc(callsite(#loc739 at #loc1023))
#loc1070 = loc(callsite(#loc744 at #loc1023))
#loc1071 = loc(callsite(#loc746 at #loc1023))
#loc1072 = loc(callsite(#loc765 at #loc1022))
#loc1073 = loc(callsite(#loc766 at #loc1022))
#loc1074 = loc(callsite(#loc734 at #loc1024))
#loc1075 = loc(callsite(#loc737 at #loc1024))
#loc1076 = loc(callsite(#loc739 at #loc1024))
#loc1077 = loc(callsite(#loc744 at #loc1024))
#loc1078 = loc(callsite(#loc746 at #loc1024))
#loc1079 = loc(callsite(#loc768 at #loc1022))
#loc1080 = loc(callsite(#loc723 at #loc1025))
#loc1081 = loc(callsite(#loc718 at #loc1026))
#loc1082 = loc(callsite(#loc774 at #loc1027))
#loc1083 = loc(callsite(#loc776 at #loc1028))
#loc1084 = loc(callsite(#loc779 at #loc1028))
#loc1085 = loc(callsite(#loc718 at #loc1029))
#loc1086 = loc(callsite(#loc781 at #loc1028))
#loc1087 = loc(callsite(#loc782 at #loc1028))
#loc1088 = loc(callsite(#loc784 at #loc1028))
#loc1089 = loc(callsite(#loc786 at #loc1028))
#loc1090 = loc(callsite(#loc787 at #loc1028))
#loc1091 = loc(callsite(#loc789 at #loc1028))
#loc1092 = loc(callsite(#loc791 at #loc1028))
#loc1093 = loc(callsite(#loc796 at #loc1030))
#loc1094 = loc(callsite(#loc802 at #loc1027))
#loc1095 = loc(callsite(#loc803 at #loc1027))
#loc1096 = loc(callsite(#loc804 at #loc1027))
#loc1097 = loc(callsite(#loc776 at #loc1031))
#loc1098 = loc(callsite(#loc779 at #loc1031))
#loc1099 = loc(callsite(#loc718 at #loc1032))
#loc1100 = loc(callsite(#loc781 at #loc1031))
#loc1101 = loc(callsite(#loc782 at #loc1031))
#loc1102 = loc(callsite(#loc784 at #loc1031))
#loc1103 = loc(callsite(#loc786 at #loc1031))
#loc1104 = loc(callsite(#loc787 at #loc1031))
#loc1105 = loc(callsite(#loc789 at #loc1031))
#loc1106 = loc(callsite(#loc791 at #loc1031))
#loc1107 = loc(callsite(#loc806 at #loc1027))
#loc1108 = loc(callsite(#loc807 at #loc1027))
#loc1109 = loc(callsite(#loc810 at #loc1022))
#loc1110 = loc(callsite(#loc732 at #loc1033))
#loc1111 = loc(callsite(#loc731 at #loc1034))
#loc1112 = loc(callsite(#loc728 at #loc1035))
#loc1113 = loc(callsite(#loc814 at #loc1036))
#loc1114 = loc(callsite(#loc728 at #loc1037))
#loc1115 = loc(callsite(#loc734 at #loc1036))
#loc1116 = loc(callsite(#loc737 at #loc1036))
#loc1117 = loc(callsite(#loc739 at #loc1036))
#loc1118 = loc(callsite(#loc744 at #loc1036))
#loc1119 = loc(callsite(#loc746 at #loc1036))
#loc1120 = loc(callsite(#loc732 at #loc1038))
#loc1121 = loc(callsite(#loc731 at #loc1039))
#loc1122 = loc(callsite(#loc730 at #loc1040))
#loc1123 = loc(callsite(#loc814 at #loc1041))
#loc1124 = loc(callsite(#loc734 at #loc1041))
#loc1125 = loc(callsite(#loc737 at #loc1041))
#loc1126 = loc(callsite(#loc739 at #loc1041))
#loc1127 = loc(callsite(#loc744 at #loc1041))
#loc1128 = loc(callsite(#loc746 at #loc1041))
#loc1129 = loc(callsite(#loc814 at #loc1042))
#loc1130 = loc(callsite(#loc734 at #loc1042))
#loc1131 = loc(callsite(#loc737 at #loc1042))
#loc1132 = loc(callsite(#loc739 at #loc1042))
#loc1133 = loc(callsite(#loc744 at #loc1042))
#loc1134 = loc(callsite(#loc746 at #loc1042))
#loc1135 = loc(callsite(#loc732 at #loc1043))
#loc1136 = loc(callsite(#loc731 at #loc1044))
#loc1137 = loc(callsite(#loc809 at #loc1045))
#loc1138 = loc(callsite(#loc830 at #loc1046))
#loc1139 = loc(callsite(#loc829 at #loc1047))
#loc1140 = loc(callsite(#loc808 at #loc1048))
#loc1141 = loc(callsite(#loc822 at #loc1049))
#loc1142 = loc(callsite(#loc821 at #loc1050))
#loc1143 = loc(callsite(#loc820 at #loc1051))
#loc1145 = loc(callsite(#loc874 at #loc1053))
#loc1146 = loc(callsite(#loc717 at #loc1054))
#loc1147 = loc(callsite(#loc727 at #loc1055))
#loc1148 = loc(callsite(#loc718 at #loc1056))
#loc1149 = loc(callsite(#loc718 at #loc1057))
#loc1150 = loc(callsite(#loc718 at #loc1058))
#loc1151 = loc(callsite(#loc716 at #loc1059))
#loc1152 = loc(callsite(#loc718 at #loc1060))
#loc1153 = loc(callsite(#loc727 at #loc1061))
#loc1154 = loc(callsite(#loc718 at #loc1062))
#loc1155 = loc(callsite(#loc731 at #loc1063))
#loc1156 = loc(callsite(#loc749 at #loc1064))
#loc1157 = loc(callsite(#loc716 at #loc1065))
#loc1158 = loc(callsite(#loc718 at #loc1066))
#loc1159 = loc(callsite(#loc718 at #loc1067))
#loc1160 = loc(callsite(#loc718 at #loc1068))
#loc1161 = loc(callsite(#loc718 at #loc1069))
#loc1162 = loc(callsite(#loc718 at #loc1070))
#loc1163 = loc(callsite(#loc718 at #loc1071))
#loc1164 = loc(callsite(#loc718 at #loc1072))
#loc1165 = loc(callsite(#loc718 at #loc1073))
#loc1166 = loc(callsite(#loc718 at #loc1074))
#loc1167 = loc(callsite(#loc718 at #loc1075))
#loc1168 = loc(callsite(#loc718 at #loc1076))
#loc1169 = loc(callsite(#loc718 at #loc1077))
#loc1170 = loc(callsite(#loc718 at #loc1078))
#loc1171 = loc(callsite(#loc718 at #loc1079))
#loc1172 = loc(callsite(#loc771 at #loc1080))
#loc1173 = loc(callsite(#loc716 at #loc1081))
#loc1174 = loc(callsite(#loc718 at #loc1082))
#loc1175 = loc(callsite(#loc718 at #loc1083))
#loc1176 = loc(callsite(#loc718 at #loc1084))
#loc1177 = loc(callsite(#loc716 at #loc1085))
#loc1178 = loc(callsite(#loc718 at #loc1086))
#loc1179 = loc(callsite(#loc718 at #loc1087))
#loc1180 = loc(callsite(#loc718 at #loc1088))
#loc1181 = loc(callsite(#loc718 at #loc1089))
#loc1182 = loc(callsite(#loc718 at #loc1090))
#loc1183 = loc(callsite(#loc718 at #loc1091))
#loc1184 = loc(callsite(#loc718 at #loc1092))
#loc1185 = loc(callsite(#loc795 at #loc1093))
#loc1186 = loc(callsite(#loc718 at #loc1094))
#loc1187 = loc(callsite(#loc718 at #loc1095))
#loc1188 = loc(callsite(#loc718 at #loc1096))
#loc1189 = loc(callsite(#loc718 at #loc1097))
#loc1190 = loc(callsite(#loc718 at #loc1098))
#loc1191 = loc(callsite(#loc716 at #loc1099))
#loc1192 = loc(callsite(#loc718 at #loc1100))
#loc1193 = loc(callsite(#loc718 at #loc1101))
#loc1194 = loc(callsite(#loc718 at #loc1102))
#loc1195 = loc(callsite(#loc718 at #loc1103))
#loc1196 = loc(callsite(#loc718 at #loc1104))
#loc1197 = loc(callsite(#loc718 at #loc1105))
#loc1198 = loc(callsite(#loc718 at #loc1106))
#loc1199 = loc(callsite(#loc718 at #loc1107))
#loc1200 = loc(callsite(#loc718 at #loc1108))
#loc1201 = loc(callsite(#loc732 at #loc1109))
#loc1202 = loc(callsite(#loc731 at #loc1110))
#loc1203 = loc(callsite(#loc811 at #loc1111))
#loc1204 = loc(callsite(#loc727 at #loc1112))
#loc1205 = loc(callsite(#loc718 at #loc1113))
#loc1206 = loc(callsite(#loc727 at #loc1114))
#loc1207 = loc(callsite(#loc718 at #loc1115))
#loc1208 = loc(callsite(#loc718 at #loc1116))
#loc1209 = loc(callsite(#loc718 at #loc1117))
#loc1210 = loc(callsite(#loc718 at #loc1118))
#loc1211 = loc(callsite(#loc718 at #loc1119))
#loc1212 = loc(callsite(#loc731 at #loc1120))
#loc1213 = loc(callsite(#loc817 at #loc1121))
#loc1214 = loc(callsite(#loc723 at #loc1122))
#loc1215 = loc(callsite(#loc718 at #loc1123))
#loc1216 = loc(callsite(#loc718 at #loc1124))
#loc1217 = loc(callsite(#loc718 at #loc1125))
#loc1218 = loc(callsite(#loc718 at #loc1126))
#loc1219 = loc(callsite(#loc718 at #loc1127))
#loc1220 = loc(callsite(#loc718 at #loc1128))
#loc1221 = loc(callsite(#loc718 at #loc1129))
#loc1222 = loc(callsite(#loc718 at #loc1130))
#loc1223 = loc(callsite(#loc718 at #loc1131))
#loc1224 = loc(callsite(#loc718 at #loc1132))
#loc1225 = loc(callsite(#loc718 at #loc1133))
#loc1226 = loc(callsite(#loc718 at #loc1134))
#loc1227 = loc(callsite(#loc731 at #loc1135))
#loc1228 = loc(callsite(#loc809 at #loc1136))
#loc1229 = loc(callsite(#loc808 at #loc1137))
#loc1230 = loc(callsite(#loc829 at #loc1138))
#loc1231 = loc(callsite(#loc832 at #loc1139))
#loc1232 = loc(callsite(#loc830 at #loc1140))
#loc1233 = loc(callsite(#loc821 at #loc1141))
#loc1234 = loc(callsite(#loc820 at #loc1142))
#loc1235 = loc(callsite(#loc853 at #loc1143))
#loc1237 = loc(callsite(#loc874 at #loc1144))
#loc1238 = loc(callsite(#loc873 at #loc1145))
#loc1239 = loc(callsite(#loc716 at #loc1146))
#loc1240 = loc(callsite(#loc726 at #loc1147))
#loc1241 = loc(callsite(#loc716 at #loc1148))
#loc1242 = loc(callsite(#loc716 at #loc1149))
#loc1243 = loc(callsite(#loc716 at #loc1150))
#loc1244 = loc(callsite(#loc715 at #loc1151))
#loc1245 = loc(callsite(#loc716 at #loc1152))
#loc1246 = loc(callsite(#loc726 at #loc1153))
#loc1247 = loc(callsite(#loc716 at #loc1154))
#loc1248 = loc(callsite(#loc749 at #loc1155))
#loc1249 = loc(callsite(#loc748 at #loc1156))
#loc1250 = loc(callsite(#loc715 at #loc1157))
#loc1251 = loc(callsite(#loc716 at #loc1158))
#loc1252 = loc(callsite(#loc716 at #loc1159))
#loc1253 = loc(callsite(#loc716 at #loc1160))
#loc1254 = loc(callsite(#loc716 at #loc1161))
#loc1255 = loc(callsite(#loc716 at #loc1162))
#loc1256 = loc(callsite(#loc716 at #loc1163))
#loc1257 = loc(callsite(#loc716 at #loc1164))
#loc1258 = loc(callsite(#loc716 at #loc1165))
#loc1259 = loc(callsite(#loc716 at #loc1166))
#loc1260 = loc(callsite(#loc716 at #loc1167))
#loc1261 = loc(callsite(#loc716 at #loc1168))
#loc1262 = loc(callsite(#loc716 at #loc1169))
#loc1263 = loc(callsite(#loc716 at #loc1170))
#loc1264 = loc(callsite(#loc716 at #loc1171))
#loc1265 = loc(callsite(#loc728 at #loc1172))
#loc1266 = loc(callsite(#loc715 at #loc1173))
#loc1267 = loc(callsite(#loc716 at #loc1174))
#loc1268 = loc(callsite(#loc716 at #loc1175))
#loc1269 = loc(callsite(#loc716 at #loc1176))
#loc1270 = loc(callsite(#loc715 at #loc1177))
#loc1271 = loc(callsite(#loc716 at #loc1178))
#loc1272 = loc(callsite(#loc716 at #loc1179))
#loc1273 = loc(callsite(#loc716 at #loc1180))
#loc1274 = loc(callsite(#loc716 at #loc1181))
#loc1275 = loc(callsite(#loc716 at #loc1182))
#loc1276 = loc(callsite(#loc716 at #loc1183))
#loc1277 = loc(callsite(#loc716 at #loc1184))
#loc1278 = loc(callsite(#loc794 at #loc1185))
#loc1279 = loc(callsite(#loc716 at #loc1186))
#loc1280 = loc(callsite(#loc716 at #loc1187))
#loc1281 = loc(callsite(#loc716 at #loc1188))
#loc1282 = loc(callsite(#loc716 at #loc1189))
#loc1283 = loc(callsite(#loc716 at #loc1190))
#loc1284 = loc(callsite(#loc715 at #loc1191))
#loc1285 = loc(callsite(#loc716 at #loc1192))
#loc1286 = loc(callsite(#loc716 at #loc1193))
#loc1287 = loc(callsite(#loc716 at #loc1194))
#loc1288 = loc(callsite(#loc716 at #loc1195))
#loc1289 = loc(callsite(#loc716 at #loc1196))
#loc1290 = loc(callsite(#loc716 at #loc1197))
#loc1291 = loc(callsite(#loc716 at #loc1198))
#loc1292 = loc(callsite(#loc716 at #loc1199))
#loc1293 = loc(callsite(#loc716 at #loc1200))
#loc1294 = loc(callsite(#loc731 at #loc1201))
#loc1295 = loc(callsite(#loc811 at #loc1202))
#loc1296 = loc(callsite(#loc748 at #loc1203))
#loc1297 = loc(callsite(#loc726 at #loc1204))
#loc1298 = loc(callsite(#loc716 at #loc1205))
#loc1299 = loc(callsite(#loc726 at #loc1206))
#loc1300 = loc(callsite(#loc716 at #loc1207))
#loc1301 = loc(callsite(#loc716 at #loc1208))
#loc1302 = loc(callsite(#loc716 at #loc1209))
#loc1303 = loc(callsite(#loc716 at #loc1210))
#loc1304 = loc(callsite(#loc716 at #loc1211))
#loc1305 = loc(callsite(#loc817 at #loc1212))
#loc1306 = loc(callsite(#loc748 at #loc1213))
#loc1307 = loc(callsite(#loc822 at #loc1214))
#loc1308 = loc(callsite(#loc716 at #loc1215))
#loc1309 = loc(callsite(#loc716 at #loc1216))
#loc1310 = loc(callsite(#loc716 at #loc1217))
#loc1311 = loc(callsite(#loc716 at #loc1218))
#loc1312 = loc(callsite(#loc716 at #loc1219))
#loc1313 = loc(callsite(#loc716 at #loc1220))
#loc1314 = loc(callsite(#loc716 at #loc1221))
#loc1315 = loc(callsite(#loc716 at #loc1222))
#loc1316 = loc(callsite(#loc716 at #loc1223))
#loc1317 = loc(callsite(#loc716 at #loc1224))
#loc1318 = loc(callsite(#loc716 at #loc1225))
#loc1319 = loc(callsite(#loc716 at #loc1226))
#loc1320 = loc(callsite(#loc809 at #loc1227))
#loc1321 = loc(callsite(#loc808 at #loc1228))
#loc1322 = loc(callsite(#loc830 at #loc1229))
#loc1323 = loc(callsite(#loc832 at #loc1230))
#loc1324 = loc(callsite(#loc834 at #loc1231))
#loc1325 = loc(callsite(#loc829 at #loc1232))
#loc1326 = loc(callsite(#loc820 at #loc1233))
#loc1327 = loc(callsite(#loc853 at #loc1234))
#loc1328 = loc(callsite(#loc868 at #loc1235))
#loc1329 = loc(callsite(#loc874 at #loc1235))
#loc1331 = loc(callsite(#loc873 at #loc1237))
#loc1332 = loc(callsite(#loc875 at #loc1238))
#loc1333 = loc(callsite(#loc715 at #loc1239))
#loc1334 = loc(callsite(#loc725 at #loc1240))
#loc1335 = loc(callsite(#loc715 at #loc1241))
#loc1336 = loc(callsite(#loc715 at #loc1242))
#loc1337 = loc(callsite(#loc715 at #loc1243))
#loc1338 = loc(callsite(#loc741 at #loc1244))
#loc1339 = loc(callsite(#loc715 at #loc1245))
#loc1340 = loc(callsite(#loc725 at #loc1246))
#loc1341 = loc(callsite(#loc715 at #loc1247))
#loc1342 = loc(callsite(#loc748 at #loc1248))
#loc1343 = loc(callsite(#loc753 at #loc1249))
#loc1344 = loc(callsite(#loc758 at #loc1250))
#loc1345 = loc(callsite(#loc715 at #loc1251))
#loc1346 = loc(callsite(#loc715 at #loc1252))
#loc1347 = loc(callsite(#loc715 at #loc1253))
#loc1348 = loc(callsite(#loc715 at #loc1254))
#loc1349 = loc(callsite(#loc715 at #loc1255))
#loc1350 = loc(callsite(#loc715 at #loc1256))
#loc1351 = loc(callsite(#loc715 at #loc1257))
#loc1352 = loc(callsite(#loc715 at #loc1258))
#loc1353 = loc(callsite(#loc715 at #loc1259))
#loc1354 = loc(callsite(#loc715 at #loc1260))
#loc1355 = loc(callsite(#loc715 at #loc1261))
#loc1356 = loc(callsite(#loc715 at #loc1262))
#loc1357 = loc(callsite(#loc715 at #loc1263))
#loc1358 = loc(callsite(#loc715 at #loc1264))
#loc1359 = loc(callsite(#loc770 at #loc1265))
#loc1360 = loc(callsite(#loc758 at #loc1266))
#loc1361 = loc(callsite(#loc715 at #loc1267))
#loc1362 = loc(callsite(#loc715 at #loc1268))
#loc1363 = loc(callsite(#loc715 at #loc1269))
#loc1364 = loc(callsite(#loc758 at #loc1270))
#loc1365 = loc(callsite(#loc715 at #loc1271))
#loc1366 = loc(callsite(#loc715 at #loc1272))
#loc1367 = loc(callsite(#loc715 at #loc1273))
#loc1368 = loc(callsite(#loc715 at #loc1274))
#loc1369 = loc(callsite(#loc715 at #loc1275))
#loc1370 = loc(callsite(#loc715 at #loc1276))
#loc1371 = loc(callsite(#loc715 at #loc1277))
#loc1372 = loc(callsite(#loc793 at #loc1278))
#loc1373 = loc(callsite(#loc715 at #loc1279))
#loc1374 = loc(callsite(#loc715 at #loc1280))
#loc1375 = loc(callsite(#loc715 at #loc1281))
#loc1376 = loc(callsite(#loc715 at #loc1282))
#loc1377 = loc(callsite(#loc715 at #loc1283))
#loc1378 = loc(callsite(#loc758 at #loc1284))
#loc1379 = loc(callsite(#loc715 at #loc1285))
#loc1380 = loc(callsite(#loc715 at #loc1286))
#loc1381 = loc(callsite(#loc715 at #loc1287))
#loc1382 = loc(callsite(#loc715 at #loc1288))
#loc1383 = loc(callsite(#loc715 at #loc1289))
#loc1384 = loc(callsite(#loc715 at #loc1290))
#loc1385 = loc(callsite(#loc715 at #loc1291))
#loc1386 = loc(callsite(#loc715 at #loc1292))
#loc1387 = loc(callsite(#loc715 at #loc1293))
#loc1388 = loc(callsite(#loc809 at #loc1294))
#loc1389 = loc(callsite(#loc748 at #loc1295))
#loc1390 = loc(callsite(#loc753 at #loc1296))
#loc1391 = loc(callsite(#loc725 at #loc1297))
#loc1392 = loc(callsite(#loc715 at #loc1298))
#loc1393 = loc(callsite(#loc725 at #loc1299))
#loc1394 = loc(callsite(#loc715 at #loc1300))
#loc1395 = loc(callsite(#loc715 at #loc1301))
#loc1396 = loc(callsite(#loc715 at #loc1302))
#loc1397 = loc(callsite(#loc715 at #loc1303))
#loc1398 = loc(callsite(#loc715 at #loc1304))
#loc1399 = loc(callsite(#loc748 at #loc1305))
#loc1400 = loc(callsite(#loc753 at #loc1306))
#loc1401 = loc(callsite(#loc821 at #loc1307))
#loc1402 = loc(callsite(#loc715 at #loc1308))
#loc1403 = loc(callsite(#loc715 at #loc1309))
#loc1404 = loc(callsite(#loc715 at #loc1310))
#loc1405 = loc(callsite(#loc715 at #loc1311))
#loc1406 = loc(callsite(#loc715 at #loc1312))
#loc1407 = loc(callsite(#loc715 at #loc1313))
#loc1408 = loc(callsite(#loc715 at #loc1314))
#loc1409 = loc(callsite(#loc715 at #loc1315))
#loc1410 = loc(callsite(#loc715 at #loc1316))
#loc1411 = loc(callsite(#loc715 at #loc1317))
#loc1412 = loc(callsite(#loc715 at #loc1318))
#loc1413 = loc(callsite(#loc715 at #loc1319))
#loc1414 = loc(callsite(#loc808 at #loc1320))
#loc1415 = loc(callsite(#loc830 at #loc1321))
#loc1416 = loc(callsite(#loc829 at #loc1322))
#loc1417 = loc(callsite(#loc834 at #loc1323))
#loc1418 = loc(callsite(#loc839 at #loc1324))
#loc1419 = loc(callsite(#loc832 at #loc1325))
#loc1420 = loc(callsite(#loc849 at #loc1323))
#loc1421 = loc(callsite(#loc853 at #loc1326))
#loc1422 = loc(callsite(#loc868 at #loc1327))
#loc1423 = loc(callsite(#loc869 at #loc1328))
#loc1424 = loc(callsite(#loc874 at #loc1327))
#loc1425 = loc(callsite(#loc873 at #loc1329))
#loc1426 = loc(callsite(#loc867 at #loc1328))
#loc1428 = loc(callsite(#loc875 at #loc1331))
#loc1429 = loc(callsite(#loc886 at #loc1332))
#loc1430 = loc(callsite(#loc714 at #loc1333))
#loc1431 = loc(callsite(#loc724 at #loc1334))
#loc1432 = loc(callsite(#loc733 at #loc1335))
#loc1433 = loc(callsite(#loc736 at #loc1336))
#loc1434 = loc(callsite(#loc738 at #loc1337))
#loc1435 = loc(callsite(#loc740 at #loc1338))
#loc1436 = loc(callsite(#loc743 at #loc1339))
#loc1437 = loc(callsite(#loc724 at #loc1340))
#loc1438 = loc(callsite(#loc743 at #loc1341))
#loc1439 = loc(callsite(#loc747 at #loc1342))
#loc1440 = loc(callsite(#loc752 at #loc1343))
#loc1441 = loc(callsite(#loc754 at #loc1343))
#loc1442 = loc(callsite(#loc755 at #loc1343))
#loc1443 = loc(callsite(#loc756 at #loc1342))
#loc1444 = loc(callsite(#loc757 at #loc1344))
#loc1445 = loc(callsite(#loc762 at #loc1345))
#loc1446 = loc(callsite(#loc733 at #loc1346))
#loc1447 = loc(callsite(#loc736 at #loc1347))
#loc1448 = loc(callsite(#loc738 at #loc1348))
#loc1449 = loc(callsite(#loc743 at #loc1349))
#loc1450 = loc(callsite(#loc743 at #loc1350))
#loc1451 = loc(callsite(#loc762 at #loc1351))
#loc1452 = loc(callsite(#loc762 at #loc1352))
#loc1453 = loc(callsite(#loc733 at #loc1353))
#loc1454 = loc(callsite(#loc736 at #loc1354))
#loc1455 = loc(callsite(#loc738 at #loc1355))
#loc1456 = loc(callsite(#loc743 at #loc1356))
#loc1457 = loc(callsite(#loc743 at #loc1357))
#loc1458 = loc(callsite(#loc762 at #loc1358))
#loc1459 = loc(callsite(#loc769 at #loc1359))
#loc1460 = loc(callsite(#loc757 at #loc1360))
#loc1461 = loc(callsite(#loc762 at #loc1361))
#loc1462 = loc(callsite(#loc775 at #loc1362))
#loc1463 = loc(callsite(#loc775 at #loc1363))
#loc1464 = loc(callsite(#loc757 at #loc1364))
#loc1465 = loc(callsite(#loc743 at #loc1365))
#loc1466 = loc(callsite(#loc743 at #loc1366))
#loc1467 = loc(callsite(#loc783 at #loc1367))
#loc1468 = loc(callsite(#loc785 at #loc1367))
#loc1469 = loc(callsite(#loc743 at #loc1368))
#loc1470 = loc(callsite(#loc743 at #loc1369))
#loc1471 = loc(callsite(#loc788 at #loc1370))
#loc1472 = loc(callsite(#loc738 at #loc1370))
#loc1473 = loc(callsite(#loc790 at #loc1371))
#loc1474 = loc(callsite(#loc792 at #loc1372))
#loc1475 = loc(callsite(#loc790 at #loc1373))
#loc1476 = loc(callsite(#loc762 at #loc1374))
#loc1477 = loc(callsite(#loc762 at #loc1375))
#loc1478 = loc(callsite(#loc775 at #loc1376))
#loc1479 = loc(callsite(#loc775 at #loc1377))
#loc1480 = loc(callsite(#loc757 at #loc1378))
#loc1481 = loc(callsite(#loc743 at #loc1379))
#loc1482 = loc(callsite(#loc743 at #loc1380))
#loc1483 = loc(callsite(#loc783 at #loc1381))
#loc1484 = loc(callsite(#loc785 at #loc1381))
#loc1485 = loc(callsite(#loc743 at #loc1382))
#loc1486 = loc(callsite(#loc743 at #loc1383))
#loc1487 = loc(callsite(#loc788 at #loc1384))
#loc1488 = loc(callsite(#loc738 at #loc1384))
#loc1489 = loc(callsite(#loc790 at #loc1385))
#loc1490 = loc(callsite(#loc790 at #loc1386))
#loc1491 = loc(callsite(#loc762 at #loc1387))
#loc1492 = loc(callsite(#loc808 at #loc1388))
#loc1493 = loc(callsite(#loc747 at #loc1389))
#loc1494 = loc(callsite(#loc752 at #loc1390))
#loc1495 = loc(callsite(#loc755 at #loc1390))
#loc1496 = loc(callsite(#loc724 at #loc1391))
#loc1497 = loc(callsite(#loc788 at #loc1392))
#loc1498 = loc(callsite(#loc738 at #loc1392))
#loc1499 = loc(callsite(#loc724 at #loc1393))
#loc1500 = loc(callsite(#loc733 at #loc1394))
#loc1501 = loc(callsite(#loc736 at #loc1395))
#loc1502 = loc(callsite(#loc738 at #loc1396))
#loc1503 = loc(callsite(#loc743 at #loc1397))
#loc1504 = loc(callsite(#loc743 at #loc1398))
#loc1505 = loc(callsite(#loc747 at #loc1399))
#loc1506 = loc(callsite(#loc752 at #loc1400))
#loc1507 = loc(callsite(#loc755 at #loc1400))
#loc1508 = loc(callsite(#loc820 at #loc1401))
#loc1509 = loc(callsite(#loc788 at #loc1402))
#loc1510 = loc(callsite(#loc738 at #loc1402))
#loc1511 = loc(callsite(#loc733 at #loc1403))
#loc1512 = loc(callsite(#loc736 at #loc1404))
#loc1513 = loc(callsite(#loc738 at #loc1405))
#loc1514 = loc(callsite(#loc743 at #loc1406))
#loc1515 = loc(callsite(#loc743 at #loc1407))
#loc1516 = loc(callsite(#loc788 at #loc1408))
#loc1517 = loc(callsite(#loc738 at #loc1408))
#loc1518 = loc(callsite(#loc733 at #loc1409))
#loc1519 = loc(callsite(#loc736 at #loc1410))
#loc1520 = loc(callsite(#loc738 at #loc1411))
#loc1521 = loc(callsite(#loc743 at #loc1412))
#loc1522 = loc(callsite(#loc743 at #loc1413))
#loc1523 = loc(callsite(#loc826 at #loc1414))
#loc1524 = loc(callsite(#loc827 at #loc1414))
#loc1525 = loc(callsite(#loc828 at #loc1414))
#loc1526 = loc(callsite(#loc829 at #loc1415))
#loc1527 = loc(callsite(#loc831 at #loc1414))
#loc1528 = loc(callsite(#loc832 at #loc1416))
#loc1529 = loc(callsite(#loc833 at #loc1417))
#loc1530 = loc(callsite(#loc835 at #loc1417))
#loc1531 = loc(callsite(#loc836 at #loc1417))
#loc1532 = loc(callsite(#loc837 at #loc1417))
#loc1533 = loc(callsite(#loc838 at #loc1418))
#loc1534 = loc(callsite(#loc840 at #loc1418))
#loc1535 = loc(callsite(#loc841 at #loc1418))
#loc1536 = loc(callsite(#loc842 at #loc1418))
#loc1537 = loc(callsite(#loc843 at #loc1419))
#loc1538 = loc(callsite(#loc844 at #loc1419))
#loc1539 = loc(callsite(#loc845 at #loc1419))
#loc1540 = loc(callsite(#loc846 at #loc1419))
#loc1541 = loc(callsite(#loc847 at #loc1419))
#loc1542 = loc(callsite(#loc848 at #loc1420))
#loc1543 = loc(callsite(#loc850 at #loc1420))
#loc1544 = loc(callsite(#loc851 at #loc1420))
#loc1545 = loc(callsite(#loc852 at #loc1421))
#loc1546 = loc(callsite(#loc854 at #loc1421))
#loc1547 = loc(callsite(#loc855 at #loc1421))
#loc1548 = loc(callsite(#loc856 at #loc1421))
#loc1549 = loc(callsite(#loc857 at #loc1421))
#loc1550 = loc(callsite(#loc858 at #loc1421))
#loc1551 = loc(callsite(#loc859 at #loc1421))
#loc1552 = loc(callsite(#loc860 at #loc1421))
#loc1553 = loc(callsite(#loc861 at #loc1421))
#loc1554 = loc(callsite(#loc862 at #loc1421))
#loc1555 = loc(callsite(#loc863 at #loc1421))
#loc1556 = loc(callsite(#loc864 at #loc1421))
#loc1557 = loc(callsite(#loc865 at #loc1421))
#loc1558 = loc(callsite(#loc866 at #loc1421))
#loc1559 = loc(callsite(#loc867 at #loc1422))
#loc1560 = loc(callsite(#loc752 at #loc1423))
#loc1561 = loc(callsite(#loc754 at #loc1423))
#loc1562 = loc(callsite(#loc755 at #loc1423))
#loc1563 = loc(callsite(#loc870 at #loc1421))
#loc1564 = loc(callsite(#loc871 at #loc1421))
#loc1565 = loc(callsite(#loc872 at #loc1421))
#loc1566 = loc(callsite(#loc873 at #loc1424))
#loc1567 = loc(callsite(#loc875 at #loc1425))
#loc1568 = loc(callsite(#loc876 at #loc1425))
#loc1569 = loc(callsite(#loc877 at #loc1421))
#loc1570 = loc(callsite(#loc878 at #loc1421))
#loc1571 = loc(callsite(#loc879 at #loc1421))
#loc1572 = loc(callsite(#loc880 at #loc1421))
#loc1573 = loc(callsite(#loc881 at #loc1421))
#loc1574 = loc(callsite(#loc882 at #loc1421))
#loc1575 = loc(callsite(#loc883 at #loc1426))
#loc1576 = loc(callsite(#loc884 at #loc1426))
#loc1577 = loc(callsite(#loc885 at #loc1427))
#loc1578 = loc(callsite(#loc887 at #loc1427))
#loc1580 = loc(callsite(#loc889 at #loc1427))
#loc1581 = loc(callsite(#loc890 at #loc1427))
#loc1582 = loc(callsite(#loc891 at #loc1427))
#loc1583 = loc(callsite(#loc892 at #loc1427))
#loc1584 = loc(callsite(#loc893 at #loc1427))
#loc1585 = loc(callsite(#loc894 at #loc1427))
#loc1586 = loc(callsite(#loc895 at #loc1427))
#loc1587 = loc(callsite(#loc896 at #loc1427))
#loc1588 = loc(callsite(#loc897 at #loc1427))
#loc1589 = loc(callsite(#loc898 at #loc1427))
#loc1590 = loc(callsite(#loc899 at #loc1427))
#loc1591 = loc(callsite(#loc900 at #loc1427))
#loc1592 = loc(callsite(#loc901 at #loc1427))
#loc1593 = loc(callsite(#loc902 at #loc1427))
#loc1594 = loc(callsite(#loc903 at #loc1427))
#loc1595 = loc(callsite(#loc904 at #loc1427))
#loc1596 = loc(callsite(#loc905 at #loc1427))
#loc1597 = loc(callsite(#loc906 at #loc1427))
#loc1598 = loc(callsite(#loc907 at #loc1427))
#loc1599 = loc(callsite(#loc908 at #loc1427))
#loc1600 = loc(callsite(#loc909 at #loc1427))
#loc1601 = loc(callsite(#loc910 at #loc1427))
#loc1602 = loc(callsite(#loc911 at #loc1427))
#loc1603 = loc(callsite(#loc912 at #loc1427))
#loc1604 = loc(callsite(#loc913 at #loc1427))
#loc1605 = loc(callsite(#loc914 at #loc1427))
#loc1606 = loc(callsite(#loc915 at #loc1427))
#loc1607 = loc(callsite(#loc916 at #loc1427))
#loc1608 = loc(callsite(#loc917 at #loc1427))
#loc1610 = loc(callsite(#loc919 at #loc1427))
#loc1611 = loc(callsite(#loc920 at #loc1427))
#loc1612 = loc(callsite(#loc921 at #loc1427))
#loc1613 = loc(callsite(#loc922 at #loc1427))
#loc1614 = loc(callsite(#loc923 at #loc1427))
#loc1615 = loc(callsite(#loc924 at #loc1427))
#loc1616 = loc(callsite(#loc925 at #loc1427))
#loc1617 = loc(callsite(#loc926 at #loc1427))
#loc1618 = loc(callsite(#loc927 at #loc1427))
#loc1619 = loc(callsite(#loc928 at #loc1427))
#loc1620 = loc(callsite(#loc929 at #loc1427))
#loc1621 = loc(callsite(#loc930 at #loc1427))
#loc1622 = loc(callsite(#loc931 at #loc1426))
#loc1623 = loc(callsite(#loc883 at #loc1428))
#loc1624 = loc(callsite(#loc884 at #loc1428))
#loc1625 = loc(callsite(#loc885 at #loc1429))
#loc1626 = loc(callsite(#loc887 at #loc1429))
#loc1627 = loc(callsite(#loc888 at #loc1429))
#loc1628 = loc(callsite(#loc889 at #loc1429))
#loc1629 = loc(callsite(#loc890 at #loc1429))
#loc1630 = loc(callsite(#loc891 at #loc1429))
#loc1631 = loc(callsite(#loc892 at #loc1429))
#loc1632 = loc(callsite(#loc893 at #loc1429))
#loc1633 = loc(callsite(#loc894 at #loc1429))
#loc1634 = loc(callsite(#loc895 at #loc1429))
#loc1635 = loc(callsite(#loc896 at #loc1429))
#loc1636 = loc(callsite(#loc897 at #loc1429))
#loc1637 = loc(callsite(#loc898 at #loc1429))
#loc1638 = loc(callsite(#loc899 at #loc1429))
#loc1639 = loc(callsite(#loc900 at #loc1429))
#loc1640 = loc(callsite(#loc901 at #loc1429))
#loc1641 = loc(callsite(#loc902 at #loc1429))
#loc1642 = loc(callsite(#loc903 at #loc1429))
#loc1643 = loc(callsite(#loc904 at #loc1429))
#loc1644 = loc(callsite(#loc905 at #loc1429))
#loc1645 = loc(callsite(#loc906 at #loc1429))
#loc1646 = loc(callsite(#loc907 at #loc1429))
#loc1647 = loc(callsite(#loc908 at #loc1429))
#loc1648 = loc(callsite(#loc909 at #loc1429))
#loc1649 = loc(callsite(#loc910 at #loc1429))
#loc1650 = loc(callsite(#loc911 at #loc1429))
#loc1651 = loc(callsite(#loc912 at #loc1429))
#loc1652 = loc(callsite(#loc913 at #loc1429))
#loc1653 = loc(callsite(#loc914 at #loc1429))
#loc1654 = loc(callsite(#loc915 at #loc1429))
#loc1655 = loc(callsite(#loc916 at #loc1429))
#loc1656 = loc(callsite(#loc917 at #loc1429))
#loc1657 = loc(callsite(#loc918 at #loc1429))
#loc1658 = loc(callsite(#loc919 at #loc1429))
#loc1659 = loc(callsite(#loc920 at #loc1429))
#loc1660 = loc(callsite(#loc921 at #loc1429))
#loc1661 = loc(callsite(#loc922 at #loc1429))
#loc1662 = loc(callsite(#loc923 at #loc1429))
#loc1663 = loc(callsite(#loc924 at #loc1429))
#loc1664 = loc(callsite(#loc925 at #loc1429))
#loc1665 = loc(callsite(#loc926 at #loc1429))
#loc1666 = loc(callsite(#loc927 at #loc1429))
#loc1667 = loc(callsite(#loc928 at #loc1429))
#loc1668 = loc(callsite(#loc929 at #loc1429))
#loc1669 = loc(callsite(#loc930 at #loc1429))
#loc1670 = loc(callsite(#loc931 at #loc1428))
#loc1671 = loc("jit(step_fun)/aten::embedding/jit(_take)"(#loc1430))
#loc1672 = loc("jit(step_fun)/convert_element_type"(#loc1431))
#loc1673 = loc("jit(step_fun)/aten::pow.Tensor_Scalar/pow"(#loc1432))
#loc1674 = loc("jit(step_fun)/aten::mean.dim/reduce_sum"(#loc1433))
#loc1675 = loc("jit(step_fun)/aten::mean.dim/broadcast_in_dim"(#loc1433))
#loc1676 = loc("jit(step_fun)/aten::mean.dim/div"(#loc1433))
#loc1677 = loc("jit(step_fun)/aten::add.Tensor/add"(#loc1434))
#loc1678 = loc("jit(step_fun)/aten::rsqrt/rsqrt"(#loc1435))
#loc1679 = loc("jit(step_fun)/aten::mul.Tensor/mul"(#loc1436))
#loc1680 = loc("jit(step_fun)/convert_element_type"(#loc1437))
#loc1681 = loc("jit(step_fun)/aten::mul.Tensor/broadcast_in_dim"(#loc1438))
#loc1682 = loc("jit(step_fun)/aten::mul.Tensor/mul"(#loc1438))
#loc1683 = loc("jit(step_fun)/QKVParallelLinear/mn,pn->mp/dot_general"(#loc1439))
#loc1684 = loc("jit(step_fun)/QKVParallelLinear/reshape"(#loc1440))
#loc1685 = loc("jit(step_fun)/QKVParallelLinear/slice"(#loc1441))
#loc1686 = loc("jit(step_fun)/QKVParallelLinear/reshape"(#loc1442))
#loc1687 = loc("jit(step_fun)/QKVParallelLinear/concatenate"(#loc1443))
#loc1688 = loc("jit(step_fun)/aten::split_with_sizes/slice"(#loc1444))
#loc1689 = loc("jit(step_fun)/aten::view/reshape"(#loc1445))
#loc1690 = loc("jit(step_fun)/aten::pow.Tensor_Scalar/pow"(#loc1446))
#loc1691 = loc("jit(step_fun)/aten::mean.dim/reduce_sum"(#loc1447))
#loc1692 = loc("jit(step_fun)/aten::mean.dim/broadcast_in_dim"(#loc1447))
#loc1693 = loc("jit(step_fun)/aten::mean.dim/div"(#loc1447))
#loc1694 = loc("jit(step_fun)/aten::add.Tensor/add"(#loc1448))
#loc1695 = loc("jit(step_fun)/aten::mul.Tensor/mul"(#loc1449))
#loc1696 = loc("jit(step_fun)/aten::mul.Tensor/broadcast_in_dim"(#loc1450))
#loc1697 = loc("jit(step_fun)/aten::mul.Tensor/mul"(#loc1450))
#loc1698 = loc("jit(step_fun)/aten::view/reshape"(#loc1451))
#loc1699 = loc("jit(step_fun)/aten::view/reshape"(#loc1452))
#loc1700 = loc("jit(step_fun)/aten::pow.Tensor_Scalar/pow"(#loc1453))
#loc1701 = loc("jit(step_fun)/aten::mean.dim/reduce_sum"(#loc1454))
#loc1702 = loc("jit(step_fun)/aten::mean.dim/broadcast_in_dim"(#loc1454))
#loc1703 = loc("jit(step_fun)/aten::mean.dim/div"(#loc1454))
#loc1704 = loc("jit(step_fun)/aten::add.Tensor/add"(#loc1455))
#loc1705 = loc("jit(step_fun)/aten::mul.Tensor/mul"(#loc1456))
#loc1706 = loc("jit(step_fun)/aten::mul.Tensor/broadcast_in_dim"(#loc1457))
#loc1707 = loc("jit(step_fun)/aten::mul.Tensor/mul"(#loc1457))
#loc1708 = loc("jit(step_fun)/aten::view/reshape"(#loc1458))
#loc1709 = loc("jit(step_fun)/__getitem__/lt"(#loc1459))
#loc1710 = loc("jit(step_fun)/__getitem__/add"(#loc1459))
#loc1711 = loc("jit(step_fun)/__getitem__/select_n"(#loc1459))
#loc1712 = loc("jit(step_fun)/__getitem__/broadcast_in_dim"(#loc1459))
#loc1713 = loc("jit(step_fun)/__getitem__/gather"(#loc1459))
#loc1714 = loc("jit(step_fun)/aten::split.Tensor/slice"(#loc1460))
#loc1715 = loc("jit(step_fun)/aten::view/reshape"(#loc1461))
#loc1716 = loc("jit(step_fun)/aten::unsqueeze/broadcast_in_dim"(#loc1462))
#loc1717 = loc("jit(step_fun)/aten::unsqueeze/broadcast_in_dim"(#loc1463))
#loc1718 = loc("jit(step_fun)/aten::split.Tensor/slice"(#loc1464))
#loc1719 = loc("jit(step_fun)/aten::mul.Tensor/mul"(#loc1465))
#loc1720 = loc("jit(step_fun)/aten::mul.Tensor/mul"(#loc1466))
#loc1721 = loc("jit(step_fun)/aten::sub.Tensor/mul"(#loc1467))
#loc1722 = loc("jit(step_fun)/aten::sub.Tensor/sub"(#loc1468))
#loc1723 = loc("jit(step_fun)/aten::mul.Tensor/mul"(#loc1469))
#loc1724 = loc("jit(step_fun)/aten::mul.Tensor/mul"(#loc1470))
#loc1725 = loc("jit(step_fun)/aten::add.Tensor/mul"(#loc1471))
#loc1726 = loc("jit(step_fun)/aten::add.Tensor/add"(#loc1472))
#loc1727 = loc("jit(step_fun)/aten::cat/concatenate"(#loc1473))
#loc1728 = loc("jit(step_fun)/aten::cat/slice"(#loc1474))
#loc1729 = loc("jit(step_fun)/aten::cat/concatenate"(#loc1475))
#loc1730 = loc("jit(step_fun)/aten::view/reshape"(#loc1476))
#loc1731 = loc("jit(step_fun)/aten::view/reshape"(#loc1477))
#loc1732 = loc("jit(step_fun)/aten::unsqueeze/broadcast_in_dim"(#loc1478))
#loc1733 = loc("jit(step_fun)/aten::unsqueeze/broadcast_in_dim"(#loc1479))
#loc1734 = loc("jit(step_fun)/aten::split.Tensor/slice"(#loc1480))
#loc1735 = loc("jit(step_fun)/aten::mul.Tensor/mul"(#loc1481))
#loc1736 = loc("jit(step_fun)/aten::mul.Tensor/mul"(#loc1482))
#loc1737 = loc("jit(step_fun)/aten::sub.Tensor/mul"(#loc1483))
#loc1738 = loc("jit(step_fun)/aten::sub.Tensor/sub"(#loc1484))
#loc1739 = loc("jit(step_fun)/aten::mul.Tensor/mul"(#loc1485))
#loc1740 = loc("jit(step_fun)/aten::mul.Tensor/mul"(#loc1486))
#loc1741 = loc("jit(step_fun)/aten::add.Tensor/mul"(#loc1487))
#loc1742 = loc("jit(step_fun)/aten::add.Tensor/add"(#loc1488))
#loc1743 = loc("jit(step_fun)/aten::cat/concatenate"(#loc1489))
#loc1744 = loc("jit(step_fun)/aten::cat/concatenate"(#loc1490))
#loc1745 = loc("jit(step_fun)/aten::view/reshape"(#loc1491))
#loc1746 = loc("jit(step_fun)/jit(_jax_attn_func)"(#loc1492))
#loc1747 = loc("jit(step_fun)/RowParallelLinear/mn,pn->mp/dot_general"(#loc1493))
#loc1748 = loc("jit(step_fun)/RowParallelLinear/reshape"(#loc1494))
#loc1749 = loc("jit(step_fun)/RowParallelLinear/reshape"(#loc1495))
#loc1750 = loc("jit(step_fun)/convert_element_type"(#loc1496))
#loc1751 = loc("jit(step_fun)/aten::add.Tensor/mul"(#loc1497))
#loc1752 = loc("jit(step_fun)/aten::add.Tensor/add"(#loc1498))
#loc1753 = loc("jit(step_fun)/convert_element_type"(#loc1499))
#loc1754 = loc("jit(step_fun)/aten::pow.Tensor_Scalar/pow"(#loc1500))
#loc1755 = loc("jit(step_fun)/aten::mean.dim/reduce_sum"(#loc1501))
#loc1756 = loc("jit(step_fun)/aten::mean.dim/broadcast_in_dim"(#loc1501))
#loc1757 = loc("jit(step_fun)/aten::mean.dim/div"(#loc1501))
#loc1758 = loc("jit(step_fun)/aten::add.Tensor/add"(#loc1502))
#loc1759 = loc("jit(step_fun)/aten::mul.Tensor/mul"(#loc1503))
#loc1760 = loc("jit(step_fun)/aten::mul.Tensor/broadcast_in_dim"(#loc1504))
#loc1761 = loc("jit(step_fun)/aten::mul.Tensor/mul"(#loc1504))
#loc1762 = loc("jit(step_fun)/ReplicatedLinear/mn,pn->mp/dot_general"(#loc1505))
#loc1763 = loc("jit(step_fun)/ReplicatedLinear/reshape"(#loc1506))
#loc1764 = loc("jit(step_fun)/ReplicatedLinear/reshape"(#loc1507))
#loc1765 = loc("jit(step_fun)/jit(jax_fused_moe_func_padded)"(#loc1508))
#loc1766 = loc("jit(step_fun)/aten::add.Tensor/mul"(#loc1509))
#loc1767 = loc("jit(step_fun)/aten::add.Tensor/add"(#loc1510))
#loc1768 = loc("jit(step_fun)/aten::pow.Tensor_Scalar/pow"(#loc1511))
#loc1769 = loc("jit(step_fun)/aten::mean.dim/reduce_sum"(#loc1512))
#loc1770 = loc("jit(step_fun)/aten::mean.dim/broadcast_in_dim"(#loc1512))
#loc1771 = loc("jit(step_fun)/aten::mean.dim/div"(#loc1512))
#loc1772 = loc("jit(step_fun)/aten::add.Tensor/add"(#loc1513))
#loc1773 = loc("jit(step_fun)/aten::mul.Tensor/mul"(#loc1514))
#loc1774 = loc("jit(step_fun)/aten::mul.Tensor/broadcast_in_dim"(#loc1515))
#loc1775 = loc("jit(step_fun)/aten::mul.Tensor/mul"(#loc1515))
#loc1776 = loc("jit(step_fun)/aten::add.Tensor/mul"(#loc1516))
#loc1777 = loc("jit(step_fun)/aten::add.Tensor/add"(#loc1517))
#loc1778 = loc("jit(step_fun)/aten::pow.Tensor_Scalar/pow"(#loc1518))
#loc1779 = loc("jit(step_fun)/aten::mean.dim/reduce_sum"(#loc1519))
#loc1780 = loc("jit(step_fun)/aten::mean.dim/broadcast_in_dim"(#loc1519))
#loc1781 = loc("jit(step_fun)/aten::mean.dim/div"(#loc1519))
#loc1782 = loc("jit(step_fun)/aten::add.Tensor/add"(#loc1520))
#loc1783 = loc("jit(step_fun)/aten::mul.Tensor/mul"(#loc1521))
#loc1784 = loc("jit(step_fun)/aten::mul.Tensor/broadcast_in_dim"(#loc1522))
#loc1785 = loc("jit(step_fun)/aten::mul.Tensor/mul"(#loc1522))
#loc1786 = loc("jit(step_fun)/aten::embedding/jit"(#loc1430))
#loc1787 = loc("gather"(#loc1430))
#loc1788 = loc("reduce_and"(#loc1430))
#loc1789 = loc("lt"(#loc1430))
#loc1790 = loc("add"(#loc1430))
#loc1791 = loc("jit(_where)"(#loc1430))
#loc1792 = loc("broadcast_in_dim"(#loc1430))
#loc1793 = loc("ge"(#loc1430))
#loc1794 = loc("le"(#loc1430))
#loc1795 = loc("and"(#loc1430))
#loc1796 = loc("select_n"(#loc1430))
#loc1797 = loc("jit"(#loc1430))
#loc1798 = loc("jit(step_fun)/jit"(#loc1492))
#loc1799 = loc("reshape"(#loc1523))
#loc1800 = loc("reshape"(#loc1524))
#loc1801 = loc("reshape"(#loc1525))
#loc1802 = loc("jit(_ragged_paged_attention)"(#loc1526))
#loc1803 = loc("reshape"(#loc1527))
#loc1804 = loc("jit"(#loc1526))
#loc1805 = loc("shard_map"(#loc1526))
#loc1806 = loc("jit(ragged_paged_attention)"(#loc1528))
#loc1807 = loc("jit"(#loc1528))
#loc1808 = loc("reshape"(#loc1529))
#loc1809 = loc("jit(_pad)"(#loc1530))
#loc1810 = loc("reshape"(#loc1531))
#loc1811 = loc("transpose"(#loc1532))
#loc1812 = loc("concatenate"(#loc1533))
#loc1813 = loc("reshape"(#loc1534))
#loc1814 = loc("jit(_pad)"(#loc1535))
#loc1815 = loc("reshape"(#loc1536))
#loc1816 = loc("slice"(#loc1537))
#loc1817 = loc("squeeze"(#loc1537))
#loc1818 = loc("broadcast_in_dim"(#loc1538))
#loc1819 = loc("broadcast_in_dim"(#loc1539))
#loc1820 = loc("broadcast_in_dim"(#loc1540))
#loc1821 = loc("RPA-bq_16-bkvp_64-p_32/pallas_call"(#loc1541))
#loc1822 = loc("transpose"(#loc1542))
#loc1823 = loc("reshape"(#loc1543))
#loc1824 = loc("reshape"(#loc1544))
#loc1825 = loc("jit"(#loc1530))
#loc1826 = loc("convert_element_type"(#loc1530))
#loc1827 = loc("pad"(#loc1530))
#loc1828 = loc("jit"(#loc1535))
#loc1829 = loc("convert_element_type"(#loc1535))
#loc1830 = loc("pad"(#loc1535))
#loc1831 = loc("jit(step_fun)/jit"(#loc1508))
#loc1832 = loc("convert_element_type"(#loc1545))
#loc1833 = loc("reduce_max"(#loc1546))
#loc1834 = loc("max"(#loc1546))
#loc1835 = loc("broadcast_in_dim"(#loc1546))
#loc1836 = loc("sub"(#loc1546))
#loc1837 = loc("exp"(#loc1546))
#loc1838 = loc("reduce_sum"(#loc1546))
#loc1839 = loc("div"(#loc1546))
#loc1840 = loc("top_k"(#loc1547))
#loc1841 = loc("reduce_sum"(#loc1548))
#loc1842 = loc("broadcast_in_dim"(#loc1548))
#loc1843 = loc("div"(#loc1549))
#loc1844 = loc("convert_element_type"(#loc1550))
#loc1845 = loc("reshape"(#loc1551))
#loc1846 = loc("jit(argsort)"(#loc1552))
#loc1847 = loc("jit(argsort)"(#loc1553))
#loc1848 = loc("iota"(#loc1554))
#loc1849 = loc("broadcast_in_dim"(#loc1555))
#loc1850 = loc("reshape"(#loc1555))
#loc1851 = loc("lt"(#loc1556))
#loc1852 = loc("add"(#loc1556))
#loc1853 = loc("select_n"(#loc1556))
#loc1854 = loc("broadcast_in_dim"(#loc1556))
#loc1855 = loc("gather"(#loc1556))
#loc1856 = loc("broadcast_in_dim"(#loc1557))
#loc1857 = loc("jit(clip)"(#loc1557))
#loc1858 = loc("lt"(#loc1557))
#loc1859 = loc("add"(#loc1557))
#loc1860 = loc("select_n"(#loc1557))
#loc1861 = loc("scatter-add"(#loc1557))
#loc1862 = loc("lt"(#loc1558))
#loc1863 = loc("add"(#loc1558))
#loc1864 = loc("select_n"(#loc1558))
#loc1865 = loc("broadcast_in_dim"(#loc1558))
#loc1866 = loc("gather"(#loc1558))
#loc1867 = loc("shard_map"(#loc1559))
#loc1868 = loc("jit(gmm)"(#loc1559))
#loc1869 = loc("reshape"(#loc1560))
#loc1870 = loc("slice"(#loc1561))
#loc1871 = loc("reshape"(#loc1562))
#loc1872 = loc("jit(silu)"(#loc1563))
#loc1873 = loc("mul"(#loc1564))
#loc1874 = loc("sharding_constraint"(#loc1565))
#loc1875 = loc("shard_map"(#loc1566))
#loc1876 = loc("jit(gmm)"(#loc1567))
#loc1877 = loc("psum"(#loc1568))
#loc1878 = loc("add"(#loc1568))
#loc1879 = loc("lt"(#loc1569))
#loc1880 = loc("add"(#loc1569))
#loc1881 = loc("select_n"(#loc1569))
#loc1882 = loc("broadcast_in_dim"(#loc1569))
#loc1883 = loc("gather"(#loc1569))
#loc1884 = loc("reshape"(#loc1570))
#loc1885 = loc("broadcast_in_dim"(#loc1571))
#loc1886 = loc("mul"(#loc1572))
#loc1887 = loc("convert_element_type"(#loc1573))
#loc1888 = loc("reduce_sum"(#loc1573))
#loc1889 = loc("sharding_constraint"(#loc1574))
#loc1890 = loc("jit"(#loc1552))
#loc1891 = loc("iota"(#loc1552))
#loc1892 = loc("sort"(#loc1552))
#loc1893 = loc("lt_to"(#loc1552))
#loc1894 = loc("jit"(#loc1553))
#loc1895 = loc("iota"(#loc1553))
#loc1896 = loc("sort"(#loc1553))
#loc1897 = loc("lt_to"(#loc1553))
#loc1898 = loc("jit"(#loc1557))
#loc1899 = loc("convert_element_type"(#loc1557))
#loc1900 = loc("max"(#loc1557))
#loc1901 = loc("jit"(#loc1559))
#loc1902 = loc("broadcast_in_dim"(#loc1575))
#loc1903 = loc("slice"(#loc1576))
#loc1904 = loc("squeeze"(#loc1576))
#loc1905 = loc("add"(#loc1577))
#loc1906 = loc("sub"(#loc1578))
#loc1907 = loc("jit(cumsum)"(#loc1579))
#loc1908 = loc("broadcast_in_dim"(#loc1580))
#loc1909 = loc("concatenate"(#loc1581))
#loc1910 = loc("add"(#loc1582))
#loc1911 = loc("sub"(#loc1583))
#loc1912 = loc("jit(floor_divide)"(#loc1584))
#loc1913 = loc("mul"(#loc1585))
#loc1914 = loc("broadcast_in_dim"(#loc1586))
#loc1915 = loc("slice"(#loc1587))
#loc1916 = loc("concatenate"(#loc1588))
#loc1917 = loc("jit(floor_divide)"(#loc1589))
#loc1918 = loc("mul"(#loc1590))
#loc1919 = loc("sub"(#loc1591))
#loc1920 = loc("eq"(#loc1592))
#loc1921 = loc("jit(_where)"(#loc1593))
#loc1922 = loc("jit(floor_divide)"(#loc1594))
#loc1923 = loc("iota"(#loc1595))
#loc1924 = loc("jit(_roll_static)"(#loc1596))
#loc1925 = loc("broadcast_in_dim"(#loc1596))
#loc1926 = loc("scatter"(#loc1596))
#loc1927 = loc("jit(cumsum)"(#loc1596))
#loc1928 = loc("lt"(#loc1596))
#loc1929 = loc("add"(#loc1596))
#loc1930 = loc("select_n"(#loc1596))
#loc1931 = loc("scatter-add"(#loc1596))
#loc1932 = loc("sub"(#loc1596))
#loc1933 = loc("jit(_take)"(#loc1596))
#loc1934 = loc("slice"(#loc1597))
#loc1935 = loc("jit(remainder)"(#loc1598))
#loc1936 = loc("eq"(#loc1599))
#loc1937 = loc("eq"(#loc1600))
#loc1938 = loc("or"(#loc1601))
#loc1939 = loc("slice"(#loc1602))
#loc1940 = loc("jit(floor_divide)"(#loc1603))
#loc1941 = loc("jit(_where)"(#loc1604))
#loc1942 = loc("convert_element_type"(#loc1605))
#loc1943 = loc("broadcast_in_dim"(#loc1605))
#loc1944 = loc("jit(_ptp)"(#loc1605))
#loc1945 = loc("eq"(#loc1605))
#loc1946 = loc("slice"(#loc1605))
#loc1947 = loc("squeeze"(#loc1605))
#loc1948 = loc("sub"(#loc1605))
#loc1949 = loc("jit(_where)"(#loc1605))
#loc1950 = loc("add"(#loc1605))
#loc1951 = loc("jit(_linspace)"(#loc1605))
#loc1952 = loc("jit(searchsorted)"(#loc1605))
#loc1953 = loc("dynamic_slice"(#loc1605))
#loc1954 = loc("lt"(#loc1605))
#loc1955 = loc("select_n"(#loc1605))
#loc1956 = loc("scatter-add"(#loc1605))
#loc1957 = loc("add"(#loc1606))
#loc1958 = loc("iota"(#loc1607))
#loc1959 = loc("convert_element_type"(#loc1608))
#loc1960 = loc("jit(_roll_static)"(#loc1609))
#loc1961 = loc("broadcast_in_dim"(#loc1609))
#loc1962 = loc("scatter"(#loc1609))
#loc1963 = loc("jit(cumsum)"(#loc1609))
#loc1964 = loc("lt"(#loc1609))
#loc1965 = loc("add"(#loc1609))
#loc1966 = loc("select_n"(#loc1609))
#loc1967 = loc("scatter-add"(#loc1609))
#loc1968 = loc("sub"(#loc1609))
#loc1969 = loc("jit(_take)"(#loc1609))
#loc1970 = loc("convert_element_type"(#loc1610))
#loc1971 = loc("lt"(#loc1610))
#loc1972 = loc("convert_element_type"(#loc1611))
#loc1973 = loc("reduce_sum"(#loc1611))
#loc1974 = loc("neg"(#loc1612))
#loc1975 = loc("jit(_roll_dynamic)"(#loc1613))
#loc1976 = loc("neg"(#loc1614))
#loc1977 = loc("jit(_roll_dynamic)"(#loc1615))
#loc1978 = loc("iota"(#loc1616))
#loc1979 = loc("convert_element_type"(#loc1617))
#loc1980 = loc("le"(#loc1617))
#loc1981 = loc("convert_element_type"(#loc1618))
#loc1982 = loc("ge"(#loc1618))
#loc1983 = loc("and"(#loc1619))
#loc1984 = loc("jit(_where)"(#loc1620))
#loc1985 = loc("reduce_sum"(#loc1621))
#loc1986 = loc("pallas_call"(#loc1622))
#loc1987 = loc("jit"(#loc1579))
#loc1988 = loc("reduce_window_sum"(#loc1579))
#loc1989 = loc("jit"(#loc1584))
#loc1990 = loc("convert_element_type"(#loc1584))
#loc1991 = loc("div"(#loc1584))
#loc1992 = loc("sign"(#loc1584))
#loc1993 = loc("ne"(#loc1584))
#loc1994 = loc("rem"(#loc1584))
#loc1995 = loc("and"(#loc1584))
#loc1996 = loc("sub"(#loc1584))
#loc1997 = loc("jit(_where)"(#loc1584))
#loc1998 = loc("select_n"(#loc1584))
#loc1999 = loc("jit"(#loc1593))
#loc2000 = loc("convert_element_type"(#loc1593))
#loc2001 = loc("broadcast_in_dim"(#loc1593))
#loc2002 = loc("select_n"(#loc1593))
#loc2003 = loc("jit"(#loc1596))
#loc2004 = loc("slice"(#loc1596))
#loc2005 = loc("concatenate"(#loc1596))
#loc2006 = loc("gather"(#loc1596))
#loc2007 = loc("reduce_and"(#loc1596))
#loc2008 = loc("jit(_where)"(#loc1596))
#loc2009 = loc("ge"(#loc1596))
#loc2010 = loc("le"(#loc1596))
#loc2011 = loc("and"(#loc1596))
#loc2012 = loc("jit"(#loc1598))
#loc2013 = loc("convert_element_type"(#loc1598))
#loc2014 = loc("eq"(#loc1598))
#loc2015 = loc("broadcast_in_dim"(#loc1598))
#loc2016 = loc("jit(_where)"(#loc1598))
#loc2017 = loc("rem"(#loc1598))
#loc2018 = loc("ne"(#loc1598))
#loc2019 = loc("lt"(#loc1598))
#loc2020 = loc("and"(#loc1598))
#loc2021 = loc("add"(#loc1598))
#loc2022 = loc("select_n"(#loc1598))
#loc2023 = loc("jit"(#loc1605))
#loc2024 = loc("reduce_min"(#loc1605))
#loc2025 = loc("reduce_max"(#loc1605))
#loc2026 = loc("iota"(#loc1605))
#loc2027 = loc("div"(#loc1605))
#loc2028 = loc("reshape"(#loc1605))
#loc2029 = loc("mul"(#loc1605))
#loc2030 = loc("concatenate"(#loc1605))
#loc2031 = loc("vmap()/broadcast_in_dim"(#loc1605))
#loc2032 = loc("vmap()/while"(#loc1605))
#loc2033 = loc("vmap()/while/cond/lt"(#loc1605))
#loc2034 = loc("vmap()/while/body/closed_call"(#loc1605))
#loc2035 = loc("vmap()/while/body/add"(#loc1605))
#loc2036 = loc("while/body/closed_call"(#loc1605))
#loc2037 = loc("gather"(#loc1605))
#loc2038 = loc("ne"(#loc1605))
#loc2039 = loc("lt_to"(#loc1605))
#loc2040 = loc("jit"(#loc1609))
#loc2041 = loc("slice"(#loc1609))
#loc2042 = loc("concatenate"(#loc1609))
#loc2043 = loc("reduce_window_sum"(#loc1609))
#loc2044 = loc("gather"(#loc1609))
#loc2045 = loc("reduce_and"(#loc1609))
#loc2046 = loc("jit(_where)"(#loc1609))
#loc2047 = loc("ge"(#loc1609))
#loc2048 = loc("le"(#loc1609))
#loc2049 = loc("and"(#loc1609))
#loc2050 = loc("jit"(#loc1613))
#loc2051 = loc("broadcast_in_dim"(#loc1613))
#loc2052 = loc("slice"(#loc1613))
#loc2053 = loc("squeeze"(#loc1613))
#loc2054 = loc("max"(#loc1613))
#loc2055 = loc("jit(remainder)"(#loc1613))
#loc2056 = loc("concatenate"(#loc1613))
#loc2057 = loc("sub"(#loc1613))
#loc2058 = loc("lt"(#loc1613))
#loc2059 = loc("add"(#loc1613))
#loc2060 = loc("select_n"(#loc1613))
#loc2061 = loc("dynamic_slice"(#loc1613))
#loc2062 = loc("eq"(#loc1613))
#loc2063 = loc("jit(_where)"(#loc1613))
#loc2064 = loc("rem"(#loc1613))
#loc2065 = loc("ne"(#loc1613))
#loc2066 = loc("and"(#loc1613))
#loc2067 = loc("jit"(#loc1620))
#loc2068 = loc("convert_element_type"(#loc1620))
#loc2069 = loc("broadcast_in_dim"(#loc1620))
#loc2070 = loc("select_n"(#loc1620))
#loc2071 = loc("jit"(#loc1563))
#loc2072 = loc("neg"(#loc1563))
#loc2073 = loc("exp"(#loc1563))
#loc2074 = loc("add"(#loc1563))
#loc2075 = loc("div"(#loc1563))
#loc2076 = loc("mul"(#loc1563))
#loc2077 = loc("jit"(#loc1567))
#loc2078 = loc("broadcast_in_dim"(#loc1623))
#loc2079 = loc("slice"(#loc1624))
#loc2080 = loc("squeeze"(#loc1624))
#loc2081 = loc("add"(#loc1625))
#loc2082 = loc("sub"(#loc1626))
#loc2083 = loc("jit(cumsum)"(#loc1627))
#loc2084 = loc("broadcast_in_dim"(#loc1628))
#loc2085 = loc("concatenate"(#loc1629))
#loc2086 = loc("add"(#loc1630))
#loc2087 = loc("sub"(#loc1631))
#loc2088 = loc("jit(floor_divide)"(#loc1632))
#loc2089 = loc("mul"(#loc1633))
#loc2090 = loc("broadcast_in_dim"(#loc1634))
#loc2091 = loc("slice"(#loc1635))
#loc2092 = loc("concatenate"(#loc1636))
#loc2093 = loc("jit(floor_divide)"(#loc1637))
#loc2094 = loc("mul"(#loc1638))
#loc2095 = loc("sub"(#loc1639))
#loc2096 = loc("eq"(#loc1640))
#loc2097 = loc("jit(_where)"(#loc1641))
#loc2098 = loc("jit(floor_divide)"(#loc1642))
#loc2099 = loc("iota"(#loc1643))
#loc2100 = loc("jit(_roll_static)"(#loc1644))
#loc2101 = loc("broadcast_in_dim"(#loc1644))
#loc2102 = loc("scatter"(#loc1644))
#loc2103 = loc("jit(cumsum)"(#loc1644))
#loc2104 = loc("lt"(#loc1644))
#loc2105 = loc("add"(#loc1644))
#loc2106 = loc("select_n"(#loc1644))
#loc2107 = loc("scatter-add"(#loc1644))
#loc2108 = loc("sub"(#loc1644))
#loc2109 = loc("jit(_take)"(#loc1644))
#loc2110 = loc("slice"(#loc1645))
#loc2111 = loc("jit(remainder)"(#loc1646))
#loc2112 = loc("eq"(#loc1647))
#loc2113 = loc("eq"(#loc1648))
#loc2114 = loc("or"(#loc1649))
#loc2115 = loc("slice"(#loc1650))
#loc2116 = loc("jit(floor_divide)"(#loc1651))
#loc2117 = loc("jit(_where)"(#loc1652))
#loc2118 = loc("convert_element_type"(#loc1653))
#loc2119 = loc("broadcast_in_dim"(#loc1653))
#loc2120 = loc("jit(_ptp)"(#loc1653))
#loc2121 = loc("eq"(#loc1653))
#loc2122 = loc("slice"(#loc1653))
#loc2123 = loc("squeeze"(#loc1653))
#loc2124 = loc("sub"(#loc1653))
#loc2125 = loc("jit(_where)"(#loc1653))
#loc2126 = loc("add"(#loc1653))
#loc2127 = loc("jit(_linspace)"(#loc1653))
#loc2128 = loc("jit(searchsorted)"(#loc1653))
#loc2129 = loc("dynamic_slice"(#loc1653))
#loc2130 = loc("lt"(#loc1653))
#loc2131 = loc("select_n"(#loc1653))
#loc2132 = loc("scatter-add"(#loc1653))
#loc2133 = loc("add"(#loc1654))
#loc2134 = loc("iota"(#loc1655))
#loc2135 = loc("convert_element_type"(#loc1656))
#loc2136 = loc("jit(_roll_static)"(#loc1657))
#loc2137 = loc("broadcast_in_dim"(#loc1657))
#loc2138 = loc("scatter"(#loc1657))
#loc2139 = loc("jit(cumsum)"(#loc1657))
#loc2140 = loc("lt"(#loc1657))
#loc2141 = loc("add"(#loc1657))
#loc2142 = loc("select_n"(#loc1657))
#loc2143 = loc("scatter-add"(#loc1657))
#loc2144 = loc("sub"(#loc1657))
#loc2145 = loc("jit(_take)"(#loc1657))
#loc2146 = loc("convert_element_type"(#loc1658))
#loc2147 = loc("lt"(#loc1658))
#loc2148 = loc("convert_element_type"(#loc1659))
#loc2149 = loc("reduce_sum"(#loc1659))
#loc2150 = loc("neg"(#loc1660))
#loc2151 = loc("jit(_roll_dynamic)"(#loc1661))
#loc2152 = loc("neg"(#loc1662))
#loc2153 = loc("jit(_roll_dynamic)"(#loc1663))
#loc2154 = loc("iota"(#loc1664))
#loc2155 = loc("convert_element_type"(#loc1665))
#loc2156 = loc("le"(#loc1665))
#loc2157 = loc("convert_element_type"(#loc1666))
#loc2158 = loc("ge"(#loc1666))
#loc2159 = loc("and"(#loc1667))
#loc2160 = loc("jit(_where)"(#loc1668))
#loc2161 = loc("reduce_sum"(#loc1669))
#loc2162 = loc("pallas_call"(#loc1670))
#loc2163 = loc("jit:"(#loc1786))
#loc2164 = loc("jit:"(#loc1797))
#loc2165 = loc("jit:"(#loc1798))
#loc2166 = loc("jit:"(#loc1804))
#loc2167 = loc("jit:"(#loc1807))
#loc2168 = loc("jit:"(#loc1825))
#loc2169 = loc("jit:"(#loc1828))
#loc2170 = loc("jit:"(#loc1831))
#loc2171 = loc("jit:"(#loc1890))
#loc2172 = loc("jit:"(#loc1894))
#loc2173 = loc("jit:"(#loc1898))
#loc2174 = loc("jit:"(#loc1901))
#loc2175 = loc("jit:"(#loc1987))
#loc2176 = loc("jit:"(#loc1989))
#loc2177 = loc("jit:"(#loc1999))
#loc2178 = loc("jit:"(#loc2003))
#loc2179 = loc("jit:"(#loc2012))
#loc2180 = loc("jit:"(#loc2023))
#loc2181 = loc("closed_call:"(#loc2036))
#loc2182 = loc("jit:"(#loc2040))
#loc2183 = loc("jit:"(#loc2050))
#loc2184 = loc("jit:"(#loc2067))
#loc2185 = loc("jit:"(#loc2071))
#loc2186 = loc("jit:"(#loc2077))
