HloModule jit_step_fun, buffer_donor={ (435, {}), (436, {}), (437, {}), (438, {}), (439, {}), (440, {}), (441, {}), (442, {}), (443, {}), (444, {}), (445, {}), (446, {}), (447, {}), (448, {}), (449, {}), (450, {}), (451, {}), (452, {}), (453, {}), (454, {}), (455, {}), (456, {}), (457, {}), (458, {}), (459, {}), (460, {}), (461, {}), (462, {}), (463, {}), (464, {}), (465, {}), (466, {}), (467, {}), (468, {}), (469, {}), (470, {}), (471, {}), (472, {}), (473, {}), (474, {}), (475, {}), (476, {}), (477, {}), (478, {}), (479, {}), (480, {}), (481, {}), (482, {}) }, entry_computation_layout={(bf16[152064,2048]{1,0:T(8,128)(2,1)}, bf16[2048]{0:T(1024)(128)(2,1)}, bf16[128,1536,2048]{2,1,0:T(8,128)(2,1)}, bf16[128,2048,768]{2,1,0:T(8,128)(2,1)}, bf16[128,2048]{1,0:T(8,128)(2,1)}, /*index=5*/bf16[2048]{0:T(1024)(128)(2,1)}, bf16[128]{0:T(256)(128)(2,1)}, bf16[2048,4096]{1,0:T(8,128)(2,1)}, bf16[128]{0:T(256)(128)(2,1)}, bf16[5120,2048]{1,0:T(8,128)(2,1)}, /*index=10*/bf16[262144,128]{1,0:T(8,128)(2,1)}, bf16[2048]{0:T(1024)(128)(2,1)}, bf16[128,1536,2048]{2,1,0:T(8,128)(2,1)}, bf16[128,2048,768]{2,1,0:T(8,128)(2,1)}, bf16[128,2048]{1,0:T(8,128)(2,1)}, /*index=15*/bf16[2048]{0:T(1024)(128)(2,1)}, bf16[128]{0:T(256)(128)(2,1)}, bf16[2048,4096]{1,0:T(8,128)(2,1)}, bf16[128]{0:T(256)(128)(2,1)}, bf16[5120,2048]{1,0:T(8,128)(2,1)}, /*index=20*/bf16[2048]{0:T(1024)(128)(2,1)}, bf16[128,1536,2048]{2,1,0:T(8,128)(2,1)}, bf16[128,2048,768]{2,1,0:T(8,128)(2,1)}, bf16[128,2048]{1,0:T(8,128)(2,1)}, bf16[2048]{0:T(1024)(128)(2,1)}, /*index=25*/bf16[128]{0:T(256)(128)(2,1)}, bf16[2048,4096]{1,0:T(8,128)(2,1)}, bf16[128]{0:T(256)(128)(2,1)}, bf16[5120,2048]{1,0:T(8,128)(2,1)}, bf16[2048]{0:T(1024)(128)(2,1)}, /*index=30*/bf16[128,1536,2048]{2,1,0:T(8,128)(2,1)}, bf16[128,2048,768]{2,1,0:T(8,128)(2,1)}, bf16[128,2048]{1,0:T(8,128)(2,1)}, bf16[2048]{0:T(1024)(128)(2,1)}, bf16[128]{0:T(256)(128)(2,1)}, /*index=35*/bf16[2048,4096]{1,0:T(8,128)(2,1)}, bf16[128]{0:T(256)(128)(2,1)}, bf16[5120,2048]{1,0:T(8,128)(2,1)}, bf16[2048]{0:T(1024)(128)(2,1)}, bf16[128,1536,2048]{2,1,0:T(8,128)(2,1)}, /*index=40*/bf16[128,2048,768]{2,1,0:T(8,128)(2,1)}, bf16[128,2048]{1,0:T(8,128)(2,1)}, bf16[2048]{0:T(1024)(128)(2,1)}, bf16[128]{0:T(256)(128)(2,1)}, bf16[2048,4096]{1,0:T(8,128)(2,1)}, /*index=45*/bf16[128]{0:T(256)(128)(2,1)}, bf16[5120,2048]{1,0:T(8,128)(2,1)}, bf16[2048]{0:T(1024)(128)(2,1)}, bf16[128,1536,2048]{2,1,0:T(8,128)(2,1)}, bf16[128,2048,768]{2,1,0:T(8,128)(2,1)}, /*index=50*/bf16[128,2048]{1,0:T(8,128)(2,1)}, bf16[2048]{0:T(1024)(128)(2,1)}, bf16[128]{0:T(256)(128)(2,1)}, bf16[2048,4096]{1,0:T(8,128)(2,1)}, bf16[128]{0:T(256)(128)(2,1)}, /*index=55*/bf16[5120,2048]{1,0:T(8,128)(2,1)}, bf16[2048]{0:T(1024)(128)(2,1)}, bf16[128,1536,2048]{2,1,0:T(8,128)(2,1)}, bf16[128,2048,768]{2,1,0:T(8,128)(2,1)}, bf16[128,2048]{1,0:T(8,128)(2,1)}, /*index=60*/bf16[2048]{0:T(1024)(128)(2,1)}, bf16[128]{0:T(256)(128)(2,1)}, bf16[2048,4096]{1,0:T(8,128)(2,1)}, bf16[128]{0:T(256)(128)(2,1)}, bf16[5120,2048]{1,0:T(8,128)(2,1)}, /*index=65*/bf16[2048]{0:T(1024)(128)(2,1)}, bf16[128,1536,2048]{2,1,0:T(8,128)(2,1)}, bf16[128,2048,768]{2,1,0:T(8,128)(2,1)}, bf16[128,2048]{1,0:T(8,128)(2,1)}, bf16[2048]{0:T(1024)(128)(2,1)}, /*index=70*/bf16[128]{0:T(256)(128)(2,1)}, bf16[2048,4096]{1,0:T(8,128)(2,1)}, bf16[128]{0:T(256)(128)(2,1)}, bf16[5120,2048]{1,0:T(8,128)(2,1)}, bf16[2048]{0:T(1024)(128)(2,1)}, /*index=75*/bf16[128,1536,2048]{2,1,0:T(8,128)(2,1)}, bf16[128,2048,768]{2,1,0:T(8,128)(2,1)}, bf16[128,2048]{1,0:T(8,128)(2,1)}, bf16[2048]{0:T(1024)(128)(2,1)}, bf16[128]{0:T(256)(128)(2,1)}, /*index=80*/bf16[2048,4096]{1,0:T(8,128)(2,1)}, bf16[128]{0:T(256)(128)(2,1)}, bf16[5120,2048]{1,0:T(8,128)(2,1)}, bf16[2048]{0:T(1024)(128)(2,1)}, bf16[128,1536,2048]{2,1,0:T(8,128)(2,1)}, /*index=85*/bf16[128,2048,768]{2,1,0:T(8,128)(2,1)}, bf16[128,2048]{1,0:T(8,128)(2,1)}, bf16[2048]{0:T(1024)(128)(2,1)}, bf16[128]{0:T(256)(128)(2,1)}, bf16[2048,4096]{1,0:T(8,128)(2,1)}, /*index=90*/bf16[128]{0:T(256)(128)(2,1)}, bf16[5120,2048]{1,0:T(8,128)(2,1)}, bf16[2048]{0:T(1024)(128)(2,1)}, bf16[128,1536,2048]{2,1,0:T(8,128)(2,1)}, bf16[128,2048,768]{2,1,0:T(8,128)(2,1)}, /*index=95*/bf16[128,2048]{1,0:T(8,128)(2,1)}, bf16[2048]{0:T(1024)(128)(2,1)}, bf16[128]{0:T(256)(128)(2,1)}, bf16[2048,4096]{1,0:T(8,128)(2,1)}, bf16[128]{0:T(256)(128)(2,1)}, /*index=100*/bf16[5120,2048]{1,0:T(8,128)(2,1)}, bf16[2048]{0:T(1024)(128)(2,1)}, bf16[128,1536,2048]{2,1,0:T(8,128)(2,1)}, bf16[128,2048,768]{2,1,0:T(8,128)(2,1)}, bf16[128,2048]{1,0:T(8,128)(2,1)}, /*index=105*/bf16[2048]{0:T(1024)(128)(2,1)}, bf16[128]{0:T(256)(128)(2,1)}, bf16[2048,4096]{1,0:T(8,128)(2,1)}, bf16[128]{0:T(256)(128)(2,1)}, bf16[5120,2048]{1,0:T(8,128)(2,1)}, /*index=110*/bf16[2048]{0:T(1024)(128)(2,1)}, bf16[128,1536,2048]{2,1,0:T(8,128)(2,1)}, bf16[128,2048,768]{2,1,0:T(8,128)(2,1)}, bf16[128,2048]{1,0:T(8,128)(2,1)}, bf16[2048]{0:T(1024)(128)(2,1)}, /*index=115*/bf16[128]{0:T(256)(128)(2,1)}, bf16[2048,4096]{1,0:T(8,128)(2,1)}, bf16[128]{0:T(256)(128)(2,1)}, bf16[5120,2048]{1,0:T(8,128)(2,1)}, bf16[2048]{0:T(1024)(128)(2,1)}, /*index=120*/bf16[128,1536,2048]{2,1,0:T(8,128)(2,1)}, bf16[128,2048,768]{2,1,0:T(8,128)(2,1)}, bf16[128,2048]{1,0:T(8,128)(2,1)}, bf16[2048]{0:T(1024)(128)(2,1)}, bf16[128]{0:T(256)(128)(2,1)}, /*index=125*/bf16[2048,4096]{1,0:T(8,128)(2,1)}, bf16[128]{0:T(256)(128)(2,1)}, bf16[5120,2048]{1,0:T(8,128)(2,1)}, bf16[2048]{0:T(1024)(128)(2,1)}, bf16[128,1536,2048]{2,1,0:T(8,128)(2,1)}, /*index=130*/bf16[128,2048,768]{2,1,0:T(8,128)(2,1)}, bf16[128,2048]{1,0:T(8,128)(2,1)}, bf16[2048]{0:T(1024)(128)(2,1)}, bf16[128]{0:T(256)(128)(2,1)}, bf16[2048,4096]{1,0:T(8,128)(2,1)}, /*index=135*/bf16[128]{0:T(256)(128)(2,1)}, bf16[5120,2048]{1,0:T(8,128)(2,1)}, bf16[2048]{0:T(1024)(128)(2,1)}, bf16[128,1536,2048]{2,1,0:T(8,128)(2,1)}, bf16[128,2048,768]{2,1,0:T(8,128)(2,1)}, /*index=140*/bf16[128,2048]{1,0:T(8,128)(2,1)}, bf16[2048]{0:T(1024)(128)(2,1)}, bf16[128]{0:T(256)(128)(2,1)}, bf16[2048,4096]{1,0:T(8,128)(2,1)}, bf16[128]{0:T(256)(128)(2,1)}, /*index=145*/bf16[5120,2048]{1,0:T(8,128)(2,1)}, bf16[2048]{0:T(1024)(128)(2,1)}, bf16[128,1536,2048]{2,1,0:T(8,128)(2,1)}, bf16[128,2048,768]{2,1,0:T(8,128)(2,1)}, bf16[128,2048]{1,0:T(8,128)(2,1)}, /*index=150*/bf16[2048]{0:T(1024)(128)(2,1)}, bf16[128]{0:T(256)(128)(2,1)}, bf16[2048,4096]{1,0:T(8,128)(2,1)}, bf16[128]{0:T(256)(128)(2,1)}, bf16[5120,2048]{1,0:T(8,128)(2,1)}, /*index=155*/bf16[2048]{0:T(1024)(128)(2,1)}, bf16[128,1536,2048]{2,1,0:T(8,128)(2,1)}, bf16[128,2048,768]{2,1,0:T(8,128)(2,1)}, bf16[128,2048]{1,0:T(8,128)(2,1)}, bf16[2048]{0:T(1024)(128)(2,1)}, /*index=160*/bf16[128]{0:T(256)(128)(2,1)}, bf16[2048,4096]{1,0:T(8,128)(2,1)}, bf16[128]{0:T(256)(128)(2,1)}, bf16[5120,2048]{1,0:T(8,128)(2,1)}, bf16[2048]{0:T(1024)(128)(2,1)}, /*index=165*/bf16[128,1536,2048]{2,1,0:T(8,128)(2,1)}, bf16[128,2048,768]{2,1,0:T(8,128)(2,1)}, bf16[128,2048]{1,0:T(8,128)(2,1)}, bf16[2048]{0:T(1024)(128)(2,1)}, bf16[128]{0:T(256)(128)(2,1)}, /*index=170*/bf16[2048,4096]{1,0:T(8,128)(2,1)}, bf16[128]{0:T(256)(128)(2,1)}, bf16[5120,2048]{1,0:T(8,128)(2,1)}, bf16[2048]{0:T(1024)(128)(2,1)}, bf16[128,1536,2048]{2,1,0:T(8,128)(2,1)}, /*index=175*/bf16[128,2048,768]{2,1,0:T(8,128)(2,1)}, bf16[128,2048]{1,0:T(8,128)(2,1)}, bf16[2048]{0:T(1024)(128)(2,1)}, bf16[128]{0:T(256)(128)(2,1)}, bf16[2048,4096]{1,0:T(8,128)(2,1)}, /*index=180*/bf16[128]{0:T(256)(128)(2,1)}, bf16[5120,2048]{1,0:T(8,128)(2,1)}, bf16[2048]{0:T(1024)(128)(2,1)}, bf16[128,1536,2048]{2,1,0:T(8,128)(2,1)}, bf16[128,2048,768]{2,1,0:T(8,128)(2,1)}, /*index=185*/bf16[128,2048]{1,0:T(8,128)(2,1)}, bf16[2048]{0:T(1024)(128)(2,1)}, bf16[128]{0:T(256)(128)(2,1)}, bf16[2048,4096]{1,0:T(8,128)(2,1)}, bf16[128]{0:T(256)(128)(2,1)}, /*index=190*/bf16[5120,2048]{1,0:T(8,128)(2,1)}, bf16[2048]{0:T(1024)(128)(2,1)}, bf16[128,1536,2048]{2,1,0:T(8,128)(2,1)}, bf16[128,2048,768]{2,1,0:T(8,128)(2,1)}, bf16[128,2048]{1,0:T(8,128)(2,1)}, /*index=195*/bf16[2048]{0:T(1024)(128)(2,1)}, bf16[128]{0:T(256)(128)(2,1)}, bf16[2048,4096]{1,0:T(8,128)(2,1)}, bf16[128]{0:T(256)(128)(2,1)}, bf16[5120,2048]{1,0:T(8,128)(2,1)}, /*index=200*/bf16[2048]{0:T(1024)(128)(2,1)}, bf16[128,1536,2048]{2,1,0:T(8,128)(2,1)}, bf16[128,2048,768]{2,1,0:T(8,128)(2,1)}, bf16[128,2048]{1,0:T(8,128)(2,1)}, bf16[2048]{0:T(1024)(128)(2,1)}, /*index=205*/bf16[128]{0:T(256)(128)(2,1)}, bf16[2048,4096]{1,0:T(8,128)(2,1)}, bf16[128]{0:T(256)(128)(2,1)}, bf16[5120,2048]{1,0:T(8,128)(2,1)}, bf16[2048]{0:T(1024)(128)(2,1)}, /*index=210*/bf16[128,1536,2048]{2,1,0:T(8,128)(2,1)}, bf16[128,2048,768]{2,1,0:T(8,128)(2,1)}, bf16[128,2048]{1,0:T(8,128)(2,1)}, bf16[2048]{0:T(1024)(128)(2,1)}, bf16[128]{0:T(256)(128)(2,1)}, /*index=215*/bf16[2048,4096]{1,0:T(8,128)(2,1)}, bf16[128]{0:T(256)(128)(2,1)}, bf16[5120,2048]{1,0:T(8,128)(2,1)}, bf16[2048]{0:T(1024)(128)(2,1)}, bf16[128,1536,2048]{2,1,0:T(8,128)(2,1)}, /*index=220*/bf16[128,2048,768]{2,1,0:T(8,128)(2,1)}, bf16[128,2048]{1,0:T(8,128)(2,1)}, bf16[2048]{0:T(1024)(128)(2,1)}, bf16[128]{0:T(256)(128)(2,1)}, bf16[2048,4096]{1,0:T(8,128)(2,1)}, /*index=225*/bf16[128]{0:T(256)(128)(2,1)}, bf16[5120,2048]{1,0:T(8,128)(2,1)}, bf16[2048]{0:T(1024)(128)(2,1)}, bf16[128,1536,2048]{2,1,0:T(8,128)(2,1)}, bf16[128,2048,768]{2,1,0:T(8,128)(2,1)}, /*index=230*/bf16[128,2048]{1,0:T(8,128)(2,1)}, bf16[2048]{0:T(1024)(128)(2,1)}, bf16[128]{0:T(256)(128)(2,1)}, bf16[2048,4096]{1,0:T(8,128)(2,1)}, bf16[128]{0:T(256)(128)(2,1)}, /*index=235*/bf16[5120,2048]{1,0:T(8,128)(2,1)}, bf16[2048]{0:T(1024)(128)(2,1)}, bf16[128,1536,2048]{2,1,0:T(8,128)(2,1)}, bf16[128,2048,768]{2,1,0:T(8,128)(2,1)}, bf16[128,2048]{1,0:T(8,128)(2,1)}, /*index=240*/bf16[2048]{0:T(1024)(128)(2,1)}, bf16[128]{0:T(256)(128)(2,1)}, bf16[2048,4096]{1,0:T(8,128)(2,1)}, bf16[128]{0:T(256)(128)(2,1)}, bf16[5120,2048]{1,0:T(8,128)(2,1)}, /*index=245*/bf16[2048]{0:T(1024)(128)(2,1)}, bf16[128,1536,2048]{2,1,0:T(8,128)(2,1)}, bf16[128,2048,768]{2,1,0:T(8,128)(2,1)}, bf16[128,2048]{1,0:T(8,128)(2,1)}, bf16[2048]{0:T(1024)(128)(2,1)}, /*index=250*/bf16[128]{0:T(256)(128)(2,1)}, bf16[2048,4096]{1,0:T(8,128)(2,1)}, bf16[128]{0:T(256)(128)(2,1)}, bf16[5120,2048]{1,0:T(8,128)(2,1)}, bf16[2048]{0:T(1024)(128)(2,1)}, /*index=255*/bf16[128,1536,2048]{2,1,0:T(8,128)(2,1)}, bf16[128,2048,768]{2,1,0:T(8,128)(2,1)}, bf16[128,2048]{1,0:T(8,128)(2,1)}, bf16[2048]{0:T(1024)(128)(2,1)}, bf16[128]{0:T(256)(128)(2,1)}, /*index=260*/bf16[2048,4096]{1,0:T(8,128)(2,1)}, bf16[128]{0:T(256)(128)(2,1)}, bf16[5120,2048]{1,0:T(8,128)(2,1)}, bf16[2048]{0:T(1024)(128)(2,1)}, bf16[128,1536,2048]{2,1,0:T(8,128)(2,1)}, /*index=265*/bf16[128,2048,768]{2,1,0:T(8,128)(2,1)}, bf16[128,2048]{1,0:T(8,128)(2,1)}, bf16[2048]{0:T(1024)(128)(2,1)}, bf16[128]{0:T(256)(128)(2,1)}, bf16[2048,4096]{1,0:T(8,128)(2,1)}, /*index=270*/bf16[128]{0:T(256)(128)(2,1)}, bf16[5120,2048]{1,0:T(8,128)(2,1)}, bf16[2048]{0:T(1024)(128)(2,1)}, bf16[128,1536,2048]{2,1,0:T(8,128)(2,1)}, bf16[128,2048,768]{2,1,0:T(8,128)(2,1)}, /*index=275*/bf16[128,2048]{1,0:T(8,128)(2,1)}, bf16[2048]{0:T(1024)(128)(2,1)}, bf16[128]{0:T(256)(128)(2,1)}, bf16[2048,4096]{1,0:T(8,128)(2,1)}, bf16[128]{0:T(256)(128)(2,1)}, /*index=280*/bf16[5120,2048]{1,0:T(8,128)(2,1)}, bf16[2048]{0:T(1024)(128)(2,1)}, bf16[128,1536,2048]{2,1,0:T(8,128)(2,1)}, bf16[128,2048,768]{2,1,0:T(8,128)(2,1)}, bf16[128,2048]{1,0:T(8,128)(2,1)}, /*index=285*/bf16[2048]{0:T(1024)(128)(2,1)}, bf16[128]{0:T(256)(128)(2,1)}, bf16[2048,4096]{1,0:T(8,128)(2,1)}, bf16[128]{0:T(256)(128)(2,1)}, bf16[5120,2048]{1,0:T(8,128)(2,1)}, /*index=290*/bf16[2048]{0:T(1024)(128)(2,1)}, bf16[128,1536,2048]{2,1,0:T(8,128)(2,1)}, bf16[128,2048,768]{2,1,0:T(8,128)(2,1)}, bf16[128,2048]{1,0:T(8,128)(2,1)}, bf16[2048]{0:T(1024)(128)(2,1)}, /*index=295*/bf16[128]{0:T(256)(128)(2,1)}, bf16[2048,4096]{1,0:T(8,128)(2,1)}, bf16[128]{0:T(256)(128)(2,1)}, bf16[5120,2048]{1,0:T(8,128)(2,1)}, bf16[2048]{0:T(1024)(128)(2,1)}, /*index=300*/bf16[128,1536,2048]{2,1,0:T(8,128)(2,1)}, bf16[128,2048,768]{2,1,0:T(8,128)(2,1)}, bf16[128,2048]{1,0:T(8,128)(2,1)}, bf16[2048]{0:T(1024)(128)(2,1)}, bf16[128]{0:T(256)(128)(2,1)}, /*index=305*/bf16[2048,4096]{1,0:T(8,128)(2,1)}, bf16[128]{0:T(256)(128)(2,1)}, bf16[5120,2048]{1,0:T(8,128)(2,1)}, bf16[2048]{0:T(1024)(128)(2,1)}, bf16[128,1536,2048]{2,1,0:T(8,128)(2,1)}, /*index=310*/bf16[128,2048,768]{2,1,0:T(8,128)(2,1)}, bf16[128,2048]{1,0:T(8,128)(2,1)}, bf16[2048]{0:T(1024)(128)(2,1)}, bf16[128]{0:T(256)(128)(2,1)}, bf16[2048,4096]{1,0:T(8,128)(2,1)}, /*index=315*/bf16[128]{0:T(256)(128)(2,1)}, bf16[5120,2048]{1,0:T(8,128)(2,1)}, bf16[2048]{0:T(1024)(128)(2,1)}, bf16[128,1536,2048]{2,1,0:T(8,128)(2,1)}, bf16[128,2048,768]{2,1,0:T(8,128)(2,1)}, /*index=320*/bf16[128,2048]{1,0:T(8,128)(2,1)}, bf16[2048]{0:T(1024)(128)(2,1)}, bf16[128]{0:T(256)(128)(2,1)}, bf16[2048,4096]{1,0:T(8,128)(2,1)}, bf16[128]{0:T(256)(128)(2,1)}, /*index=325*/bf16[5120,2048]{1,0:T(8,128)(2,1)}, bf16[2048]{0:T(1024)(128)(2,1)}, bf16[128,1536,2048]{2,1,0:T(8,128)(2,1)}, bf16[128,2048,768]{2,1,0:T(8,128)(2,1)}, bf16[128,2048]{1,0:T(8,128)(2,1)}, /*index=330*/bf16[2048]{0:T(1024)(128)(2,1)}, bf16[128]{0:T(256)(128)(2,1)}, bf16[2048,4096]{1,0:T(8,128)(2,1)}, bf16[128]{0:T(256)(128)(2,1)}, bf16[5120,2048]{1,0:T(8,128)(2,1)}, /*index=335*/bf16[2048]{0:T(1024)(128)(2,1)}, bf16[128,1536,2048]{2,1,0:T(8,128)(2,1)}, bf16[128,2048,768]{2,1,0:T(8,128)(2,1)}, bf16[128,2048]{1,0:T(8,128)(2,1)}, bf16[2048]{0:T(1024)(128)(2,1)}, /*index=340*/bf16[128]{0:T(256)(128)(2,1)}, bf16[2048,4096]{1,0:T(8,128)(2,1)}, bf16[128]{0:T(256)(128)(2,1)}, bf16[5120,2048]{1,0:T(8,128)(2,1)}, bf16[2048]{0:T(1024)(128)(2,1)}, /*index=345*/bf16[128,1536,2048]{2,1,0:T(8,128)(2,1)}, bf16[128,2048,768]{2,1,0:T(8,128)(2,1)}, bf16[128,2048]{1,0:T(8,128)(2,1)}, bf16[2048]{0:T(1024)(128)(2,1)}, bf16[128]{0:T(256)(128)(2,1)}, /*index=350*/bf16[2048,4096]{1,0:T(8,128)(2,1)}, bf16[128]{0:T(256)(128)(2,1)}, bf16[5120,2048]{1,0:T(8,128)(2,1)}, bf16[2048]{0:T(1024)(128)(2,1)}, bf16[128,1536,2048]{2,1,0:T(8,128)(2,1)}, /*index=355*/bf16[128,2048,768]{2,1,0:T(8,128)(2,1)}, bf16[128,2048]{1,0:T(8,128)(2,1)}, bf16[2048]{0:T(1024)(128)(2,1)}, bf16[128]{0:T(256)(128)(2,1)}, bf16[2048,4096]{1,0:T(8,128)(2,1)}, /*index=360*/bf16[128]{0:T(256)(128)(2,1)}, bf16[5120,2048]{1,0:T(8,128)(2,1)}, bf16[2048]{0:T(1024)(128)(2,1)}, bf16[128,1536,2048]{2,1,0:T(8,128)(2,1)}, bf16[128,2048,768]{2,1,0:T(8,128)(2,1)}, /*index=365*/bf16[128,2048]{1,0:T(8,128)(2,1)}, bf16[2048]{0:T(1024)(128)(2,1)}, bf16[128]{0:T(256)(128)(2,1)}, bf16[2048,4096]{1,0:T(8,128)(2,1)}, bf16[128]{0:T(256)(128)(2,1)}, /*index=370*/bf16[5120,2048]{1,0:T(8,128)(2,1)}, bf16[2048]{0:T(1024)(128)(2,1)}, bf16[128,1536,2048]{2,1,0:T(8,128)(2,1)}, bf16[128,2048,768]{2,1,0:T(8,128)(2,1)}, bf16[128,2048]{1,0:T(8,128)(2,1)}, /*index=375*/bf16[2048]{0:T(1024)(128)(2,1)}, bf16[128]{0:T(256)(128)(2,1)}, bf16[2048,4096]{1,0:T(8,128)(2,1)}, bf16[128]{0:T(256)(128)(2,1)}, bf16[5120,2048]{1,0:T(8,128)(2,1)}, /*index=380*/bf16[2048]{0:T(1024)(128)(2,1)}, bf16[128,1536,2048]{2,1,0:T(8,128)(2,1)}, bf16[128,2048,768]{2,1,0:T(8,128)(2,1)}, bf16[128,2048]{1,0:T(8,128)(2,1)}, bf16[2048]{0:T(1024)(128)(2,1)}, /*index=385*/bf16[128]{0:T(256)(128)(2,1)}, bf16[2048,4096]{1,0:T(8,128)(2,1)}, bf16[128]{0:T(256)(128)(2,1)}, bf16[5120,2048]{1,0:T(8,128)(2,1)}, bf16[2048]{0:T(1024)(128)(2,1)}, /*index=390*/bf16[128,1536,2048]{2,1,0:T(8,128)(2,1)}, bf16[128,2048,768]{2,1,0:T(8,128)(2,1)}, bf16[128,2048]{1,0:T(8,128)(2,1)}, bf16[2048]{0:T(1024)(128)(2,1)}, bf16[128]{0:T(256)(128)(2,1)}, /*index=395*/bf16[2048,4096]{1,0:T(8,128)(2,1)}, bf16[128]{0:T(256)(128)(2,1)}, bf16[5120,2048]{1,0:T(8,128)(2,1)}, bf16[2048]{0:T(1024)(128)(2,1)}, bf16[128,1536,2048]{2,1,0:T(8,128)(2,1)}, /*index=400*/bf16[128,2048,768]{2,1,0:T(8,128)(2,1)}, bf16[128,2048]{1,0:T(8,128)(2,1)}, bf16[2048]{0:T(1024)(128)(2,1)}, bf16[128]{0:T(256)(128)(2,1)}, bf16[2048,4096]{1,0:T(8,128)(2,1)}, /*index=405*/bf16[128]{0:T(256)(128)(2,1)}, bf16[5120,2048]{1,0:T(8,128)(2,1)}, bf16[2048]{0:T(1024)(128)(2,1)}, bf16[128,1536,2048]{2,1,0:T(8,128)(2,1)}, bf16[128,2048,768]{2,1,0:T(8,128)(2,1)}, /*index=410*/bf16[128,2048]{1,0:T(8,128)(2,1)}, bf16[2048]{0:T(1024)(128)(2,1)}, bf16[128]{0:T(256)(128)(2,1)}, bf16[2048,4096]{1,0:T(8,128)(2,1)}, bf16[128]{0:T(256)(128)(2,1)}, /*index=415*/bf16[5120,2048]{1,0:T(8,128)(2,1)}, bf16[2048]{0:T(1024)(128)(2,1)}, bf16[128,1536,2048]{2,1,0:T(8,128)(2,1)}, bf16[128,2048,768]{2,1,0:T(8,128)(2,1)}, bf16[128,2048]{1,0:T(8,128)(2,1)}, /*index=420*/bf16[2048]{0:T(1024)(128)(2,1)}, bf16[128]{0:T(256)(128)(2,1)}, bf16[2048,4096]{1,0:T(8,128)(2,1)}, bf16[128]{0:T(256)(128)(2,1)}, bf16[5120,2048]{1,0:T(8,128)(2,1)}, /*index=425*/bf16[2048]{0:T(1024)(128)(2,1)}, bf16[128,1536,2048]{2,1,0:T(8,128)(2,1)}, bf16[128,2048,768]{2,1,0:T(8,128)(2,1)}, bf16[128,2048]{1,0:T(8,128)(2,1)}, bf16[2048]{0:T(1024)(128)(2,1)}, /*index=430*/bf16[128]{0:T(256)(128)(2,1)}, bf16[2048,4096]{1,0:T(8,128)(2,1)}, bf16[128]{0:T(256)(128)(2,1)}, bf16[5120,2048]{1,0:T(8,128)(2,1)}, bf16[2048]{0:T(1024)(128)(2,1)}, /*index=435*/bf16[14813,32,4,2,128]{4,3,2,1,0:T(2,128)(2,1)}, bf16[14813,32,4,2,128]{4,3,2,1,0:T(2,128)(2,1)}, bf16[14813,32,4,2,128]{4,3,2,1,0:T(2,128)(2,1)}, bf16[14813,32,4,2,128]{4,3,2,1,0:T(2,128)(2,1)}, bf16[14813,32,4,2,128]{4,3,2,1,0:T(2,128)(2,1)}, /*index=440*/bf16[14813,32,4,2,128]{4,3,2,1,0:T(2,128)(2,1)}, bf16[14813,32,4,2,128]{4,3,2,1,0:T(2,128)(2,1)}, bf16[14813,32,4,2,128]{4,3,2,1,0:T(2,128)(2,1)}, bf16[14813,32,4,2,128]{4,3,2,1,0:T(2,128)(2,1)}, bf16[14813,32,4,2,128]{4,3,2,1,0:T(2,128)(2,1)}, /*index=445*/bf16[14813,32,4,2,128]{4,3,2,1,0:T(2,128)(2,1)}, bf16[14813,32,4,2,128]{4,3,2,1,0:T(2,128)(2,1)}, bf16[14813,32,4,2,128]{4,3,2,1,0:T(2,128)(2,1)}, bf16[14813,32,4,2,128]{4,3,2,1,0:T(2,128)(2,1)}, bf16[14813,32,4,2,128]{4,3,2,1,0:T(2,128)(2,1)}, /*index=450*/bf16[14813,32,4,2,128]{4,3,2,1,0:T(2,128)(2,1)}, bf16[14813,32,4,2,128]{4,3,2,1,0:T(2,128)(2,1)}, bf16[14813,32,4,2,128]{4,3,2,1,0:T(2,128)(2,1)}, bf16[14813,32,4,2,128]{4,3,2,1,0:T(2,128)(2,1)}, bf16[14813,32,4,2,128]{4,3,2,1,0:T(2,128)(2,1)}, /*index=455*/bf16[14813,32,4,2,128]{4,3,2,1,0:T(2,128)(2,1)}, bf16[14813,32,4,2,128]{4,3,2,1,0:T(2,128)(2,1)}, bf16[14813,32,4,2,128]{4,3,2,1,0:T(2,128)(2,1)}, bf16[14813,32,4,2,128]{4,3,2,1,0:T(2,128)(2,1)}, bf16[14813,32,4,2,128]{4,3,2,1,0:T(2,128)(2,1)}, /*index=460*/bf16[14813,32,4,2,128]{4,3,2,1,0:T(2,128)(2,1)}, bf16[14813,32,4,2,128]{4,3,2,1,0:T(2,128)(2,1)}, bf16[14813,32,4,2,128]{4,3,2,1,0:T(2,128)(2,1)}, bf16[14813,32,4,2,128]{4,3,2,1,0:T(2,128)(2,1)}, bf16[14813,32,4,2,128]{4,3,2,1,0:T(2,128)(2,1)}, /*index=465*/bf16[14813,32,4,2,128]{4,3,2,1,0:T(2,128)(2,1)}, bf16[14813,32,4,2,128]{4,3,2,1,0:T(2,128)(2,1)}, bf16[14813,32,4,2,128]{4,3,2,1,0:T(2,128)(2,1)}, bf16[14813,32,4,2,128]{4,3,2,1,0:T(2,128)(2,1)}, bf16[14813,32,4,2,128]{4,3,2,1,0:T(2,128)(2,1)}, /*index=470*/bf16[14813,32,4,2,128]{4,3,2,1,0:T(2,128)(2,1)}, bf16[14813,32,4,2,128]{4,3,2,1,0:T(2,128)(2,1)}, bf16[14813,32,4,2,128]{4,3,2,1,0:T(2,128)(2,1)}, bf16[14813,32,4,2,128]{4,3,2,1,0:T(2,128)(2,1)}, bf16[14813,32,4,2,128]{4,3,2,1,0:T(2,128)(2,1)}, /*index=475*/bf16[14813,32,4,2,128]{4,3,2,1,0:T(2,128)(2,1)}, bf16[14813,32,4,2,128]{4,3,2,1,0:T(2,128)(2,1)}, bf16[14813,32,4,2,128]{4,3,2,1,0:T(2,128)(2,1)}, bf16[14813,32,4,2,128]{4,3,2,1,0:T(2,128)(2,1)}, bf16[14813,32,4,2,128]{4,3,2,1,0:T(2,128)(2,1)}, /*index=480*/bf16[14813,32,4,2,128]{4,3,2,1,0:T(2,128)(2,1)}, bf16[14813,32,4,2,128]{4,3,2,1,0:T(2,128)(2,1)}, bf16[14813,32,4,2,128]{4,3,2,1,0:T(2,128)(2,1)}, s32[32]{0:T(128)}, s32[32]{0:T(128)}, /*index=485*/s32[131072]{0:T(1024)}, s32[256]{0:T(256)}, s32[257]{0:T(512)}, s32[3]{0:T(128)})->(bf16[14813,32,4,2,128]{4,3,2,1,0:T(2,128)(2,1)}, bf16[14813,32,4,2,128]{4,3,2,1,0:T(2,128)(2,1)}, bf16[14813,32,4,2,128]{4,3,2,1,0:T(2,128)(2,1)}, bf16[14813,32,4,2,128]{4,3,2,1,0:T(2,128)(2,1)}, bf16[14813,32,4,2,128]{4,3,2,1,0:T(2,128)(2,1)}, /*index=5*/bf16[14813,32,4,2,128]{4,3,2,1,0:T(2,128)(2,1)}, bf16[14813,32,4,2,128]{4,3,2,1,0:T(2,128)(2,1)}, bf16[14813,32,4,2,128]{4,3,2,1,0:T(2,128)(2,1)}, bf16[14813,32,4,2,128]{4,3,2,1,0:T(2,128)(2,1)}, bf16[14813,32,4,2,128]{4,3,2,1,0:T(2,128)(2,1)}, /*index=10*/bf16[14813,32,4,2,128]{4,3,2,1,0:T(2,128)(2,1)}, bf16[14813,32,4,2,128]{4,3,2,1,0:T(2,128)(2,1)}, bf16[14813,32,4,2,128]{4,3,2,1,0:T(2,128)(2,1)}, bf16[14813,32,4,2,128]{4,3,2,1,0:T(2,128)(2,1)}, bf16[14813,32,4,2,128]{4,3,2,1,0:T(2,128)(2,1)}, /*index=15*/bf16[14813,32,4,2,128]{4,3,2,1,0:T(2,128)(2,1)}, bf16[14813,32,4,2,128]{4,3,2,1,0:T(2,128)(2,1)}, bf16[14813,32,4,2,128]{4,3,2,1,0:T(2,128)(2,1)}, bf16[14813,32,4,2,128]{4,3,2,1,0:T(2,128)(2,1)}, bf16[14813,32,4,2,128]{4,3,2,1,0:T(2,128)(2,1)}, /*index=20*/bf16[14813,32,4,2,128]{4,3,2,1,0:T(2,128)(2,1)}, bf16[14813,32,4,2,128]{4,3,2,1,0:T(2,128)(2,1)}, bf16[14813,32,4,2,128]{4,3,2,1,0:T(2,128)(2,1)}, bf16[14813,32,4,2,128]{4,3,2,1,0:T(2,128)(2,1)}, bf16[14813,32,4,2,128]{4,3,2,1,0:T(2,128)(2,1)}, /*index=25*/bf16[14813,32,4,2,128]{4,3,2,1,0:T(2,128)(2,1)}, bf16[14813,32,4,2,128]{4,3,2,1,0:T(2,128)(2,1)}, bf16[14813,32,4,2,128]{4,3,2,1,0:T(2,128)(2,1)}, bf16[14813,32,4,2,128]{4,3,2,1,0:T(2,128)(2,1)}, bf16[14813,32,4,2,128]{4,3,2,1,0:T(2,128)(2,1)}, /*index=30*/bf16[14813,32,4,2,128]{4,3,2,1,0:T(2,128)(2,1)}, bf16[14813,32,4,2,128]{4,3,2,1,0:T(2,128)(2,1)}, bf16[14813,32,4,2,128]{4,3,2,1,0:T(2,128)(2,1)}, bf16[14813,32,4,2,128]{4,3,2,1,0:T(2,128)(2,1)}, bf16[14813,32,4,2,128]{4,3,2,1,0:T(2,128)(2,1)}, /*index=35*/bf16[14813,32,4,2,128]{4,3,2,1,0:T(2,128)(2,1)}, bf16[14813,32,4,2,128]{4,3,2,1,0:T(2,128)(2,1)}, bf16[14813,32,4,2,128]{4,3,2,1,0:T(2,128)(2,1)}, bf16[14813,32,4,2,128]{4,3,2,1,0:T(2,128)(2,1)}, bf16[14813,32,4,2,128]{4,3,2,1,0:T(2,128)(2,1)}, /*index=40*/bf16[14813,32,4,2,128]{4,3,2,1,0:T(2,128)(2,1)}, bf16[14813,32,4,2,128]{4,3,2,1,0:T(2,128)(2,1)}, bf16[14813,32,4,2,128]{4,3,2,1,0:T(2,128)(2,1)}, bf16[14813,32,4,2,128]{4,3,2,1,0:T(2,128)(2,1)}, bf16[14813,32,4,2,128]{4,3,2,1,0:T(2,128)(2,1)}, /*index=45*/bf16[14813,32,4,2,128]{4,3,2,1,0:T(2,128)(2,1)}, bf16[14813,32,4,2,128]{4,3,2,1,0:T(2,128)(2,1)}, bf16[14813,32,4,2,128]{4,3,2,1,0:T(2,128)(2,1)}, bf16[32,2048]{1,0:T(8,128)(2,1)})}, allow_spmd_sharding_propagation_to_parameters={false,false,false,false,false,false,false,false,false,false,false,false,false,false,false,false,false,false,false,false,false,false,false,false,false,false,false,false,false,false,false,false,false,false,false,false,false,false,false,false,false,false,false,false,false,false,false,false,false,false,false,false,false,false,false,false,false,false,false,false,false,false,false,false,false,false,false,false,false,false,false,false,false,false,false,false,false,false,false,false,false,false,false,false,false,false,false,false,false,false,false,false,false,false,false,false,false,false,false,false,false,false,false,false,false,false,false,false,false,false,false,false,false,false,false,false,false,false,false,false,false,false,false,false,false,false,false,false,false,false,false,false,false,false,false,false,false,false,false,false,false,false,false,false,false,false,false,false,false,false,false,false,false,false,false,false,false,false,false,false,false,false,false,false,false,false,false,false,false,false,false,false,false,false,false,false,false,false,false,false,false,false,false,false,false,false,false,false,false,false,false,false,false,false,false,false,false,false,false,false,false,false,false,false,false,false,false,false,false,false,false,false,false,false,false,false,false,false,false,false,false,false,false,false,false,false,false,false,false,false,false,false,false,false,false,false,false,false,false,false,false,false,false,false,false,false,false,false,false,false,false,false,false,false,false,false,false,false,false,false,false,false,false,false,false,false,false,false,false,false,false,false,false,false,false,false,false,false,false,false,false,false,false,false,false,false,false,false,false,false,false,false,false,false,false,false,false,false,false,false,false,false,false,false,false,false,false,false,false,false,false,false,false,false,false,false,false,false,false,false,false,false,false,false,false,false,false,false,false,false,false,false,false,false,false,false,false,false,false,false,false,false,false,false,false,false,false,false,false,false,false,false,false,false,false,false,false,false,false,false,false,false,false,false,false,false,false,false,false,false,false,false,false,false,false,false,false,false,false,false,false,false,false,false,false,false,false,false,false,false,false,false,false,false,false,false,false,false,false,false,false,false,false,false,false,false,false,false,false,false,false,false,false,false,false,false,false,false,false,false,false,false,false,false,false,false,false,false,false,false,false,false,false,false,false,false,false,false,false,false,false,false,false,false,false,false,false,false,false,false,false,false,false,false,false,false,false,false,false,false,false,false,false,false,false,false,false,false,false,false,false,false,false,false,false,false,false,false,false,false,false,false,false,false,false,false,false,false,false}, allow_spmd_sharding_propagation_to_output={true,true,true,true,true,true,true,true,true,true,true,true,true,true,true,true,true,true,true,true,true,true,true,true,true,true,true,true,true,true,true,true,true,true,true,true,true,true,true,true,true,true,true,true,true,true,true,true,true}, num_partitions=4, frontend_attributes={xla.sdy.meshes={mesh = #sdy.mesh<["data"=1, "model"=4]>}}

%_where.532 (Arg_0.528: pred[32], Arg_1.529: s32[32], Arg_2.530: s32[32]) -> s32[32] {
  %Arg_0.528 = pred[32]{0} parameter(0)
  %Arg_1.529 = s32[32]{0} parameter(1)
  %Arg_2.530 = s32[32]{0} parameter(2)
  ROOT %select_n.531 = s32[32]{0} select(%Arg_0.528, %Arg_1.529, %Arg_2.530), metadata={op_name="select_n" source_file="/home/eporat/benchmarking_qwen_omni_tpu/.venv/lib/python3.11/site-packages/torchax/ops/jaten.py" source_line=552 source_end_line=552 source_column=9 source_end_column=31}
}

%region_0.541 (reduce_and.538: pred[], reduce_and.539: pred[]) -> pred[] {
  %reduce_and.538 = pred[] parameter(0), metadata={op_name="reduce_and"}
  %reduce_and.539 = pred[] parameter(1), metadata={op_name="reduce_and"}
  ROOT %reduce_and.540 = pred[] and(%reduce_and.538, %reduce_and.539), metadata={op_name="reduce_and" source_file="/home/eporat/benchmarking_qwen_omni_tpu/.venv/lib/python3.11/site-packages/torchax/ops/jaten.py" source_line=552 source_end_line=552 source_column=9 source_end_column=31}
}

%_take.546 (Arg_0.513: bf16[152064,2048], Arg_1.514: s32[32]) -> bf16[32,2048] {
  %Arg_1.514 = s32[32]{0} parameter(1)
  %constant.524 = s32[] constant(0)
  %lt.525 = s32[32]{0} broadcast(%constant.524), dimensions={}, metadata={op_name="lt" source_file="/home/eporat/benchmarking_qwen_omni_tpu/.venv/lib/python3.11/site-packages/torchax/ops/jaten.py" source_line=552 source_end_line=552 source_column=9 source_end_column=31}
  %lt.526 = pred[32]{0} compare(%Arg_1.514, %lt.525), direction=LT, metadata={op_name="lt" source_file="/home/eporat/benchmarking_qwen_omni_tpu/.venv/lib/python3.11/site-packages/torchax/ops/jaten.py" source_line=552 source_end_line=552 source_column=9 source_end_column=31}
  %constant.521 = s32[] constant(152064)
  %add.522 = s32[32]{0} broadcast(%constant.521), dimensions={}, metadata={op_name="add" source_file="/home/eporat/benchmarking_qwen_omni_tpu/.venv/lib/python3.11/site-packages/torchax/ops/jaten.py" source_line=552 source_end_line=552 source_column=9 source_end_column=31}
  %add.527 = s32[32]{0} add(%Arg_1.514, %add.522), metadata={op_name="add" source_file="/home/eporat/benchmarking_qwen_omni_tpu/.venv/lib/python3.11/site-packages/torchax/ops/jaten.py" source_line=552 source_end_line=552 source_column=9 source_end_column=31}
  %jit__where_.533 = s32[32]{0} call(%lt.526, %add.527, %Arg_1.514), to_apply=%_where.532, metadata={op_name="jit(_where)" source_file="/home/eporat/benchmarking_qwen_omni_tpu/.venv/lib/python3.11/site-packages/torchax/ops/jaten.py" source_line=552 source_end_line=552 source_column=9 source_end_column=31}
  %broadcast_in_dim.534 = s32[32,1]{1,0} reshape(%jit__where_.533), metadata={op_name="broadcast_in_dim" source_file="/home/eporat/benchmarking_qwen_omni_tpu/.venv/lib/python3.11/site-packages/torchax/ops/jaten.py" source_line=552 source_end_line=552 source_column=9 source_end_column=31}
  %constant.519 = s32[] constant(0)
  %ge.520 = s32[32,1]{1,0} broadcast(%constant.519), dimensions={}, metadata={op_name="ge" source_file="/home/eporat/benchmarking_qwen_omni_tpu/.venv/lib/python3.11/site-packages/torchax/ops/jaten.py" source_line=552 source_end_line=552 source_column=9 source_end_column=31}
  %ge.535 = pred[32,1]{1,0} compare(%broadcast_in_dim.534, %ge.520), direction=GE, metadata={op_name="ge" source_file="/home/eporat/benchmarking_qwen_omni_tpu/.venv/lib/python3.11/site-packages/torchax/ops/jaten.py" source_line=552 source_end_line=552 source_column=9 source_end_column=31}
  %constant.517 = s32[] constant(152063)
  %le.518 = s32[32,1]{1,0} broadcast(%constant.517), dimensions={}, metadata={op_name="le" source_file="/home/eporat/benchmarking_qwen_omni_tpu/.venv/lib/python3.11/site-packages/torchax/ops/jaten.py" source_line=552 source_end_line=552 source_column=9 source_end_column=31}
  %le.536 = pred[32,1]{1,0} compare(%broadcast_in_dim.534, %le.518), direction=LE, metadata={op_name="le" source_file="/home/eporat/benchmarking_qwen_omni_tpu/.venv/lib/python3.11/site-packages/torchax/ops/jaten.py" source_line=552 source_end_line=552 source_column=9 source_end_column=31}
  %and.537 = pred[32,1]{1,0} and(%ge.535, %le.536), metadata={op_name="and" source_file="/home/eporat/benchmarking_qwen_omni_tpu/.venv/lib/python3.11/site-packages/torchax/ops/jaten.py" source_line=552 source_end_line=552 source_column=9 source_end_column=31}
  %constant.523 = pred[] constant(true)
  %reduce_and.542 = pred[32]{0} reduce(%and.537, %constant.523), dimensions={1}, to_apply=%region_0.541, metadata={op_name="reduce_and" source_file="/home/eporat/benchmarking_qwen_omni_tpu/.venv/lib/python3.11/site-packages/torchax/ops/jaten.py" source_line=552 source_end_line=552 source_column=9 source_end_column=31}
  %broadcast_in_dim.544 = pred[32,2048]{1,0} broadcast(%reduce_and.542), dimensions={0}, metadata={op_name="broadcast_in_dim" source_file="/home/eporat/benchmarking_qwen_omni_tpu/.venv/lib/python3.11/site-packages/torchax/ops/jaten.py" source_line=552 source_end_line=552 source_column=9 source_end_column=31}
  %Arg_0.513 = bf16[152064,2048]{1,0} parameter(0)
  %gather.543 = bf16[32,2048]{1,0} gather(%Arg_0.513, %broadcast_in_dim.534), offset_dims={1}, collapsed_slice_dims={0}, start_index_map={0}, index_vector_dim=1, slice_sizes={1,2048}, metadata={op_name="gather" source_file="/home/eporat/benchmarking_qwen_omni_tpu/.venv/lib/python3.11/site-packages/torchax/ops/jaten.py" source_line=552 source_end_line=552 source_column=9 source_end_column=31}
  %constant.515 = bf16[] constant(nan)
  %broadcast_in_dim.516 = bf16[32,2048]{1,0} broadcast(%constant.515), dimensions={}, metadata={op_name="broadcast_in_dim" source_file="/home/eporat/benchmarking_qwen_omni_tpu/.venv/lib/python3.11/site-packages/torchax/ops/jaten.py" source_line=552 source_end_line=552 source_column=9 source_end_column=31}
  ROOT %select_n.545 = bf16[32,2048]{1,0} select(%broadcast_in_dim.544, %gather.543, %broadcast_in_dim.516), metadata={op_name="select_n" source_file="/home/eporat/benchmarking_qwen_omni_tpu/.venv/lib/python3.11/site-packages/torchax/ops/jaten.py" source_line=552 source_end_line=552 source_column=9 source_end_column=31}
}

%region_1.553 (reduce_sum.550: f32[], reduce_sum.551: f32[]) -> f32[] {
  %reduce_sum.550 = f32[] parameter(0), metadata={op_name="reduce_sum"}
  %reduce_sum.551 = f32[] parameter(1), metadata={op_name="reduce_sum"}
  ROOT %reduce_sum.552 = f32[] add(%reduce_sum.550, %reduce_sum.551), metadata={op_name="jit(step_fun)/aten::mean.dim/reduce_sum" source_file="/home/eporat/benchmarking_qwen_omni_tpu/.venv/lib/python3.11/site-packages/torchax/ops/jaten.py" source_line=265 source_end_line=265 source_column=9 source_end_column=43}
}

%region_2.581 (reduce_sum.578: f32[], reduce_sum.579: f32[]) -> f32[] {
  %reduce_sum.578 = f32[] parameter(0), metadata={op_name="reduce_sum"}
  %reduce_sum.579 = f32[] parameter(1), metadata={op_name="reduce_sum"}
  ROOT %reduce_sum.580 = f32[] add(%reduce_sum.578, %reduce_sum.579), metadata={op_name="jit(step_fun)/aten::mean.dim/reduce_sum" source_file="/home/eporat/benchmarking_qwen_omni_tpu/.venv/lib/python3.11/site-packages/torchax/ops/jaten.py" source_line=265 source_end_line=265 source_column=9 source_end_column=43}
}

%region_3.602 (reduce_sum.599: f32[], reduce_sum.600: f32[]) -> f32[] {
  %reduce_sum.599 = f32[] parameter(0), metadata={op_name="reduce_sum"}
  %reduce_sum.600 = f32[] parameter(1), metadata={op_name="reduce_sum"}
  ROOT %reduce_sum.601 = f32[] add(%reduce_sum.599, %reduce_sum.600), metadata={op_name="jit(step_fun)/aten::mean.dim/reduce_sum" source_file="/home/eporat/benchmarking_qwen_omni_tpu/.venv/lib/python3.11/site-packages/torchax/ops/jaten.py" source_line=265 source_end_line=265 source_column=9 source_end_column=43}
}

%_pad.727 (Arg_0.725: bf16[32,1,8,128], Arg_1.726: s32[]) -> bf16[32,1,8,128] {
  ROOT %Arg_0.725 = bf16[32,1,8,128]{3,2,1,0} parameter(0)
  %Arg_1.726 = s32[] parameter(1)
}

%_pad_67.734 (Arg_0.732: bf16[32,2,128], Arg_1.733: s32[]) -> bf16[32,2,128] {
  ROOT %Arg_0.732 = bf16[32,2,128]{2,1,0} parameter(0)
  %Arg_1.733 = s32[] parameter(1)
}

%ragged_paged_attention.744 (Arg_0.709: bf16[32,8,128], Arg_1.710: bf16[32,1,128], Arg_2.711: bf16[32,1,128], Arg_3.712: bf16[14813,32,1,2,128], Arg_4.713: s32[256], Arg_5.714: s32[131072], Arg_6.715: s32[257], Arg_7.716: s32[3]) -> (bf16[32,8,128], bf16[14813,32,1,2,128]) {
  %Arg_7.716 = s32[3]{0} parameter(7)
  %slice.737 = s32[1]{0} slice(%Arg_7.716), slice={[2:3]}, metadata={op_name="slice" source_file="/home/eporat/benchmarking_qwen_omni_tpu/.venv/lib/python3.11/site-packages/tpu_inference/kernels/ragged_paged_attention/v3/kernel.py" source_line=1338 source_end_line=1338 source_column=12 source_end_column=27}
  %squeeze.738 = s32[] reshape(%slice.737), metadata={op_name="squeeze" source_file="/home/eporat/benchmarking_qwen_omni_tpu/.venv/lib/python3.11/site-packages/tpu_inference/kernels/ragged_paged_attention/v3/kernel.py" source_line=1338 source_end_line=1338 source_column=12 source_end_column=27}
  %Arg_4.713 = s32[256]{0} parameter(4)
  %Arg_5.714 = s32[131072]{0} parameter(5)
  %Arg_6.715 = s32[257]{0} parameter(6)
  %constant.721 = s32[] constant(0)
  %broadcast.722 = s32[3]{0} broadcast(%constant.721), dimensions={}
  %constant.719 = s32[] constant(-1)
  %broadcast.720 = s32[4]{0} broadcast(%constant.719), dimensions={}
  %constant.717 = s32[] constant(-1)
  %broadcast.718 = s32[6]{0} broadcast(%constant.717), dimensions={}
  %Arg_0.709 = bf16[32,8,128]{2,1,0} parameter(0)
  %reshape.724 = bf16[32,1,8,128]{3,2,1,0} reshape(%Arg_0.709), metadata={op_name="reshape" source_file="/home/eporat/benchmarking_qwen_omni_tpu/.venv/lib/python3.11/site-packages/tpu_inference/kernels/ragged_paged_attention/v3/kernel.py" source_line=920 source_end_line=925 source_column=12 source_end_column=13}
  %constant.723 = s32[] constant(0)
  %jit__pad_.728 = bf16[32,1,8,128]{3,2,1,0} call(%reshape.724, %constant.723), to_apply=%_pad.727, metadata={op_name="jit(_pad)" source_file="/home/eporat/benchmarking_qwen_omni_tpu/.venv/lib/python3.11/site-packages/tpu_inference/kernels/ragged_paged_attention/v3/kernel.py" source_line=919 source_end_line=933 source_column=8 source_end_column=9}
  %transpose.729 = bf16[1,32,4,2,128]{4,3,2,1,0} reshape(%jit__pad_.728), metadata={op_name="transpose" source_file="/home/eporat/benchmarking_qwen_omni_tpu/.venv/lib/python3.11/site-packages/tpu_inference/kernels/ragged_paged_attention/v3/kernel.py" source_line=941 source_end_line=941 source_column=9 source_end_column=23}
  %Arg_1.710 = bf16[32,1,128]{2,1,0} parameter(1)
  %Arg_2.711 = bf16[32,1,128]{2,1,0} parameter(2)
  %concatenate.730 = bf16[32,1,256]{2,1,0} concatenate(%Arg_1.710, %Arg_2.711), dimensions={2}, metadata={op_name="concatenate" source_file="/home/eporat/benchmarking_qwen_omni_tpu/.venv/lib/python3.11/site-packages/tpu_inference/kernels/ragged_paged_attention/v3/kernel.py" source_line=885 source_end_line=886 source_column=8 source_end_column=27}
  %reshape.731 = bf16[32,2,128]{2,1,0} reshape(%concatenate.730), metadata={op_name="reshape" source_file="/home/eporat/benchmarking_qwen_omni_tpu/.venv/lib/python3.11/site-packages/tpu_inference/kernels/ragged_paged_attention/v3/kernel.py" source_line=886 source_end_line=887 source_column=28 source_end_column=52}
  %jit__pad_.735 = bf16[32,2,128]{2,1,0} call(%reshape.731, %constant.723), to_apply=%_pad_67.734, metadata={op_name="jit(_pad)" source_file="/home/eporat/benchmarking_qwen_omni_tpu/.venv/lib/python3.11/site-packages/tpu_inference/kernels/ragged_paged_attention/v3/kernel.py" source_line=884 source_end_line=894 source_column=9 source_end_column=5}
  %reshape.736 = bf16[32,1,2,128]{3,2,1,0} reshape(%jit__pad_.735), metadata={op_name="reshape" source_file="/home/eporat/benchmarking_qwen_omni_tpu/.venv/lib/python3.11/site-packages/tpu_inference/kernels/ragged_paged_attention/v3/kernel.py" source_line=894 source_end_line=899 source_column=6 source_end_column=5}
  %Arg_3.712 = bf16[14813,32,1,2,128]{4,3,2,1,0} parameter(3)
  %pallas_call.739 = (bf16[1,32,4,2,128]{4,3,2,1,0}, bf16[14813,32,1,2,128]{4,3,2,1,0}) custom-call(%squeeze.738, %Arg_4.713, %Arg_5.714, %Arg_6.715, %Arg_7.716, /*index=5*/%broadcast.722, %broadcast.720, %broadcast.718, %transpose.729, %reshape.736, /*index=10*/%Arg_3.712), custom_call_target="tpu_custom_call", operand_layout_constraints={s32[], s32[256]{0}, s32[131072]{0}, s32[257]{0}, s32[3]{0}, s32[3]{0}, s32[4]{0}, s32[6]{0}, bf16[1,32,4,2,128]{4,3,2,1,0}, bf16[32,1,2,128]{3,2,1,0}, bf16[14813,32,1,2,128]{4,3,2,1,0}}, output_to_operand_aliasing={{0}: (8, {}), {1}: (10, {})}, metadata={op_name="RPA-bq_32-bkvp_64-p_32/pallas_call" source_file="/home/eporat/benchmarking_qwen_omni_tpu/.venv/lib/python3.11/site-packages/tpu_inference/kernels/ragged_paged_attention/v3/kernel.py" source_line=1442 source_end_line=1442 source_column=31 source_end_column=74}, backend_config={"custom_call_config": {"body": "…", "serialization_format": 1, "needs_layout_passes": true}, "scoped_memory_configs": [{"memory_space":1, "offset": 0, "size": 104857600}]}
  %pallas_call.740 = bf16[1,32,4,2,128]{4,3,2,1,0} get-tuple-element(%pallas_call.739), index=0, metadata={op_name="RPA-bq_32-bkvp_64-p_32/pallas_call" source_file="/home/eporat/benchmarking_qwen_omni_tpu/.venv/lib/python3.11/site-packages/tpu_inference/kernels/ragged_paged_attention/v3/kernel.py" source_line=1442 source_end_line=1442 source_column=31 source_end_column=74}
  %reshape.742 = bf16[32,8,128]{2,1,0} reshape(%pallas_call.740), metadata={op_name="reshape" source_file="/home/eporat/benchmarking_qwen_omni_tpu/.venv/lib/python3.11/site-packages/tpu_inference/kernels/ragged_paged_attention/v3/kernel.py" source_line=965 source_end_line=966 source_column=63 source_end_column=60}
  %pallas_call.741 = bf16[14813,32,1,2,128]{4,3,2,1,0} get-tuple-element(%pallas_call.739), index=1, metadata={op_name="RPA-bq_32-bkvp_64-p_32/pallas_call" source_file="/home/eporat/benchmarking_qwen_omni_tpu/.venv/lib/python3.11/site-packages/tpu_inference/kernels/ragged_paged_attention/v3/kernel.py" source_line=1442 source_end_line=1442 source_column=31 source_end_column=74}
  ROOT %tuple.743 = (bf16[32,8,128]{2,1,0}, bf16[14813,32,1,2,128]{4,3,2,1,0}) tuple(%reshape.742, %pallas_call.741)
}

%xla.sdy.manual_computation_body.749 (shard_map.701: bf16[32,8,128], shard_map.702: bf16[32,1,128], shard_map.703: bf16[32,1,128], shard_map.704: bf16[14813,32,1,2,128], shard_map.705: s32[256], shard_map.706: s32[131072], shard_map.707: s32[257], shard_map.708: s32[3]) -> (bf16[32,8,128], bf16[14813,32,1,2,128]) {
  %shard_map.701 = bf16[32,8,128]{2,1,0} parameter(0), metadata={op_name="shard_map"}
  %shard_map.702 = bf16[32,1,128]{2,1,0} parameter(1), metadata={op_name="shard_map"}
  %shard_map.703 = bf16[32,1,128]{2,1,0} parameter(2), metadata={op_name="shard_map"}
  %shard_map.704 = bf16[14813,32,1,2,128]{4,3,2,1,0} parameter(3), metadata={op_name="shard_map"}
  %shard_map.705 = s32[256]{0} parameter(4), metadata={op_name="shard_map"}
  %shard_map.706 = s32[131072]{0} parameter(5), metadata={op_name="shard_map"}
  %shard_map.707 = s32[257]{0} parameter(6), metadata={op_name="shard_map"}
  %shard_map.708 = s32[3]{0} parameter(7), metadata={op_name="shard_map"}
  %jit_ragged_paged_attention_.745 = (bf16[32,8,128]{2,1,0}, bf16[14813,32,1,2,128]{4,3,2,1,0}) call(%shard_map.701, %shard_map.702, %shard_map.703, %shard_map.704, %shard_map.705, /*index=5*/%shard_map.706, %shard_map.707, %shard_map.708), to_apply=%ragged_paged_attention.744, metadata={op_name="jit(ragged_paged_attention)" source_file="/home/eporat/benchmarking_qwen_omni_tpu/.venv/lib/python3.11/site-packages/tpu_inference/layers/jax/attention_interface.py" source_line=293 source_end_line=300 source_column=15 source_end_column=9}
  %jit_ragged_paged_attention_.746 = bf16[32,8,128]{2,1,0} get-tuple-element(%jit_ragged_paged_attention_.745), index=0, metadata={op_name="jit(ragged_paged_attention)" source_file="/home/eporat/benchmarking_qwen_omni_tpu/.venv/lib/python3.11/site-packages/tpu_inference/layers/jax/attention_interface.py" source_line=293 source_end_line=300 source_column=15 source_end_column=9}
  %jit_ragged_paged_attention_.747 = bf16[14813,32,1,2,128]{4,3,2,1,0} get-tuple-element(%jit_ragged_paged_attention_.745), index=1, metadata={op_name="jit(ragged_paged_attention)" source_file="/home/eporat/benchmarking_qwen_omni_tpu/.venv/lib/python3.11/site-packages/tpu_inference/layers/jax/attention_interface.py" source_line=293 source_end_line=300 source_column=15 source_end_column=9}
  ROOT %tuple.748 = (bf16[32,8,128]{2,1,0}, bf16[14813,32,1,2,128]{4,3,2,1,0}) tuple(%jit_ragged_paged_attention_.746, %jit_ragged_paged_attention_.747)
}

%_ragged_paged_attention.757 (Arg_0.684: bf16[32,32,128], Arg_1.685: bf16[32,4,128], Arg_2.686: bf16[32,4,128], Arg_3.687: bf16[14813,32,4,2,128], Arg_4.688: s32[256], Arg_5.689: s32[131072], Arg_6.690: s32[257], Arg_7.691: s32[3]) -> (bf16[32,32,128], bf16[14813,32,4,2,128]) {
  %Arg_0.684 = bf16[32,32,128]{2,1,0} parameter(0)
  %Arg_1.685 = bf16[32,4,128]{2,1,0} parameter(1)
  %Arg_2.686 = bf16[32,4,128]{2,1,0} parameter(2)
  %Arg_3.687 = bf16[14813,32,4,2,128]{4,3,2,1,0} parameter(3)
  %Arg_4.688 = s32[256]{0} parameter(4)
  %Arg_5.689 = s32[131072]{0} parameter(5)
  %Arg_6.690 = s32[257]{0} parameter(6)
  %Arg_7.691 = s32[3]{0} parameter(7)
  %shard_map.692 = (bf16[32,8,128]{2,1,0}, bf16[32,1,128]{2,1,0}, bf16[32,1,128]{2,1,0}, bf16[14813,32,1,2,128]{4,3,2,1,0}, s32[256]{0}, /*index=5*/s32[131072]{0}, s32[257]{0}, s32[3]{0}) custom-call(%Arg_0.684, %Arg_1.685, %Arg_2.686, %Arg_3.687, %Arg_4.688, /*index=5*/%Arg_5.689, %Arg_6.690, %Arg_7.691), custom_call_target="xla.sdy.GlobalToLocalShape", custom_call_has_side_effect=true, frontend_attributes={xla.sdy.in_shardings="#sdy.sharding_per_value<[<@mesh, [{}, {\"model\"}, {}]>, <@mesh, [{}, {\"model\"}, {}]>, <@mesh, [{}, {\"model\"}, {}]>, <@mesh, [{}, {}, {\"model\"}, {}, {}]>, <@mesh, [{}]>, <@mesh, [{}]>, <@mesh, [{}]>, <@mesh, [{}]>]>",xla.sdy.manual_axes="#sdy<manual_axes{\"data\", \"model\"}>"}, metadata={op_name="shard_map" source_file="/home/eporat/benchmarking_qwen_omni_tpu/.venv/lib/python3.11/site-packages/tpu_inference/layers/jax/attention_interface.py" source_line=343 source_end_line=354 source_column=23 source_end_column=9}
  %shard_map.693 = bf16[32,8,128]{2,1,0} get-tuple-element(%shard_map.692), index=0, frontend_attributes={xla.sdy.in_shardings="#sdy.sharding_per_value<[<@mesh, [{}, {\"model\"}, {}]>, <@mesh, [{}, {\"model\"}, {}]>, <@mesh, [{}, {\"model\"}, {}]>, <@mesh, [{}, {}, {\"model\"}, {}, {}]>, <@mesh, [{}]>, <@mesh, [{}]>, <@mesh, [{}]>, <@mesh, [{}]>]>",xla.sdy.manual_axes="#sdy<manual_axes{\"data\", \"model\"}>"}, metadata={op_name="shard_map" source_file="/home/eporat/benchmarking_qwen_omni_tpu/.venv/lib/python3.11/site-packages/tpu_inference/layers/jax/attention_interface.py" source_line=343 source_end_line=354 source_column=23 source_end_column=9}
  %shard_map.694 = bf16[32,1,128]{2,1,0} get-tuple-element(%shard_map.692), index=1, frontend_attributes={xla.sdy.in_shardings="#sdy.sharding_per_value<[<@mesh, [{}, {\"model\"}, {}]>, <@mesh, [{}, {\"model\"}, {}]>, <@mesh, [{}, {\"model\"}, {}]>, <@mesh, [{}, {}, {\"model\"}, {}, {}]>, <@mesh, [{}]>, <@mesh, [{}]>, <@mesh, [{}]>, <@mesh, [{}]>]>",xla.sdy.manual_axes="#sdy<manual_axes{\"data\", \"model\"}>"}, metadata={op_name="shard_map" source_file="/home/eporat/benchmarking_qwen_omni_tpu/.venv/lib/python3.11/site-packages/tpu_inference/layers/jax/attention_interface.py" source_line=343 source_end_line=354 source_column=23 source_end_column=9}
  %shard_map.695 = bf16[32,1,128]{2,1,0} get-tuple-element(%shard_map.692), index=2, frontend_attributes={xla.sdy.in_shardings="#sdy.sharding_per_value<[<@mesh, [{}, {\"model\"}, {}]>, <@mesh, [{}, {\"model\"}, {}]>, <@mesh, [{}, {\"model\"}, {}]>, <@mesh, [{}, {}, {\"model\"}, {}, {}]>, <@mesh, [{}]>, <@mesh, [{}]>, <@mesh, [{}]>, <@mesh, [{}]>]>",xla.sdy.manual_axes="#sdy<manual_axes{\"data\", \"model\"}>"}, metadata={op_name="shard_map" source_file="/home/eporat/benchmarking_qwen_omni_tpu/.venv/lib/python3.11/site-packages/tpu_inference/layers/jax/attention_interface.py" source_line=343 source_end_line=354 source_column=23 source_end_column=9}
  %shard_map.696 = bf16[14813,32,1,2,128]{4,3,2,1,0} get-tuple-element(%shard_map.692), index=3, frontend_attributes={xla.sdy.in_shardings="#sdy.sharding_per_value<[<@mesh, [{}, {\"model\"}, {}]>, <@mesh, [{}, {\"model\"}, {}]>, <@mesh, [{}, {\"model\"}, {}]>, <@mesh, [{}, {}, {\"model\"}, {}, {}]>, <@mesh, [{}]>, <@mesh, [{}]>, <@mesh, [{}]>, <@mesh, [{}]>]>",xla.sdy.manual_axes="#sdy<manual_axes{\"data\", \"model\"}>"}, metadata={op_name="shard_map" source_file="/home/eporat/benchmarking_qwen_omni_tpu/.venv/lib/python3.11/site-packages/tpu_inference/layers/jax/attention_interface.py" source_line=343 source_end_line=354 source_column=23 source_end_column=9}
  %shard_map.697 = s32[256]{0} get-tuple-element(%shard_map.692), index=4, frontend_attributes={xla.sdy.in_shardings="#sdy.sharding_per_value<[<@mesh, [{}, {\"model\"}, {}]>, <@mesh, [{}, {\"model\"}, {}]>, <@mesh, [{}, {\"model\"}, {}]>, <@mesh, [{}, {}, {\"model\"}, {}, {}]>, <@mesh, [{}]>, <@mesh, [{}]>, <@mesh, [{}]>, <@mesh, [{}]>]>",xla.sdy.manual_axes="#sdy<manual_axes{\"data\", \"model\"}>"}, metadata={op_name="shard_map" source_file="/home/eporat/benchmarking_qwen_omni_tpu/.venv/lib/python3.11/site-packages/tpu_inference/layers/jax/attention_interface.py" source_line=343 source_end_line=354 source_column=23 source_end_column=9}
  %shard_map.698 = s32[131072]{0} get-tuple-element(%shard_map.692), index=5, frontend_attributes={xla.sdy.in_shardings="#sdy.sharding_per_value<[<@mesh, [{}, {\"model\"}, {}]>, <@mesh, [{}, {\"model\"}, {}]>, <@mesh, [{}, {\"model\"}, {}]>, <@mesh, [{}, {}, {\"model\"}, {}, {}]>, <@mesh, [{}]>, <@mesh, [{}]>, <@mesh, [{}]>, <@mesh, [{}]>]>",xla.sdy.manual_axes="#sdy<manual_axes{\"data\", \"model\"}>"}, metadata={op_name="shard_map" source_file="/home/eporat/benchmarking_qwen_omni_tpu/.venv/lib/python3.11/site-packages/tpu_inference/layers/jax/attention_interface.py" source_line=343 source_end_line=354 source_column=23 source_end_column=9}
  %shard_map.699 = s32[257]{0} get-tuple-element(%shard_map.692), index=6, frontend_attributes={xla.sdy.in_shardings="#sdy.sharding_per_value<[<@mesh, [{}, {\"model\"}, {}]>, <@mesh, [{}, {\"model\"}, {}]>, <@mesh, [{}, {\"model\"}, {}]>, <@mesh, [{}, {}, {\"model\"}, {}, {}]>, <@mesh, [{}]>, <@mesh, [{}]>, <@mesh, [{}]>, <@mesh, [{}]>]>",xla.sdy.manual_axes="#sdy<manual_axes{\"data\", \"model\"}>"}, metadata={op_name="shard_map" source_file="/home/eporat/benchmarking_qwen_omni_tpu/.venv/lib/python3.11/site-packages/tpu_inference/layers/jax/attention_interface.py" source_line=343 source_end_line=354 source_column=23 source_end_column=9}
  %shard_map.700 = s32[3]{0} get-tuple-element(%shard_map.692), index=7, frontend_attributes={xla.sdy.in_shardings="#sdy.sharding_per_value<[<@mesh, [{}, {\"model\"}, {}]>, <@mesh, [{}, {\"model\"}, {}]>, <@mesh, [{}, {\"model\"}, {}]>, <@mesh, [{}, {}, {\"model\"}, {}, {}]>, <@mesh, [{}]>, <@mesh, [{}]>, <@mesh, [{}]>, <@mesh, [{}]>]>",xla.sdy.manual_axes="#sdy<manual_axes{\"data\", \"model\"}>"}, metadata={op_name="shard_map" source_file="/home/eporat/benchmarking_qwen_omni_tpu/.venv/lib/python3.11/site-packages/tpu_inference/layers/jax/attention_interface.py" source_line=343 source_end_line=354 source_column=23 source_end_column=9}
  %shard_map.750 = (bf16[32,8,128]{2,1,0}, bf16[14813,32,1,2,128]{4,3,2,1,0}) call(%shard_map.693, %shard_map.694, %shard_map.695, %shard_map.696, %shard_map.697, /*index=5*/%shard_map.698, %shard_map.699, %shard_map.700), to_apply=%xla.sdy.manual_computation_body.749, frontend_attributes={inlineable="false"}, metadata={op_name="shard_map" source_file="/home/eporat/benchmarking_qwen_omni_tpu/.venv/lib/python3.11/site-packages/tpu_inference/layers/jax/attention_interface.py" source_line=343 source_end_line=354 source_column=23 source_end_column=9}
  %shard_map.751 = bf16[32,8,128]{2,1,0} get-tuple-element(%shard_map.750), index=0, frontend_attributes={inlineable="false"}, metadata={op_name="shard_map" source_file="/home/eporat/benchmarking_qwen_omni_tpu/.venv/lib/python3.11/site-packages/tpu_inference/layers/jax/attention_interface.py" source_line=343 source_end_line=354 source_column=23 source_end_column=9}
  %shard_map.752 = bf16[14813,32,1,2,128]{4,3,2,1,0} get-tuple-element(%shard_map.750), index=1, frontend_attributes={inlineable="false"}, metadata={op_name="shard_map" source_file="/home/eporat/benchmarking_qwen_omni_tpu/.venv/lib/python3.11/site-packages/tpu_inference/layers/jax/attention_interface.py" source_line=343 source_end_line=354 source_column=23 source_end_column=9}
  %shard_map.753 = (bf16[32,32,128]{2,1,0}, bf16[14813,32,4,2,128]{4,3,2,1,0}) custom-call(%shard_map.751, %shard_map.752), custom_call_target="xla.sdy.LocalToGlobalShape", custom_call_has_side_effect=true, frontend_attributes={xla.sdy.manual_axes="#sdy<manual_axes{\"data\", \"model\"}>",xla.sdy.out_shardings="#sdy.sharding_per_value<[<@mesh, [{}, {\"model\"}, {}]>, <@mesh, [{}, {}, {\"model\"}, {}, {}]>]>"}, metadata={op_name="shard_map" source_file="/home/eporat/benchmarking_qwen_omni_tpu/.venv/lib/python3.11/site-packages/tpu_inference/layers/jax/attention_interface.py" source_line=343 source_end_line=354 source_column=23 source_end_column=9}
  %shard_map.754 = bf16[32,32,128]{2,1,0} get-tuple-element(%shard_map.753), index=0, frontend_attributes={xla.sdy.manual_axes="#sdy<manual_axes{\"data\", \"model\"}>",xla.sdy.out_shardings="#sdy.sharding_per_value<[<@mesh, [{}, {\"model\"}, {}]>, <@mesh, [{}, {}, {\"model\"}, {}, {}]>]>"}, metadata={op_name="shard_map" source_file="/home/eporat/benchmarking_qwen_omni_tpu/.venv/lib/python3.11/site-packages/tpu_inference/layers/jax/attention_interface.py" source_line=343 source_end_line=354 source_column=23 source_end_column=9}
  %shard_map.755 = bf16[14813,32,4,2,128]{4,3,2,1,0} get-tuple-element(%shard_map.753), index=1, frontend_attributes={xla.sdy.manual_axes="#sdy<manual_axes{\"data\", \"model\"}>",xla.sdy.out_shardings="#sdy.sharding_per_value<[<@mesh, [{}, {\"model\"}, {}]>, <@mesh, [{}, {}, {\"model\"}, {}, {}]>]>"}, metadata={op_name="shard_map" source_file="/home/eporat/benchmarking_qwen_omni_tpu/.venv/lib/python3.11/site-packages/tpu_inference/layers/jax/attention_interface.py" source_line=343 source_end_line=354 source_column=23 source_end_column=9}
  ROOT %tuple.756 = (bf16[32,32,128]{2,1,0}, bf16[14813,32,4,2,128]{4,3,2,1,0}) tuple(%shard_map.754, %shard_map.755)
}

%_jax_attn_func.763 (Arg_0.673: bf16[14813,32,4,2,128], Arg_1.674: bf16[32,4096], Arg_2.675: bf16[32,512], Arg_3.676: bf16[32,512], Arg_4.677: s32[131072], Arg_5.678: s32[256], Arg_6.679: s32[257], Arg_7.680: s32[3]) -> (bf16[14813,32,4,2,128], bf16[32,4096]) {
  %Arg_1.674 = bf16[32,4096]{1,0} parameter(1)
  %reshape.681 = bf16[32,32,128]{2,1,0} reshape(%Arg_1.674), metadata={op_name="reshape" source_file="/home/eporat/benchmarking_qwen_omni_tpu/.venv/lib/python3.11/site-packages/tpu_inference/layers/vllm/attention.py" source_line=161 source_end_line=161 source_column=8 source_end_column=46}
  %Arg_2.675 = bf16[32,512]{1,0} parameter(2)
  %reshape.682 = bf16[32,4,128]{2,1,0} reshape(%Arg_2.675), metadata={op_name="reshape" source_file="/home/eporat/benchmarking_qwen_omni_tpu/.venv/lib/python3.11/site-packages/tpu_inference/layers/vllm/attention.py" source_line=163 source_end_line=163 source_column=8 source_end_column=49}
  %Arg_3.676 = bf16[32,512]{1,0} parameter(3)
  %reshape.683 = bf16[32,4,128]{2,1,0} reshape(%Arg_3.676), metadata={op_name="reshape" source_file="/home/eporat/benchmarking_qwen_omni_tpu/.venv/lib/python3.11/site-packages/tpu_inference/layers/vllm/attention.py" source_line=164 source_end_line=164 source_column=8 source_end_column=49}
  %Arg_0.673 = bf16[14813,32,4,2,128]{4,3,2,1,0} parameter(0)
  %Arg_5.678 = s32[256]{0} parameter(5)
  %Arg_4.677 = s32[131072]{0} parameter(4)
  %Arg_6.679 = s32[257]{0} parameter(6)
  %Arg_7.680 = s32[3]{0} parameter(7)
  %jit__ragged_paged_attention_.758 = (bf16[32,32,128]{2,1,0}, bf16[14813,32,4,2,128]{4,3,2,1,0}) call(%reshape.681, %reshape.682, %reshape.683, %Arg_0.673, %Arg_5.678, /*index=5*/%Arg_4.677, %Arg_6.679, %Arg_7.680), to_apply=%_ragged_paged_attention.757, metadata={op_name="jit(_ragged_paged_attention)" source_file="/home/eporat/benchmarking_qwen_omni_tpu/.venv/lib/python3.11/site-packages/tpu_inference/layers/jax/attention_interface.py" source_line=343 source_end_line=354 source_column=23 source_end_column=9}
  %jit__ragged_paged_attention_.760 = bf16[14813,32,4,2,128]{4,3,2,1,0} get-tuple-element(%jit__ragged_paged_attention_.758), index=1, metadata={op_name="jit(_ragged_paged_attention)" source_file="/home/eporat/benchmarking_qwen_omni_tpu/.venv/lib/python3.11/site-packages/tpu_inference/layers/jax/attention_interface.py" source_line=343 source_end_line=354 source_column=23 source_end_column=9}
  %jit__ragged_paged_attention_.759 = bf16[32,32,128]{2,1,0} get-tuple-element(%jit__ragged_paged_attention_.758), index=0, metadata={op_name="jit(_ragged_paged_attention)" source_file="/home/eporat/benchmarking_qwen_omni_tpu/.venv/lib/python3.11/site-packages/tpu_inference/layers/jax/attention_interface.py" source_line=343 source_end_line=354 source_column=23 source_end_column=9}
  %reshape.761 = bf16[32,4096]{1,0} reshape(%jit__ragged_paged_attention_.759), metadata={op_name="reshape" source_file="/home/eporat/benchmarking_qwen_omni_tpu/.venv/lib/python3.11/site-packages/tpu_inference/layers/vllm/attention.py" source_line=182 source_end_line=182 source_column=14 source_end_column=51}
  ROOT %tuple.762 = (bf16[14813,32,4,2,128]{4,3,2,1,0}, bf16[32,4096]{1,0}) tuple(%jit__ragged_paged_attention_.760, %reshape.761)
}

%region_4.776 (reduce_sum.773: f32[], reduce_sum.774: f32[]) -> f32[] {
  %reduce_sum.773 = f32[] parameter(0), metadata={op_name="reduce_sum"}
  %reduce_sum.774 = f32[] parameter(1), metadata={op_name="reduce_sum"}
  ROOT %reduce_sum.775 = f32[] add(%reduce_sum.773, %reduce_sum.774), metadata={op_name="jit(step_fun)/aten::mean.dim/reduce_sum" source_file="/home/eporat/benchmarking_qwen_omni_tpu/.venv/lib/python3.11/site-packages/torchax/ops/jaten.py" source_line=265 source_end_line=265 source_column=9 source_end_column=43}
}

%region_5.818 (reduce_max.815: f32[], reduce_max.816: f32[]) -> f32[] {
  %reduce_max.815 = f32[] parameter(0), metadata={op_name="reduce_max"}
  %reduce_max.816 = f32[] parameter(1), metadata={op_name="reduce_max"}
  ROOT %reduce_max.817 = f32[] maximum(%reduce_max.815, %reduce_max.816), metadata={op_name="reduce_max" source_file="/home/eporat/benchmarking_qwen_omni_tpu/.venv/lib/python3.11/site-packages/tpu_inference/layers/vllm/fused_moe.py" source_line=309 source_end_line=309 source_column=19 source_end_column=77}
}

%region_6.830 (reduce_sum.827: f32[], reduce_sum.828: f32[]) -> f32[] {
  %reduce_sum.827 = f32[] parameter(0), metadata={op_name="reduce_sum"}
  %reduce_sum.828 = f32[] parameter(1), metadata={op_name="reduce_sum"}
  ROOT %reduce_sum.829 = f32[] add(%reduce_sum.827, %reduce_sum.828), metadata={op_name="reduce_sum" source_file="/home/eporat/benchmarking_qwen_omni_tpu/.venv/lib/python3.11/site-packages/tpu_inference/layers/vllm/fused_moe.py" source_line=309 source_end_line=309 source_column=19 source_end_column=77}
}

%region_7.843 (reduce_sum.840: f32[], reduce_sum.841: f32[]) -> f32[] {
  %reduce_sum.840 = f32[] parameter(0), metadata={op_name="reduce_sum"}
  %reduce_sum.841 = f32[] parameter(1), metadata={op_name="reduce_sum"}
  ROOT %reduce_sum.842 = f32[] add(%reduce_sum.840, %reduce_sum.841), metadata={op_name="reduce_sum" source_file="/home/eporat/benchmarking_qwen_omni_tpu/.venv/lib/python3.11/site-packages/tpu_inference/layers/vllm/fused_moe.py" source_line=312 source_end_line=312 source_column=38 source_end_column=78}
}

%region_8.859 (sort.854: s32[], sort.855: s32[], sort.856: s32[], sort.857: s32[]) -> pred[] {
  %sort.856 = s32[] parameter(2), metadata={op_name="sort"}
  %sort.857 = s32[] parameter(3), metadata={op_name="sort"}
  %sort.854 = s32[] parameter(0), metadata={op_name="sort"}
  %sort.855 = s32[] parameter(1), metadata={op_name="sort"}
  ROOT %lt_to.858 = pred[] compare(%sort.854, %sort.855), direction=LT, metadata={op_name="lt_to" source_file="/home/eporat/benchmarking_qwen_omni_tpu/.venv/lib/python3.11/site-packages/tpu_inference/layers/vllm/fused_moe.py" source_line=316 source_end_line=316 source_column=27 source_end_column=57}
}

%argsort.863 (Arg_0.852: s32[256]) -> s32[256] {
  %Arg_0.852 = s32[256]{0} parameter(0)
  %iota.853 = s32[256]{0} iota(), iota_dimension=0, metadata={op_name="iota" source_file="/home/eporat/benchmarking_qwen_omni_tpu/.venv/lib/python3.11/site-packages/tpu_inference/layers/vllm/fused_moe.py" source_line=316 source_end_line=316 source_column=27 source_end_column=57}
  %sort.860 = (s32[256]{0}, s32[256]{0}) sort(%Arg_0.852, %iota.853), dimensions={0}, is_stable=true, to_apply=%region_8.859, metadata={op_name="sort" source_file="/home/eporat/benchmarking_qwen_omni_tpu/.venv/lib/python3.11/site-packages/tpu_inference/layers/vllm/fused_moe.py" source_line=316 source_end_line=316 source_column=27 source_end_column=57}
  %sort.861 = s32[256]{0} get-tuple-element(%sort.860), index=0, metadata={op_name="sort" source_file="/home/eporat/benchmarking_qwen_omni_tpu/.venv/lib/python3.11/site-packages/tpu_inference/layers/vllm/fused_moe.py" source_line=316 source_end_line=316 source_column=27 source_end_column=57}
  ROOT %sort.862 = s32[256]{0} get-tuple-element(%sort.860), index=1, metadata={op_name="sort" source_file="/home/eporat/benchmarking_qwen_omni_tpu/.venv/lib/python3.11/site-packages/tpu_inference/layers/vllm/fused_moe.py" source_line=316 source_end_line=316 source_column=27 source_end_column=57}
}

%region_9.872 (sort.867: s32[], sort.868: s32[], sort.869: s32[], sort.870: s32[]) -> pred[] {
  %sort.869 = s32[] parameter(2), metadata={op_name="sort"}
  %sort.870 = s32[] parameter(3), metadata={op_name="sort"}
  %sort.867 = s32[] parameter(0), metadata={op_name="sort"}
  %sort.868 = s32[] parameter(1), metadata={op_name="sort"}
  ROOT %lt_to.871 = pred[] compare(%sort.867, %sort.868), direction=LT, metadata={op_name="lt_to" source_file="/home/eporat/benchmarking_qwen_omni_tpu/.venv/lib/python3.11/site-packages/tpu_inference/layers/vllm/fused_moe.py" source_line=317 source_end_line=317 source_column=34 source_end_column=67}
}

%argsort_93.876 (Arg_0.865: s32[256]) -> s32[256] {
  %Arg_0.865 = s32[256]{0} parameter(0)
  %iota.866 = s32[256]{0} iota(), iota_dimension=0, metadata={op_name="iota" source_file="/home/eporat/benchmarking_qwen_omni_tpu/.venv/lib/python3.11/site-packages/tpu_inference/layers/vllm/fused_moe.py" source_line=317 source_end_line=317 source_column=34 source_end_column=67}
  %sort.873 = (s32[256]{0}, s32[256]{0}) sort(%Arg_0.865, %iota.866), dimensions={0}, is_stable=true, to_apply=%region_9.872, metadata={op_name="sort" source_file="/home/eporat/benchmarking_qwen_omni_tpu/.venv/lib/python3.11/site-packages/tpu_inference/layers/vllm/fused_moe.py" source_line=317 source_end_line=317 source_column=34 source_end_column=67}
  %sort.874 = s32[256]{0} get-tuple-element(%sort.873), index=0, metadata={op_name="sort" source_file="/home/eporat/benchmarking_qwen_omni_tpu/.venv/lib/python3.11/site-packages/tpu_inference/layers/vllm/fused_moe.py" source_line=317 source_end_line=317 source_column=34 source_end_column=67}
  ROOT %sort.875 = s32[256]{0} get-tuple-element(%sort.873), index=1, metadata={op_name="sort" source_file="/home/eporat/benchmarking_qwen_omni_tpu/.venv/lib/python3.11/site-packages/tpu_inference/layers/vllm/fused_moe.py" source_line=317 source_end_line=317 source_column=34 source_end_column=67}
}

%clip.890 (Arg_0.886: s32[256], Arg_1.887: s32[]) -> s32[256] {
  %Arg_1.887 = s32[] parameter(1)
  %max.888 = s32[256]{0} broadcast(%Arg_1.887), dimensions={}, metadata={op_name="max" source_file="/home/eporat/benchmarking_qwen_omni_tpu/.venv/lib/python3.11/site-packages/tpu_inference/layers/vllm/fused_moe.py" source_line=320 source_end_line=320 source_column=18 source_end_column=76}
  %Arg_0.886 = s32[256]{0} parameter(0)
  ROOT %max.889 = s32[256]{0} maximum(%max.888, %Arg_0.886), metadata={op_name="max" source_file="/home/eporat/benchmarking_qwen_omni_tpu/.venv/lib/python3.11/site-packages/tpu_inference/layers/vllm/fused_moe.py" source_line=320 source_end_line=320 source_column=18 source_end_column=76}
}

%region_10.899 (scatter-add.896: s32[], scatter-add.897: s32[]) -> s32[] {
  %scatter-add.896 = s32[] parameter(0), metadata={op_name="scatter-add"}
  %scatter-add.897 = s32[] parameter(1), metadata={op_name="scatter-add"}
  ROOT %add.898 = s32[] add(%scatter-add.896, %scatter-add.897), metadata={op_name="add" source_file="/home/eporat/benchmarking_qwen_omni_tpu/.venv/lib/python3.11/site-packages/tpu_inference/layers/vllm/fused_moe.py" source_line=320 source_end_line=320 source_column=18 source_end_column=76}
}

%region_11.964 (reduce_window_sum.961: s32[], reduce_window_sum.962: s32[]) -> s32[] {
  %reduce_window_sum.961 = s32[] parameter(0), metadata={op_name="reduce_window_sum"}
  %reduce_window_sum.962 = s32[] parameter(1), metadata={op_name="reduce_window_sum"}
  ROOT %reduce_window_sum.963 = s32[] add(%reduce_window_sum.961, %reduce_window_sum.962), metadata={op_name="reduce_window_sum" source_file="/home/eporat/benchmarking_qwen_omni_tpu/.venv/lib/python3.11/site-packages/jax/experimental/pallas/ops/tpu/megablox/gmm.py" source_line=126 source_end_line=126 source_column=15 source_end_column=38}
}

%cumsum_120.966 (make_group_metadata.959: s32[128]) -> s32[128] {
  %make_group_metadata.959 = s32[128]{0} parameter(0), metadata={op_name="make_group_metadata"}
  %constant.960 = s32[] constant(0)
  ROOT %reduce_window_sum.965 = s32[128]{0} reduce-window(%make_group_metadata.959, %constant.960), window={size=128 pad=127_0}, to_apply=%region_11.964, metadata={op_name="reduce_window_sum" source_file="/home/eporat/benchmarking_qwen_omni_tpu/.venv/lib/python3.11/site-packages/jax/experimental/pallas/ops/tpu/megablox/gmm.py" source_line=126 source_end_line=126 source_column=15 source_end_column=38}
}

%cumsum.968 (Arg_0.958: s32[128]) -> s32[128] {
  %Arg_0.958 = s32[128]{0} parameter(0)
  ROOT %make_group_metadata.967 = s32[128]{0} call(%Arg_0.958), to_apply=%cumsum_120.966, metadata={op_name="make_group_metadata" source_file="/home/eporat/benchmarking_qwen_omni_tpu/.venv/lib/python3.11/site-packages/jax/experimental/pallas/ops/tpu/megablox/gmm.py" source_line=126 source_end_line=126 source_column=15 source_end_column=38}
}

%_where_130.994 (Arg_0.990: pred[128], Arg_1.991: s32[128], Arg_2.992: s32[128]) -> s32[128] {
  %Arg_0.990 = pred[128]{0} parameter(0)
  %Arg_1.991 = s32[128]{0} parameter(1)
  %Arg_2.992 = s32[128]{0} parameter(2)
  ROOT %select_n.993 = s32[128]{0} select(%Arg_0.990, %Arg_1.991, %Arg_2.992), metadata={op_name="select_n" source_file="/home/eporat/benchmarking_qwen_omni_tpu/.venv/lib/python3.11/site-packages/jax/experimental/pallas/ops/tpu/megablox/gmm.py" source_line=140 source_end_line=140 source_column=24 source_end_column=51}
}

%floor_divide.996 (Arg_0.973: s32[128], Arg_1.974: s32[]) -> s32[128] {
  %Arg_0.973 = s32[128]{0} parameter(0)
  %sign.981 = s32[128]{0} sign(%Arg_0.973), metadata={op_name="sign" source_file="/home/eporat/benchmarking_qwen_omni_tpu/.venv/lib/python3.11/site-packages/jax/experimental/pallas/ops/tpu/megablox/gmm.py" source_line=140 source_end_line=140 source_column=24 source_end_column=51}
  %Arg_1.974 = s32[] parameter(1)
  %sign.982 = s32[] sign(%Arg_1.974), metadata={op_name="sign" source_file="/home/eporat/benchmarking_qwen_omni_tpu/.venv/lib/python3.11/site-packages/jax/experimental/pallas/ops/tpu/megablox/gmm.py" source_line=140 source_end_line=140 source_column=24 source_end_column=51}
  %ne.983 = s32[128]{0} broadcast(%sign.982), dimensions={}, metadata={op_name="ne" source_file="/home/eporat/benchmarking_qwen_omni_tpu/.venv/lib/python3.11/site-packages/jax/experimental/pallas/ops/tpu/megablox/gmm.py" source_line=140 source_end_line=140 source_column=24 source_end_column=51}
  %ne.984 = pred[128]{0} compare(%sign.981, %ne.983), direction=NE, metadata={op_name="ne" source_file="/home/eporat/benchmarking_qwen_omni_tpu/.venv/lib/python3.11/site-packages/jax/experimental/pallas/ops/tpu/megablox/gmm.py" source_line=140 source_end_line=140 source_column=24 source_end_column=51}
  %rem.985 = s32[128]{0} broadcast(%Arg_1.974), dimensions={}, metadata={op_name="rem" source_file="/home/eporat/benchmarking_qwen_omni_tpu/.venv/lib/python3.11/site-packages/jax/experimental/pallas/ops/tpu/megablox/gmm.py" source_line=140 source_end_line=140 source_column=24 source_end_column=51}
  %rem.986 = s32[128]{0} remainder(%Arg_0.973, %rem.985), metadata={op_name="rem" source_file="/home/eporat/benchmarking_qwen_omni_tpu/.venv/lib/python3.11/site-packages/jax/experimental/pallas/ops/tpu/megablox/gmm.py" source_line=140 source_end_line=140 source_column=24 source_end_column=51}
  %constant.977 = s32[] constant(0)
  %ne.978 = s32[128]{0} broadcast(%constant.977), dimensions={}, metadata={op_name="ne" source_file="/home/eporat/benchmarking_qwen_omni_tpu/.venv/lib/python3.11/site-packages/jax/experimental/pallas/ops/tpu/megablox/gmm.py" source_line=140 source_end_line=140 source_column=24 source_end_column=51}
  %ne.987 = pred[128]{0} compare(%rem.986, %ne.978), direction=NE, metadata={op_name="ne" source_file="/home/eporat/benchmarking_qwen_omni_tpu/.venv/lib/python3.11/site-packages/jax/experimental/pallas/ops/tpu/megablox/gmm.py" source_line=140 source_end_line=140 source_column=24 source_end_column=51}
  %and.988 = pred[128]{0} and(%ne.984, %ne.987), metadata={op_name="and" source_file="/home/eporat/benchmarking_qwen_omni_tpu/.venv/lib/python3.11/site-packages/jax/experimental/pallas/ops/tpu/megablox/gmm.py" source_line=140 source_end_line=140 source_column=24 source_end_column=51}
  %div.979 = s32[128]{0} broadcast(%Arg_1.974), dimensions={}, metadata={op_name="div" source_file="/home/eporat/benchmarking_qwen_omni_tpu/.venv/lib/python3.11/site-packages/jax/experimental/pallas/ops/tpu/megablox/gmm.py" source_line=140 source_end_line=140 source_column=24 source_end_column=51}
  %div.980 = s32[128]{0} divide(%Arg_0.973, %div.979), metadata={op_name="div" source_file="/home/eporat/benchmarking_qwen_omni_tpu/.venv/lib/python3.11/site-packages/jax/experimental/pallas/ops/tpu/megablox/gmm.py" source_line=140 source_end_line=140 source_column=24 source_end_column=51}
  %constant.975 = s32[] constant(1)
  %sub.976 = s32[128]{0} broadcast(%constant.975), dimensions={}, metadata={op_name="sub" source_file="/home/eporat/benchmarking_qwen_omni_tpu/.venv/lib/python3.11/site-packages/jax/experimental/pallas/ops/tpu/megablox/gmm.py" source_line=140 source_end_line=140 source_column=24 source_end_column=51}
  %sub.989 = s32[128]{0} subtract(%div.980, %sub.976), metadata={op_name="sub" source_file="/home/eporat/benchmarking_qwen_omni_tpu/.venv/lib/python3.11/site-packages/jax/experimental/pallas/ops/tpu/megablox/gmm.py" source_line=140 source_end_line=140 source_column=24 source_end_column=51}
  ROOT %jit__where_.995 = s32[128]{0} call(%and.988, %sub.989, %div.980), to_apply=%_where_130.994, metadata={op_name="jit(_where)" source_file="/home/eporat/benchmarking_qwen_omni_tpu/.venv/lib/python3.11/site-packages/jax/experimental/pallas/ops/tpu/megablox/gmm.py" source_line=140 source_end_line=140 source_column=24 source_end_column=51}
}

%_where_136.1010 (Arg_0.1005: pred[128], Arg_1.1006: s32[], Arg_2.1007: s32[128]) -> s32[128] {
  %Arg_0.1005 = pred[128]{0} parameter(0)
  %Arg_1.1006 = s32[] parameter(1)
  %broadcast_in_dim.1008 = s32[128]{0} broadcast(%Arg_1.1006), dimensions={}, metadata={op_name="broadcast_in_dim" source_file="/home/eporat/benchmarking_qwen_omni_tpu/.venv/lib/python3.11/site-packages/jax/experimental/pallas/ops/tpu/megablox/gmm.py" source_line=154 source_end_line=154 source_column=24 source_end_column=75}
  %Arg_2.1007 = s32[128]{0} parameter(2)
  ROOT %select_n.1009 = s32[128]{0} select(%Arg_0.1005, %broadcast_in_dim.1008, %Arg_2.1007), metadata={op_name="select_n" source_file="/home/eporat/benchmarking_qwen_omni_tpu/.venv/lib/python3.11/site-packages/jax/experimental/pallas/ops/tpu/megablox/gmm.py" source_line=154 source_end_line=154 source_column=24 source_end_column=75}
}

%_roll_static.1018 (Arg_0.1014: s32[128]) -> s32[128] {
  %Arg_0.1014 = s32[128]{0} parameter(0)
  %slice.1015 = s32[1]{0} slice(%Arg_0.1014), slice={[127:128]}, metadata={op_name="slice" source_file="/home/eporat/benchmarking_qwen_omni_tpu/.venv/lib/python3.11/site-packages/jax/experimental/pallas/ops/tpu/megablox/gmm.py" source_line=187 source_end_line=191 source_column=14 source_end_column=3}
  %slice.1016 = s32[127]{0} slice(%Arg_0.1014), slice={[0:127]}, metadata={op_name="slice" source_file="/home/eporat/benchmarking_qwen_omni_tpu/.venv/lib/python3.11/site-packages/jax/experimental/pallas/ops/tpu/megablox/gmm.py" source_line=187 source_end_line=191 source_column=14 source_end_column=3}
  ROOT %concatenate.1017 = s32[128]{0} concatenate(%slice.1015, %slice.1016), dimensions={0}, metadata={op_name="concatenate" source_file="/home/eporat/benchmarking_qwen_omni_tpu/.venv/lib/python3.11/site-packages/jax/experimental/pallas/ops/tpu/megablox/gmm.py" source_line=187 source_end_line=191 source_column=14 source_end_column=3}
}

%region_12.1022 (scatter.1020: s32[], scatter.1021: s32[]) -> s32[] {
  %scatter.1020 = s32[] parameter(0), metadata={op_name="scatter"}
  ROOT %scatter.1021 = s32[] parameter(1), metadata={op_name="scatter"}
}

%region_13.1032 (scatter-add.1029: s32[], scatter-add.1030: s32[]) -> s32[] {
  %scatter-add.1029 = s32[] parameter(0), metadata={op_name="scatter-add"}
  %scatter-add.1030 = s32[] parameter(1), metadata={op_name="scatter-add"}
  ROOT %add.1031 = s32[] add(%scatter-add.1029, %scatter-add.1030), metadata={op_name="add" source_file="/home/eporat/benchmarking_qwen_omni_tpu/.venv/lib/python3.11/site-packages/jax/experimental/pallas/ops/tpu/megablox/gmm.py" source_line=187 source_end_line=191 source_column=14 source_end_column=3}
}

%region_14.1040 (reduce_window_sum.1037: s32[], reduce_window_sum.1038: s32[]) -> s32[] {
  %reduce_window_sum.1037 = s32[] parameter(0), metadata={op_name="reduce_window_sum"}
  %reduce_window_sum.1038 = s32[] parameter(1), metadata={op_name="reduce_window_sum"}
  ROOT %reduce_window_sum.1039 = s32[] add(%reduce_window_sum.1037, %reduce_window_sum.1038), metadata={op_name="reduce_window_sum" source_file="/home/eporat/benchmarking_qwen_omni_tpu/.venv/lib/python3.11/site-packages/jax/experimental/pallas/ops/tpu/megablox/gmm.py" source_line=187 source_end_line=191 source_column=14 source_end_column=3}
}

%cumsum_150.1042 (make_group_metadata.1035: s32[129]) -> s32[129] {
  %make_group_metadata.1035 = s32[129]{0} parameter(0), metadata={op_name="make_group_metadata"}
  %constant.1036 = s32[] constant(0)
  ROOT %reduce_window_sum.1041 = s32[129]{0} reduce-window(%make_group_metadata.1035, %constant.1036), window={size=129 pad=128_0}, to_apply=%region_14.1040, metadata={op_name="reduce_window_sum" source_file="/home/eporat/benchmarking_qwen_omni_tpu/.venv/lib/python3.11/site-packages/jax/experimental/pallas/ops/tpu/megablox/gmm.py" source_line=187 source_end_line=191 source_column=14 source_end_column=3}
}

%cumsum_149.1044 (Arg_0.1034: s32[129]) -> s32[129] {
  %Arg_0.1034 = s32[129]{0} parameter(0)
  ROOT %make_group_metadata.1043 = s32[129]{0} call(%Arg_0.1034), to_apply=%cumsum_150.1042, metadata={op_name="make_group_metadata" source_file="/home/eporat/benchmarking_qwen_omni_tpu/.venv/lib/python3.11/site-packages/jax/experimental/pallas/ops/tpu/megablox/gmm.py" source_line=187 source_end_line=191 source_column=14 source_end_column=3}
}

%_where_156.1066 (Arg_0.1062: pred[129], Arg_1.1063: s32[129], Arg_2.1064: s32[129]) -> s32[129] {
  %Arg_0.1062 = pred[129]{0} parameter(0)
  %Arg_1.1063 = s32[129]{0} parameter(1)
  %Arg_2.1064 = s32[129]{0} parameter(2)
  ROOT %select_n.1065 = s32[129]{0} select(%Arg_0.1062, %Arg_1.1063, %Arg_2.1064), metadata={op_name="select_n" source_file="/home/eporat/benchmarking_qwen_omni_tpu/.venv/lib/python3.11/site-packages/jax/experimental/pallas/ops/tpu/megablox/gmm.py" source_line=187 source_end_line=191 source_column=14 source_end_column=3}
}

%region_15.1075 (reduce_and.1072: pred[], reduce_and.1073: pred[]) -> pred[] {
  %reduce_and.1072 = pred[] parameter(0), metadata={op_name="reduce_and"}
  %reduce_and.1073 = pred[] parameter(1), metadata={op_name="reduce_and"}
  ROOT %reduce_and.1074 = pred[] and(%reduce_and.1072, %reduce_and.1073), metadata={op_name="reduce_and" source_file="/home/eporat/benchmarking_qwen_omni_tpu/.venv/lib/python3.11/site-packages/jax/experimental/pallas/ops/tpu/megablox/gmm.py" source_line=187 source_end_line=191 source_column=14 source_end_column=3}
}

%_take_153.1079 (Arg_0.1047: s32[128], Arg_1.1048: s32[129]) -> s32[129] {
  %Arg_1.1048 = s32[129]{0} parameter(1)
  %constant.1058 = s32[] constant(0)
  %lt.1059 = s32[129]{0} broadcast(%constant.1058), dimensions={}, metadata={op_name="lt" source_file="/home/eporat/benchmarking_qwen_omni_tpu/.venv/lib/python3.11/site-packages/jax/experimental/pallas/ops/tpu/megablox/gmm.py" source_line=187 source_end_line=191 source_column=14 source_end_column=3}
  %lt.1060 = pred[129]{0} compare(%Arg_1.1048, %lt.1059), direction=LT, metadata={op_name="lt" source_file="/home/eporat/benchmarking_qwen_omni_tpu/.venv/lib/python3.11/site-packages/jax/experimental/pallas/ops/tpu/megablox/gmm.py" source_line=187 source_end_line=191 source_column=14 source_end_column=3}
  %constant.1055 = s32[] constant(128)
  %add.1056 = s32[129]{0} broadcast(%constant.1055), dimensions={}, metadata={op_name="add" source_file="/home/eporat/benchmarking_qwen_omni_tpu/.venv/lib/python3.11/site-packages/jax/experimental/pallas/ops/tpu/megablox/gmm.py" source_line=187 source_end_line=191 source_column=14 source_end_column=3}
  %add.1061 = s32[129]{0} add(%Arg_1.1048, %add.1056), metadata={op_name="add" source_file="/home/eporat/benchmarking_qwen_omni_tpu/.venv/lib/python3.11/site-packages/jax/experimental/pallas/ops/tpu/megablox/gmm.py" source_line=187 source_end_line=191 source_column=14 source_end_column=3}
  %jit__where_.1067 = s32[129]{0} call(%lt.1060, %add.1061, %Arg_1.1048), to_apply=%_where_156.1066, metadata={op_name="jit(_where)" source_file="/home/eporat/benchmarking_qwen_omni_tpu/.venv/lib/python3.11/site-packages/jax/experimental/pallas/ops/tpu/megablox/gmm.py" source_line=187 source_end_line=191 source_column=14 source_end_column=3}
  %broadcast_in_dim.1068 = s32[129,1]{1,0} reshape(%jit__where_.1067), metadata={op_name="broadcast_in_dim" source_file="/home/eporat/benchmarking_qwen_omni_tpu/.venv/lib/python3.11/site-packages/jax/experimental/pallas/ops/tpu/megablox/gmm.py" source_line=187 source_end_line=191 source_column=14 source_end_column=3}
  %constant.1053 = s32[] constant(0)
  %ge.1054 = s32[129,1]{1,0} broadcast(%constant.1053), dimensions={}, metadata={op_name="ge" source_file="/home/eporat/benchmarking_qwen_omni_tpu/.venv/lib/python3.11/site-packages/jax/experimental/pallas/ops/tpu/megablox/gmm.py" source_line=187 source_end_line=191 source_column=14 source_end_column=3}
  %ge.1069 = pred[129,1]{1,0} compare(%broadcast_in_dim.1068, %ge.1054), direction=GE, metadata={op_name="ge" source_file="/home/eporat/benchmarking_qwen_omni_tpu/.venv/lib/python3.11/site-packages/jax/experimental/pallas/ops/tpu/megablox/gmm.py" source_line=187 source_end_line=191 source_column=14 source_end_column=3}
  %constant.1051 = s32[] constant(127)
  %le.1052 = s32[129,1]{1,0} broadcast(%constant.1051), dimensions={}, metadata={op_name="le" source_file="/home/eporat/benchmarking_qwen_omni_tpu/.venv/lib/python3.11/site-packages/jax/experimental/pallas/ops/tpu/megablox/gmm.py" source_line=187 source_end_line=191 source_column=14 source_end_column=3}
  %le.1070 = pred[129,1]{1,0} compare(%broadcast_in_dim.1068, %le.1052), direction=LE, metadata={op_name="le" source_file="/home/eporat/benchmarking_qwen_omni_tpu/.venv/lib/python3.11/site-packages/jax/experimental/pallas/ops/tpu/megablox/gmm.py" source_line=187 source_end_line=191 source_column=14 source_end_column=3}
  %and.1071 = pred[129,1]{1,0} and(%ge.1069, %le.1070), metadata={op_name="and" source_file="/home/eporat/benchmarking_qwen_omni_tpu/.venv/lib/python3.11/site-packages/jax/experimental/pallas/ops/tpu/megablox/gmm.py" source_line=187 source_end_line=191 source_column=14 source_end_column=3}
  %constant.1057 = pred[] constant(true)
  %reduce_and.1076 = pred[129]{0} reduce(%and.1071, %constant.1057), dimensions={1}, to_apply=%region_15.1075, metadata={op_name="reduce_and" source_file="/home/eporat/benchmarking_qwen_omni_tpu/.venv/lib/python3.11/site-packages/jax/experimental/pallas/ops/tpu/megablox/gmm.py" source_line=187 source_end_line=191 source_column=14 source_end_column=3}
  %Arg_0.1047 = s32[128]{0} parameter(0)
  %gather.1077 = s32[129]{0} gather(%Arg_0.1047, %broadcast_in_dim.1068), offset_dims={}, collapsed_slice_dims={0}, start_index_map={0}, index_vector_dim=1, slice_sizes={1}, metadata={op_name="gather" source_file="/home/eporat/benchmarking_qwen_omni_tpu/.venv/lib/python3.11/site-packages/jax/experimental/pallas/ops/tpu/megablox/gmm.py" source_line=187 source_end_line=191 source_column=14 source_end_column=3}
  %constant.1049 = s32[] constant(-2147483648)
  %broadcast_in_dim.1050 = s32[129]{0} broadcast(%constant.1049), dimensions={}, metadata={op_name="broadcast_in_dim" source_file="/home/eporat/benchmarking_qwen_omni_tpu/.venv/lib/python3.11/site-packages/jax/experimental/pallas/ops/tpu/megablox/gmm.py" source_line=187 source_end_line=191 source_column=14 source_end_column=3}
  ROOT %select_n.1078 = s32[129]{0} select(%reduce_and.1076, %gather.1077, %broadcast_in_dim.1050), metadata={op_name="select_n" source_file="/home/eporat/benchmarking_qwen_omni_tpu/.venv/lib/python3.11/site-packages/jax/experimental/pallas/ops/tpu/megablox/gmm.py" source_line=187 source_end_line=191 source_column=14 source_end_column=3}
}

%_where_169.1093 (Arg_0.1089: pred[], Arg_1.1090: s32[], Arg_2.1091: s32[]) -> s32[] {
  %Arg_0.1089 = pred[] parameter(0)
  %Arg_1.1090 = s32[] parameter(1)
  %Arg_2.1091 = s32[] parameter(2)
  ROOT %select_n.1092 = s32[] select(%Arg_0.1089, %Arg_1.1090, %Arg_2.1091), metadata={op_name="select_n" source_file="/home/eporat/benchmarking_qwen_omni_tpu/.venv/lib/python3.11/site-packages/jax/experimental/pallas/ops/tpu/megablox/gmm.py" source_line=213 source_end_line=213 source_column=7 source_end_column=25}
}

%remainder.1106 (Arg_0.1082: s32[128], Arg_1.1083: s32[]) -> s32[128] {
  %Arg_0.1082 = s32[128]{0} parameter(0)
  %Arg_1.1083 = s32[] parameter(1)
  %constant.1087 = s32[] constant(0)
  %eq.1088 = pred[] compare(%Arg_1.1083, %constant.1087), direction=EQ, metadata={op_name="eq" source_file="/home/eporat/benchmarking_qwen_omni_tpu/.venv/lib/python3.11/site-packages/jax/experimental/pallas/ops/tpu/megablox/gmm.py" source_line=213 source_end_line=213 source_column=7 source_end_column=25}
  %constant.1086 = s32[] constant(1)
  %jit__where_.1094 = s32[] call(%eq.1088, %constant.1086, %Arg_1.1083), to_apply=%_where_169.1093, metadata={op_name="jit(_where)" source_file="/home/eporat/benchmarking_qwen_omni_tpu/.venv/lib/python3.11/site-packages/jax/experimental/pallas/ops/tpu/megablox/gmm.py" source_line=213 source_end_line=213 source_column=7 source_end_column=25}
  %rem.1095 = s32[128]{0} broadcast(%jit__where_.1094), dimensions={}, metadata={op_name="rem" source_file="/home/eporat/benchmarking_qwen_omni_tpu/.venv/lib/python3.11/site-packages/jax/experimental/pallas/ops/tpu/megablox/gmm.py" source_line=213 source_end_line=213 source_column=7 source_end_column=25}
  %rem.1096 = s32[128]{0} remainder(%Arg_0.1082, %rem.1095), metadata={op_name="rem" source_file="/home/eporat/benchmarking_qwen_omni_tpu/.venv/lib/python3.11/site-packages/jax/experimental/pallas/ops/tpu/megablox/gmm.py" source_line=213 source_end_line=213 source_column=7 source_end_column=25}
  %constant.1084 = s32[] constant(0)
  %broadcast.1085 = s32[128]{0} broadcast(%constant.1084), dimensions={}
  %lt.1098 = pred[128]{0} compare(%rem.1096, %broadcast.1085), direction=LT, metadata={op_name="lt" source_file="/home/eporat/benchmarking_qwen_omni_tpu/.venv/lib/python3.11/site-packages/jax/experimental/pallas/ops/tpu/megablox/gmm.py" source_line=213 source_end_line=213 source_column=7 source_end_column=25}
  %lt.1099 = pred[] compare(%jit__where_.1094, %constant.1087), direction=LT, metadata={op_name="lt" source_file="/home/eporat/benchmarking_qwen_omni_tpu/.venv/lib/python3.11/site-packages/jax/experimental/pallas/ops/tpu/megablox/gmm.py" source_line=213 source_end_line=213 source_column=7 source_end_column=25}
  %ne.1100 = pred[128]{0} broadcast(%lt.1099), dimensions={}, metadata={op_name="ne" source_file="/home/eporat/benchmarking_qwen_omni_tpu/.venv/lib/python3.11/site-packages/jax/experimental/pallas/ops/tpu/megablox/gmm.py" source_line=213 source_end_line=213 source_column=7 source_end_column=25}
  %ne.1101 = pred[128]{0} compare(%lt.1098, %ne.1100), direction=NE, metadata={op_name="ne" source_file="/home/eporat/benchmarking_qwen_omni_tpu/.venv/lib/python3.11/site-packages/jax/experimental/pallas/ops/tpu/megablox/gmm.py" source_line=213 source_end_line=213 source_column=7 source_end_column=25}
  %ne.1097 = pred[128]{0} compare(%rem.1096, %broadcast.1085), direction=NE, metadata={op_name="ne" source_file="/home/eporat/benchmarking_qwen_omni_tpu/.venv/lib/python3.11/site-packages/jax/experimental/pallas/ops/tpu/megablox/gmm.py" source_line=213 source_end_line=213 source_column=7 source_end_column=25}
  %and.1102 = pred[128]{0} and(%ne.1101, %ne.1097), metadata={op_name="and" source_file="/home/eporat/benchmarking_qwen_omni_tpu/.venv/lib/python3.11/site-packages/jax/experimental/pallas/ops/tpu/megablox/gmm.py" source_line=213 source_end_line=213 source_column=7 source_end_column=25}
  %add.1103 = s32[128]{0} broadcast(%jit__where_.1094), dimensions={}, metadata={op_name="add" source_file="/home/eporat/benchmarking_qwen_omni_tpu/.venv/lib/python3.11/site-packages/jax/experimental/pallas/ops/tpu/megablox/gmm.py" source_line=213 source_end_line=213 source_column=7 source_end_column=25}
  %add.1104 = s32[128]{0} add(%rem.1096, %add.1103), metadata={op_name="add" source_file="/home/eporat/benchmarking_qwen_omni_tpu/.venv/lib/python3.11/site-packages/jax/experimental/pallas/ops/tpu/megablox/gmm.py" source_line=213 source_end_line=213 source_column=7 source_end_column=25}
  ROOT %select_n.1105 = s32[128]{0} select(%and.1102, %add.1104, %rem.1096), metadata={op_name="select_n" source_file="/home/eporat/benchmarking_qwen_omni_tpu/.venv/lib/python3.11/site-packages/jax/experimental/pallas/ops/tpu/megablox/gmm.py" source_line=213 source_end_line=213 source_column=7 source_end_column=25}
}

%region_16.1121 (reduce_max.1118: f32[], reduce_max.1119: f32[]) -> f32[] {
  %reduce_max.1118 = f32[] parameter(0), metadata={op_name="reduce_max"}
  %reduce_max.1119 = f32[] parameter(1), metadata={op_name="reduce_max"}
  ROOT %reduce_max.1120 = f32[] maximum(%reduce_max.1118, %reduce_max.1119), metadata={op_name="reduce_max" source_file="/home/eporat/benchmarking_qwen_omni_tpu/.venv/lib/python3.11/site-packages/jax/experimental/pallas/ops/tpu/megablox/gmm.py" source_line=226 source_end_line=227 source_column=6 source_end_column=9}
}

%region_17.1126 (reduce_min.1123: f32[], reduce_min.1124: f32[]) -> f32[] {
  %reduce_min.1123 = f32[] parameter(0), metadata={op_name="reduce_min"}
  %reduce_min.1124 = f32[] parameter(1), metadata={op_name="reduce_min"}
  ROOT %reduce_min.1125 = f32[] minimum(%reduce_min.1123, %reduce_min.1124), metadata={op_name="reduce_min" source_file="/home/eporat/benchmarking_qwen_omni_tpu/.venv/lib/python3.11/site-packages/jax/experimental/pallas/ops/tpu/megablox/gmm.py" source_line=226 source_end_line=227 source_column=6 source_end_column=9}
}

%_ptp.1129 (Arg_0.1115: f32[2]) -> f32[] {
  %Arg_0.1115 = f32[2]{0} parameter(0)
  %constant.1117 = f32[] constant(-inf)
  %reduce_max.1122 = f32[] reduce(%Arg_0.1115, %constant.1117), dimensions={0}, to_apply=%region_16.1121, metadata={op_name="reduce_max" source_file="/home/eporat/benchmarking_qwen_omni_tpu/.venv/lib/python3.11/site-packages/jax/experimental/pallas/ops/tpu/megablox/gmm.py" source_line=226 source_end_line=227 source_column=6 source_end_column=9}
  %constant.1116 = f32[] constant(inf)
  %reduce_min.1127 = f32[] reduce(%Arg_0.1115, %constant.1116), dimensions={0}, to_apply=%region_17.1126, metadata={op_name="reduce_min" source_file="/home/eporat/benchmarking_qwen_omni_tpu/.venv/lib/python3.11/site-packages/jax/experimental/pallas/ops/tpu/megablox/gmm.py" source_line=226 source_end_line=227 source_column=6 source_end_column=9}
  ROOT %sub.1128 = f32[] subtract(%reduce_max.1122, %reduce_min.1127), metadata={op_name="sub" source_file="/home/eporat/benchmarking_qwen_omni_tpu/.venv/lib/python3.11/site-packages/jax/experimental/pallas/ops/tpu/megablox/gmm.py" source_line=226 source_end_line=227 source_column=6 source_end_column=9}
}

%_where_182.1136 (Arg_0.1132: pred[], Arg_1.1133: f32[], Arg_2.1134: f32[]) -> f32[] {
  %Arg_0.1132 = pred[] parameter(0)
  %Arg_1.1133 = f32[] parameter(1)
  %Arg_2.1134 = f32[] parameter(2)
  ROOT %select_n.1135 = f32[] select(%Arg_0.1132, %Arg_1.1133, %Arg_2.1134), metadata={op_name="select_n" source_file="/home/eporat/benchmarking_qwen_omni_tpu/.venv/lib/python3.11/site-packages/jax/experimental/pallas/ops/tpu/megablox/gmm.py" source_line=226 source_end_line=227 source_column=6 source_end_column=9}
}

%_linspace.1163 (Arg_0.1141: f32[], Arg_1.1142: f32[]) -> f32[3] {
  %Arg_0.1141 = f32[] parameter(0)
  %reshape.1149 = f32[1]{0} reshape(%Arg_0.1141), metadata={op_name="reshape" source_file="/home/eporat/benchmarking_qwen_omni_tpu/.venv/lib/python3.11/site-packages/jax/experimental/pallas/ops/tpu/megablox/gmm.py" source_line=226 source_end_line=227 source_column=6 source_end_column=9}
  %mul.1151 = f32[1]{0} broadcast(%reshape.1149), dimensions={0}, metadata={op_name="mul" source_file="/home/eporat/benchmarking_qwen_omni_tpu/.venv/lib/python3.11/site-packages/jax/experimental/pallas/ops/tpu/megablox/gmm.py" source_line=226 source_end_line=227 source_column=6 source_end_column=9}
  %mul.1152 = f32[] reshape(%mul.1151), metadata={op_name="mul" source_file="/home/eporat/benchmarking_qwen_omni_tpu/.venv/lib/python3.11/site-packages/jax/experimental/pallas/ops/tpu/megablox/gmm.py" source_line=226 source_end_line=227 source_column=6 source_end_column=9}
  %mul.1153 = f32[2]{0} broadcast(%mul.1152), dimensions={}, metadata={op_name="mul" source_file="/home/eporat/benchmarking_qwen_omni_tpu/.venv/lib/python3.11/site-packages/jax/experimental/pallas/ops/tpu/megablox/gmm.py" source_line=226 source_end_line=227 source_column=6 source_end_column=9}
  %constant.1143 = f32[] constant(1)
  %broadcast.1144 = f32[2]{0} broadcast(%constant.1143), dimensions={}
  %iota.1147 = f32[2]{0} iota(), iota_dimension=0, metadata={op_name="iota" source_file="/home/eporat/benchmarking_qwen_omni_tpu/.venv/lib/python3.11/site-packages/jax/experimental/pallas/ops/tpu/megablox/gmm.py" source_line=226 source_end_line=227 source_column=6 source_end_column=9}
  %constant.1145 = f32[] constant(2)
  %broadcast.1146 = f32[2]{0} broadcast(%constant.1145), dimensions={}
  %div.1148 = f32[2]{0} divide(%iota.1147, %broadcast.1146), metadata={op_name="div" source_file="/home/eporat/benchmarking_qwen_omni_tpu/.venv/lib/python3.11/site-packages/jax/experimental/pallas/ops/tpu/megablox/gmm.py" source_line=226 source_end_line=227 source_column=6 source_end_column=9}
  %sub.1150 = f32[2]{0} subtract(%broadcast.1144, %div.1148), metadata={op_name="sub" source_file="/home/eporat/benchmarking_qwen_omni_tpu/.venv/lib/python3.11/site-packages/jax/experimental/pallas/ops/tpu/megablox/gmm.py" source_line=226 source_end_line=227 source_column=6 source_end_column=9}
  %mul.1154 = f32[2]{0} multiply(%mul.1153, %sub.1150), metadata={op_name="mul" source_file="/home/eporat/benchmarking_qwen_omni_tpu/.venv/lib/python3.11/site-packages/jax/experimental/pallas/ops/tpu/megablox/gmm.py" source_line=226 source_end_line=227 source_column=6 source_end_column=9}
  %Arg_1.1142 = f32[] parameter(1)
  %reshape.1155 = f32[1]{0} reshape(%Arg_1.1142), metadata={op_name="reshape" source_file="/home/eporat/benchmarking_qwen_omni_tpu/.venv/lib/python3.11/site-packages/jax/experimental/pallas/ops/tpu/megablox/gmm.py" source_line=226 source_end_line=227 source_column=6 source_end_column=9}
  %mul.1156 = f32[1]{0} broadcast(%reshape.1155), dimensions={0}, metadata={op_name="mul" source_file="/home/eporat/benchmarking_qwen_omni_tpu/.venv/lib/python3.11/site-packages/jax/experimental/pallas/ops/tpu/megablox/gmm.py" source_line=226 source_end_line=227 source_column=6 source_end_column=9}
  %mul.1157 = f32[] reshape(%mul.1156), metadata={op_name="mul" source_file="/home/eporat/benchmarking_qwen_omni_tpu/.venv/lib/python3.11/site-packages/jax/experimental/pallas/ops/tpu/megablox/gmm.py" source_line=226 source_end_line=227 source_column=6 source_end_column=9}
  %mul.1158 = f32[2]{0} broadcast(%mul.1157), dimensions={}, metadata={op_name="mul" source_file="/home/eporat/benchmarking_qwen_omni_tpu/.venv/lib/python3.11/site-packages/jax/experimental/pallas/ops/tpu/megablox/gmm.py" source_line=226 source_end_line=227 source_column=6 source_end_column=9}
  %mul.1159 = f32[2]{0} multiply(%mul.1158, %div.1148), metadata={op_name="mul" source_file="/home/eporat/benchmarking_qwen_omni_tpu/.venv/lib/python3.11/site-packages/jax/experimental/pallas/ops/tpu/megablox/gmm.py" source_line=226 source_end_line=227 source_column=6 source_end_column=9}
  %add.1160 = f32[2]{0} add(%mul.1154, %mul.1159), metadata={op_name="add" source_file="/home/eporat/benchmarking_qwen_omni_tpu/.venv/lib/python3.11/site-packages/jax/experimental/pallas/ops/tpu/megablox/gmm.py" source_line=226 source_end_line=227 source_column=6 source_end_column=9}
  %broadcast_in_dim.1161 = f32[1]{0} reshape(%Arg_1.1142), metadata={op_name="broadcast_in_dim" source_file="/home/eporat/benchmarking_qwen_omni_tpu/.venv/lib/python3.11/site-packages/jax/experimental/pallas/ops/tpu/megablox/gmm.py" source_line=226 source_end_line=227 source_column=6 source_end_column=9}
  ROOT %concatenate.1162 = f32[3]{0} concatenate(%add.1160, %broadcast_in_dim.1161), dimensions={0}, metadata={op_name="concatenate" source_file="/home/eporat/benchmarking_qwen_omni_tpu/.venv/lib/python3.11/site-packages/jax/experimental/pallas/ops/tpu/megablox/gmm.py" source_line=226 source_end_line=227 source_column=6 source_end_column=9}
}

%_where_207.1217 (Arg_0.1213: pred[128], Arg_1.1214: s32[128], Arg_2.1215: s32[128]) -> s32[128] {
  %Arg_0.1213 = pred[128]{0} parameter(0)
  %Arg_1.1214 = s32[128]{0} parameter(1)
  %Arg_2.1215 = s32[128]{0} parameter(2)
  ROOT %select_n.1216 = s32[128]{0} select(%Arg_0.1213, %Arg_1.1214, %Arg_2.1215), metadata={op_name="select_n" source_file="/home/eporat/benchmarking_qwen_omni_tpu/.venv/lib/python3.11/site-packages/jax/experimental/pallas/ops/tpu/megablox/gmm.py" source_line=226 source_end_line=227 source_column=6 source_end_column=9}
}

%_where_209.1223 (Arg_0.1219: pred[128], Arg_1.1220: s32[128], Arg_2.1221: s32[128]) -> s32[128] {
  %Arg_0.1219 = pred[128]{0} parameter(0)
  %Arg_1.1220 = s32[128]{0} parameter(1)
  %Arg_2.1221 = s32[128]{0} parameter(2)
  ROOT %select_n.1222 = s32[128]{0} select(%Arg_0.1219, %Arg_1.1220, %Arg_2.1221), metadata={op_name="select_n" source_file="/home/eporat/benchmarking_qwen_omni_tpu/.venv/lib/python3.11/site-packages/jax/experimental/pallas/ops/tpu/megablox/gmm.py" source_line=226 source_end_line=227 source_column=6 source_end_column=9}
}

%closed_call.1226 (Arg_0.1179: f32[3], Arg_1.1180: f32[128], Arg_2.1181: s32[128], Arg_3.1182: s32[128]) -> (s32[128], s32[128]) {
  %Arg_1.1180 = f32[128]{0} parameter(1)
  %ne.1206 = pred[128]{0} compare(%Arg_1.1180, %Arg_1.1180), direction=NE, metadata={op_name="ne" source_file="/home/eporat/benchmarking_qwen_omni_tpu/.venv/lib/python3.11/site-packages/jax/experimental/pallas/ops/tpu/megablox/gmm.py" source_line=226 source_end_line=227 source_column=6 source_end_column=9}
  %constant.1183 = f32[] constant(nan)
  %broadcast.1184 = f32[128]{0} broadcast(%constant.1183), dimensions={}
  %constant.1185 = f32[] constant(0)
  %broadcast.1186 = f32[128]{0} broadcast(%constant.1185), dimensions={}
  %eq.1204 = pred[128]{0} compare(%Arg_1.1180, %broadcast.1186), direction=EQ, metadata={op_name="eq" source_file="/home/eporat/benchmarking_qwen_omni_tpu/.venv/lib/python3.11/site-packages/jax/experimental/pallas/ops/tpu/megablox/gmm.py" source_line=226 source_end_line=227 source_column=6 source_end_column=9}
  %select_n.1205 = f32[128]{0} select(%eq.1204, %broadcast.1186, %Arg_1.1180), metadata={op_name="select_n" source_file="/home/eporat/benchmarking_qwen_omni_tpu/.venv/lib/python3.11/site-packages/jax/experimental/pallas/ops/tpu/megablox/gmm.py" source_line=226 source_end_line=227 source_column=6 source_end_column=9}
  %select_n.1207 = f32[128]{0} select(%ne.1206, %broadcast.1184, %select_n.1205), metadata={op_name="select_n" source_file="/home/eporat/benchmarking_qwen_omni_tpu/.venv/lib/python3.11/site-packages/jax/experimental/pallas/ops/tpu/megablox/gmm.py" source_line=226 source_end_line=227 source_column=6 source_end_column=9}
  %Arg_0.1179 = f32[3]{0} parameter(0)
  %Arg_2.1181 = s32[128]{0} parameter(2)
  %convert_element_type.1193 = u32[128]{0} convert(%Arg_2.1181), metadata={op_name="convert_element_type" source_file="/home/eporat/benchmarking_qwen_omni_tpu/.venv/lib/python3.11/site-packages/jax/experimental/pallas/ops/tpu/megablox/gmm.py" source_line=226 source_end_line=227 source_column=6 source_end_column=9}
  %Arg_3.1182 = s32[128]{0} parameter(3)
  %convert_element_type.1194 = u32[128]{0} convert(%Arg_3.1182), metadata={op_name="convert_element_type" source_file="/home/eporat/benchmarking_qwen_omni_tpu/.venv/lib/python3.11/site-packages/jax/experimental/pallas/ops/tpu/megablox/gmm.py" source_line=226 source_end_line=227 source_column=6 source_end_column=9}
  %add.1195 = u32[128]{0} add(%convert_element_type.1193, %convert_element_type.1194), metadata={op_name="add" source_file="/home/eporat/benchmarking_qwen_omni_tpu/.venv/lib/python3.11/site-packages/jax/experimental/pallas/ops/tpu/megablox/gmm.py" source_line=226 source_end_line=227 source_column=6 source_end_column=9}
  %constant.1191 = u32[] constant(2)
  %div.1192 = u32[128]{0} broadcast(%constant.1191), dimensions={}, metadata={op_name="div" source_file="/home/eporat/benchmarking_qwen_omni_tpu/.venv/lib/python3.11/site-packages/jax/experimental/pallas/ops/tpu/megablox/gmm.py" source_line=226 source_end_line=227 source_column=6 source_end_column=9}
  %div.1196 = u32[128]{0} divide(%add.1195, %div.1192), metadata={op_name="div" source_file="/home/eporat/benchmarking_qwen_omni_tpu/.venv/lib/python3.11/site-packages/jax/experimental/pallas/ops/tpu/megablox/gmm.py" source_line=226 source_end_line=227 source_column=6 source_end_column=9}
  %convert_element_type.1197 = s32[128]{0} convert(%div.1196), metadata={op_name="convert_element_type" source_file="/home/eporat/benchmarking_qwen_omni_tpu/.venv/lib/python3.11/site-packages/jax/experimental/pallas/ops/tpu/megablox/gmm.py" source_line=226 source_end_line=227 source_column=6 source_end_column=9}
  %constant.1189 = s32[] constant(0)
  %lt.1190 = s32[128]{0} broadcast(%constant.1189), dimensions={}, metadata={op_name="lt" source_file="/home/eporat/benchmarking_qwen_omni_tpu/.venv/lib/python3.11/site-packages/jax/experimental/pallas/ops/tpu/megablox/gmm.py" source_line=226 source_end_line=227 source_column=6 source_end_column=9}
  %lt.1198 = pred[128]{0} compare(%convert_element_type.1197, %lt.1190), direction=LT, metadata={op_name="lt" source_file="/home/eporat/benchmarking_qwen_omni_tpu/.venv/lib/python3.11/site-packages/jax/experimental/pallas/ops/tpu/megablox/gmm.py" source_line=226 source_end_line=227 source_column=6 source_end_column=9}
  %constant.1187 = s32[] constant(3)
  %add.1188 = s32[128]{0} broadcast(%constant.1187), dimensions={}, metadata={op_name="add" source_file="/home/eporat/benchmarking_qwen_omni_tpu/.venv/lib/python3.11/site-packages/jax/experimental/pallas/ops/tpu/megablox/gmm.py" source_line=226 source_end_line=227 source_column=6 source_end_column=9}
  %add.1199 = s32[128]{0} add(%convert_element_type.1197, %add.1188), metadata={op_name="add" source_file="/home/eporat/benchmarking_qwen_omni_tpu/.venv/lib/python3.11/site-packages/jax/experimental/pallas/ops/tpu/megablox/gmm.py" source_line=226 source_end_line=227 source_column=6 source_end_column=9}
  %select_n.1200 = s32[128]{0} select(%lt.1198, %add.1199, %convert_element_type.1197), metadata={op_name="select_n" source_file="/home/eporat/benchmarking_qwen_omni_tpu/.venv/lib/python3.11/site-packages/jax/experimental/pallas/ops/tpu/megablox/gmm.py" source_line=226 source_end_line=227 source_column=6 source_end_column=9}
  %broadcast_in_dim.1201 = s32[128,1]{1,0} reshape(%select_n.1200), metadata={op_name="broadcast_in_dim" source_file="/home/eporat/benchmarking_qwen_omni_tpu/.venv/lib/python3.11/site-packages/jax/experimental/pallas/ops/tpu/megablox/gmm.py" source_line=226 source_end_line=227 source_column=6 source_end_column=9}
  %gather.1202 = f32[128,1]{1,0} gather(%Arg_0.1179, %broadcast_in_dim.1201), offset_dims={1}, collapsed_slice_dims={}, start_index_map={0}, index_vector_dim=1, slice_sizes={1}, metadata={op_name="gather" source_file="/home/eporat/benchmarking_qwen_omni_tpu/.venv/lib/python3.11/site-packages/jax/experimental/pallas/ops/tpu/megablox/gmm.py" source_line=226 source_end_line=227 source_column=6 source_end_column=9}
  %squeeze.1203 = f32[128]{0} reshape(%gather.1202), metadata={op_name="squeeze" source_file="/home/eporat/benchmarking_qwen_omni_tpu/.venv/lib/python3.11/site-packages/jax/experimental/pallas/ops/tpu/megablox/gmm.py" source_line=226 source_end_line=227 source_column=6 source_end_column=9}
  %ne.1210 = pred[128]{0} compare(%squeeze.1203, %squeeze.1203), direction=NE, metadata={op_name="ne" source_file="/home/eporat/benchmarking_qwen_omni_tpu/.venv/lib/python3.11/site-packages/jax/experimental/pallas/ops/tpu/megablox/gmm.py" source_line=226 source_end_line=227 source_column=6 source_end_column=9}
  %eq.1208 = pred[128]{0} compare(%squeeze.1203, %broadcast.1186), direction=EQ, metadata={op_name="eq" source_file="/home/eporat/benchmarking_qwen_omni_tpu/.venv/lib/python3.11/site-packages/jax/experimental/pallas/ops/tpu/megablox/gmm.py" source_line=226 source_end_line=227 source_column=6 source_end_column=9}
  %select_n.1209 = f32[128]{0} select(%eq.1208, %broadcast.1186, %squeeze.1203), metadata={op_name="select_n" source_file="/home/eporat/benchmarking_qwen_omni_tpu/.venv/lib/python3.11/site-packages/jax/experimental/pallas/ops/tpu/megablox/gmm.py" source_line=226 source_end_line=227 source_column=6 source_end_column=9}
  %select_n.1211 = f32[128]{0} select(%ne.1210, %broadcast.1184, %select_n.1209), metadata={op_name="select_n" source_file="/home/eporat/benchmarking_qwen_omni_tpu/.venv/lib/python3.11/site-packages/jax/experimental/pallas/ops/tpu/megablox/gmm.py" source_line=226 source_end_line=227 source_column=6 source_end_column=9}
  %lt_to.1212 = pred[128]{0} compare(%select_n.1207, %select_n.1211), direction=LT, type=TOTALORDER, metadata={op_name="lt_to" source_file="/home/eporat/benchmarking_qwen_omni_tpu/.venv/lib/python3.11/site-packages/jax/experimental/pallas/ops/tpu/megablox/gmm.py" source_line=226 source_end_line=227 source_column=6 source_end_column=9}
  %jit__where_.1218 = s32[128]{0} call(%lt_to.1212, %Arg_2.1181, %convert_element_type.1197), to_apply=%_where_207.1217, metadata={op_name="jit(_where)" source_file="/home/eporat/benchmarking_qwen_omni_tpu/.venv/lib/python3.11/site-packages/jax/experimental/pallas/ops/tpu/megablox/gmm.py" source_line=226 source_end_line=227 source_column=6 source_end_column=9}
  %jit__where_.1224 = s32[128]{0} call(%lt_to.1212, %convert_element_type.1197, %Arg_3.1182), to_apply=%_where_209.1223, metadata={op_name="jit(_where)" source_file="/home/eporat/benchmarking_qwen_omni_tpu/.venv/lib/python3.11/site-packages/jax/experimental/pallas/ops/tpu/megablox/gmm.py" source_line=226 source_end_line=227 source_column=6 source_end_column=9}
  ROOT %tuple.1225 = (s32[128]{0}, s32[128]{0}) tuple(%jit__where_.1218, %jit__where_.1224)
}

%region_18.1232 (arg_tuple.1172: (s32[], s32[128], s32[128], f32[3], f32[128])) -> (s32[], s32[128], s32[128], f32[3], f32[128]) {
  %arg_tuple.1172 = (s32[], s32[128]{0}, s32[128]{0}, f32[3]{0}, f32[128]{0}) parameter(0)
  %get-tuple-element.1173 = s32[] get-tuple-element(%arg_tuple.1172), index=0
  %constant.1178 = s32[] constant(1)
  %add.1230 = s32[] add(%get-tuple-element.1173, %constant.1178), metadata={op_name="vmap()/while/body/add" source_file="/home/eporat/benchmarking_qwen_omni_tpu/.venv/lib/python3.11/site-packages/jax/experimental/pallas/ops/tpu/megablox/gmm.py" source_line=226 source_end_line=227 source_column=6 source_end_column=9}
  %get-tuple-element.1176 = f32[3]{0} get-tuple-element(%arg_tuple.1172), index=3
  %get-tuple-element.1177 = f32[128]{0} get-tuple-element(%arg_tuple.1172), index=4
  %get-tuple-element.1174 = s32[128]{0} get-tuple-element(%arg_tuple.1172), index=1
  %get-tuple-element.1175 = s32[128]{0} get-tuple-element(%arg_tuple.1172), index=2
  %closed_call.1227 = (s32[128]{0}, s32[128]{0}) call(%get-tuple-element.1176, %get-tuple-element.1177, %get-tuple-element.1174, %get-tuple-element.1175), to_apply=%closed_call.1226, metadata={op_name="vmap()/while/body/closed_call" source_file="/home/eporat/benchmarking_qwen_omni_tpu/.venv/lib/python3.11/site-packages/jax/experimental/pallas/ops/tpu/megablox/gmm.py" source_line=226 source_end_line=227 source_column=6 source_end_column=9}
  %closed_call.1228 = s32[128]{0} get-tuple-element(%closed_call.1227), index=0, metadata={op_name="vmap()/while/body/closed_call" source_file="/home/eporat/benchmarking_qwen_omni_tpu/.venv/lib/python3.11/site-packages/jax/experimental/pallas/ops/tpu/megablox/gmm.py" source_line=226 source_end_line=227 source_column=6 source_end_column=9}
  %closed_call.1229 = s32[128]{0} get-tuple-element(%closed_call.1227), index=1, metadata={op_name="vmap()/while/body/closed_call" source_file="/home/eporat/benchmarking_qwen_omni_tpu/.venv/lib/python3.11/site-packages/jax/experimental/pallas/ops/tpu/megablox/gmm.py" source_line=226 source_end_line=227 source_column=6 source_end_column=9}
  ROOT %tuple.1231 = (s32[], s32[128]{0}, s32[128]{0}, f32[3]{0}, f32[128]{0}) tuple(%add.1230, %closed_call.1228, %closed_call.1229, %get-tuple-element.1176, %get-tuple-element.1177)
}

%region_19.1241 (arg_tuple.1233: (s32[], s32[128], s32[128], f32[3], f32[128])) -> pred[] {
  %arg_tuple.1233 = (s32[], s32[128]{0}, s32[128]{0}, f32[3]{0}, f32[128]{0}) parameter(0)
  %get-tuple-element.1235 = s32[128]{0} get-tuple-element(%arg_tuple.1233), index=1
  %get-tuple-element.1236 = s32[128]{0} get-tuple-element(%arg_tuple.1233), index=2
  %get-tuple-element.1237 = f32[3]{0} get-tuple-element(%arg_tuple.1233), index=3
  %get-tuple-element.1238 = f32[128]{0} get-tuple-element(%arg_tuple.1233), index=4
  %get-tuple-element.1234 = s32[] get-tuple-element(%arg_tuple.1233), index=0
  %constant.1239 = s32[] constant(2)
  ROOT %lt.1240 = pred[] compare(%get-tuple-element.1234, %constant.1239), direction=LT, metadata={op_name="vmap()/while/cond/lt" source_file="/home/eporat/benchmarking_qwen_omni_tpu/.venv/lib/python3.11/site-packages/jax/experimental/pallas/ops/tpu/megablox/gmm.py" source_line=226 source_end_line=227 source_column=6 source_end_column=9}
}

%searchsorted.1247 (Arg_0.1165: f32[3], Arg_1.1166: f32[128]) -> s32[128] {
  %constant.1167 = s32[] constant(0)
  %constant.1168 = s32[] constant(0)
  %broadcast_in_dim.1169 = s32[128]{0} broadcast(%constant.1168), dimensions={}, metadata={op_name="vmap()/broadcast_in_dim" source_file="/home/eporat/benchmarking_qwen_omni_tpu/.venv/lib/python3.11/site-packages/jax/experimental/pallas/ops/tpu/megablox/gmm.py" source_line=226 source_end_line=227 source_column=6 source_end_column=9}
  %constant.1170 = s32[] constant(3)
  %broadcast_in_dim.1171 = s32[128]{0} broadcast(%constant.1170), dimensions={}, metadata={op_name="vmap()/broadcast_in_dim" source_file="/home/eporat/benchmarking_qwen_omni_tpu/.venv/lib/python3.11/site-packages/jax/experimental/pallas/ops/tpu/megablox/gmm.py" source_line=226 source_end_line=227 source_column=6 source_end_column=9}
  %Arg_0.1165 = f32[3]{0} parameter(0)
  %Arg_1.1166 = f32[128]{0} parameter(1)
  %while.1242 = (s32[], s32[128]{0}, s32[128]{0}, f32[3]{0}, f32[128]{0}) tuple(%constant.1167, %broadcast_in_dim.1169, %broadcast_in_dim.1171, %Arg_0.1165, %Arg_1.1166), metadata={op_name="vmap()/while" source_file="/home/eporat/benchmarking_qwen_omni_tpu/.venv/lib/python3.11/site-packages/jax/experimental/pallas/ops/tpu/megablox/gmm.py" source_line=226 source_end_line=227 source_column=6 source_end_column=9}
  %while.1243 = (s32[], s32[128]{0}, s32[128]{0}, f32[3]{0}, f32[128]{0}) while(%while.1242), condition=%region_19.1241, body=%region_18.1232, metadata={op_name="vmap()/while" source_file="/home/eporat/benchmarking_qwen_omni_tpu/.venv/lib/python3.11/site-packages/jax/experimental/pallas/ops/tpu/megablox/gmm.py" source_line=226 source_end_line=227 source_column=6 source_end_column=9}
  %while.1244 = s32[] get-tuple-element(%while.1243), index=0, metadata={op_name="vmap()/while" source_file="/home/eporat/benchmarking_qwen_omni_tpu/.venv/lib/python3.11/site-packages/jax/experimental/pallas/ops/tpu/megablox/gmm.py" source_line=226 source_end_line=227 source_column=6 source_end_column=9}
  %while.1245 = s32[128]{0} get-tuple-element(%while.1243), index=1, metadata={op_name="vmap()/while" source_file="/home/eporat/benchmarking_qwen_omni_tpu/.venv/lib/python3.11/site-packages/jax/experimental/pallas/ops/tpu/megablox/gmm.py" source_line=226 source_end_line=227 source_column=6 source_end_column=9}
  ROOT %while.1246 = s32[128]{0} get-tuple-element(%while.1243), index=2, metadata={op_name="vmap()/while" source_file="/home/eporat/benchmarking_qwen_omni_tpu/.venv/lib/python3.11/site-packages/jax/experimental/pallas/ops/tpu/megablox/gmm.py" source_line=226 source_end_line=227 source_column=6 source_end_column=9}
}

%region_20.1261 (scatter-add.1258: f32[], scatter-add.1259: f32[]) -> f32[] {
  %scatter-add.1258 = f32[] parameter(0), metadata={op_name="scatter-add"}
  %scatter-add.1259 = f32[] parameter(1), metadata={op_name="scatter-add"}
  ROOT %add.1260 = f32[] add(%scatter-add.1258, %scatter-add.1259), metadata={op_name="add" source_file="/home/eporat/benchmarking_qwen_omni_tpu/.venv/lib/python3.11/site-packages/jax/experimental/pallas/ops/tpu/megablox/gmm.py" source_line=226 source_end_line=227 source_column=6 source_end_column=9}
}

%_roll_static_219.1271 (Arg_0.1267: s32[2]) -> s32[2] {
  %Arg_0.1267 = s32[2]{0} parameter(0)
  %slice.1268 = s32[1]{0} slice(%Arg_0.1267), slice={[1:2]}, metadata={op_name="slice" source_file="/home/eporat/benchmarking_qwen_omni_tpu/.venv/lib/python3.11/site-packages/jax/experimental/pallas/ops/tpu/megablox/gmm.py" source_line=232 source_end_line=236 source_column=15 source_end_column=3}
  %slice.1269 = s32[1]{0} slice(%Arg_0.1267), slice={[0:1]}, metadata={op_name="slice" source_file="/home/eporat/benchmarking_qwen_omni_tpu/.venv/lib/python3.11/site-packages/jax/experimental/pallas/ops/tpu/megablox/gmm.py" source_line=232 source_end_line=236 source_column=15 source_end_column=3}
  ROOT %concatenate.1270 = s32[2]{0} concatenate(%slice.1268, %slice.1269), dimensions={0}, metadata={op_name="concatenate" source_file="/home/eporat/benchmarking_qwen_omni_tpu/.venv/lib/python3.11/site-packages/jax/experimental/pallas/ops/tpu/megablox/gmm.py" source_line=232 source_end_line=236 source_column=15 source_end_column=3}
}

%region_21.1275 (scatter.1273: s32[], scatter.1274: s32[]) -> s32[] {
  %scatter.1273 = s32[] parameter(0), metadata={op_name="scatter"}
  ROOT %scatter.1274 = s32[] parameter(1), metadata={op_name="scatter"}
}

%region_22.1283 (reduce_window_sum.1280: s32[], reduce_window_sum.1281: s32[]) -> s32[] {
  %reduce_window_sum.1280 = s32[] parameter(0), metadata={op_name="reduce_window_sum"}
  %reduce_window_sum.1281 = s32[] parameter(1), metadata={op_name="reduce_window_sum"}
  ROOT %reduce_window_sum.1282 = s32[] add(%reduce_window_sum.1280, %reduce_window_sum.1281), metadata={op_name="reduce_window_sum" source_file="/home/eporat/benchmarking_qwen_omni_tpu/.venv/lib/python3.11/site-packages/jax/experimental/pallas/ops/tpu/megablox/gmm.py" source_line=232 source_end_line=236 source_column=15 source_end_column=3}
}

%cumsum_225.1285 (make_group_metadata.1278: s32[2]) -> s32[2] {
  %make_group_metadata.1278 = s32[2]{0} parameter(0), metadata={op_name="make_group_metadata"}
  %constant.1279 = s32[] constant(0)
  ROOT %reduce_window_sum.1284 = s32[2]{0} reduce-window(%make_group_metadata.1278, %constant.1279), window={size=2 pad=1_0}, to_apply=%region_22.1283, metadata={op_name="reduce_window_sum" source_file="/home/eporat/benchmarking_qwen_omni_tpu/.venv/lib/python3.11/site-packages/jax/experimental/pallas/ops/tpu/megablox/gmm.py" source_line=232 source_end_line=236 source_column=15 source_end_column=3}
}

%cumsum_224.1287 (Arg_0.1277: s32[2]) -> s32[2] {
  %Arg_0.1277 = s32[2]{0} parameter(0)
  ROOT %make_group_metadata.1286 = s32[2]{0} call(%Arg_0.1277), to_apply=%cumsum_225.1285, metadata={op_name="make_group_metadata" source_file="/home/eporat/benchmarking_qwen_omni_tpu/.venv/lib/python3.11/site-packages/jax/experimental/pallas/ops/tpu/megablox/gmm.py" source_line=232 source_end_line=236 source_column=15 source_end_column=3}
}

%region_23.1296 (scatter-add.1293: s32[], scatter-add.1294: s32[]) -> s32[] {
  %scatter-add.1293 = s32[] parameter(0), metadata={op_name="scatter-add"}
  %scatter-add.1294 = s32[] parameter(1), metadata={op_name="scatter-add"}
  ROOT %add.1295 = s32[] add(%scatter-add.1293, %scatter-add.1294), metadata={op_name="add" source_file="/home/eporat/benchmarking_qwen_omni_tpu/.venv/lib/python3.11/site-packages/jax/experimental/pallas/ops/tpu/megablox/gmm.py" source_line=232 source_end_line=236 source_column=15 source_end_column=3}
}

%region_24.1323 (reduce_and.1320: pred[], reduce_and.1321: pred[]) -> pred[] {
  %reduce_and.1320 = pred[] parameter(0), metadata={op_name="reduce_and"}
  %reduce_and.1321 = pred[] parameter(1), metadata={op_name="reduce_and"}
  ROOT %reduce_and.1322 = pred[] and(%reduce_and.1320, %reduce_and.1321), metadata={op_name="reduce_and" source_file="/home/eporat/benchmarking_qwen_omni_tpu/.venv/lib/python3.11/site-packages/jax/experimental/pallas/ops/tpu/megablox/gmm.py" source_line=232 source_end_line=236 source_column=15 source_end_column=3}
}

%_take_233.1327 (Arg_0.1300: s32[2], Arg_1.1301: s32[129]) -> s32[129] {
  %Arg_1.1301 = s32[129]{0} parameter(1)
  %constant.1311 = s32[] constant(0)
  %lt.1312 = s32[129]{0} broadcast(%constant.1311), dimensions={}, metadata={op_name="lt" source_file="/home/eporat/benchmarking_qwen_omni_tpu/.venv/lib/python3.11/site-packages/jax/experimental/pallas/ops/tpu/megablox/gmm.py" source_line=232 source_end_line=236 source_column=15 source_end_column=3}
  %lt.1313 = pred[129]{0} compare(%Arg_1.1301, %lt.1312), direction=LT, metadata={op_name="lt" source_file="/home/eporat/benchmarking_qwen_omni_tpu/.venv/lib/python3.11/site-packages/jax/experimental/pallas/ops/tpu/megablox/gmm.py" source_line=232 source_end_line=236 source_column=15 source_end_column=3}
  %constant.1308 = s32[] constant(2)
  %add.1309 = s32[129]{0} broadcast(%constant.1308), dimensions={}, metadata={op_name="add" source_file="/home/eporat/benchmarking_qwen_omni_tpu/.venv/lib/python3.11/site-packages/jax/experimental/pallas/ops/tpu/megablox/gmm.py" source_line=232 source_end_line=236 source_column=15 source_end_column=3}
  %add.1314 = s32[129]{0} add(%Arg_1.1301, %add.1309), metadata={op_name="add" source_file="/home/eporat/benchmarking_qwen_omni_tpu/.venv/lib/python3.11/site-packages/jax/experimental/pallas/ops/tpu/megablox/gmm.py" source_line=232 source_end_line=236 source_column=15 source_end_column=3}
  %jit__where_.1315 = s32[129]{0} call(%lt.1313, %add.1314, %Arg_1.1301), to_apply=%_where_156.1066, metadata={op_name="jit(_where)" source_file="/home/eporat/benchmarking_qwen_omni_tpu/.venv/lib/python3.11/site-packages/jax/experimental/pallas/ops/tpu/megablox/gmm.py" source_line=232 source_end_line=236 source_column=15 source_end_column=3}
  %broadcast_in_dim.1316 = s32[129,1]{1,0} reshape(%jit__where_.1315), metadata={op_name="broadcast_in_dim" source_file="/home/eporat/benchmarking_qwen_omni_tpu/.venv/lib/python3.11/site-packages/jax/experimental/pallas/ops/tpu/megablox/gmm.py" source_line=232 source_end_line=236 source_column=15 source_end_column=3}
  %constant.1306 = s32[] constant(0)
  %ge.1307 = s32[129,1]{1,0} broadcast(%constant.1306), dimensions={}, metadata={op_name="ge" source_file="/home/eporat/benchmarking_qwen_omni_tpu/.venv/lib/python3.11/site-packages/jax/experimental/pallas/ops/tpu/megablox/gmm.py" source_line=232 source_end_line=236 source_column=15 source_end_column=3}
  %ge.1317 = pred[129,1]{1,0} compare(%broadcast_in_dim.1316, %ge.1307), direction=GE, metadata={op_name="ge" source_file="/home/eporat/benchmarking_qwen_omni_tpu/.venv/lib/python3.11/site-packages/jax/experimental/pallas/ops/tpu/megablox/gmm.py" source_line=232 source_end_line=236 source_column=15 source_end_column=3}
  %constant.1304 = s32[] constant(1)
  %le.1305 = s32[129,1]{1,0} broadcast(%constant.1304), dimensions={}, metadata={op_name="le" source_file="/home/eporat/benchmarking_qwen_omni_tpu/.venv/lib/python3.11/site-packages/jax/experimental/pallas/ops/tpu/megablox/gmm.py" source_line=232 source_end_line=236 source_column=15 source_end_column=3}
  %le.1318 = pred[129,1]{1,0} compare(%broadcast_in_dim.1316, %le.1305), direction=LE, metadata={op_name="le" source_file="/home/eporat/benchmarking_qwen_omni_tpu/.venv/lib/python3.11/site-packages/jax/experimental/pallas/ops/tpu/megablox/gmm.py" source_line=232 source_end_line=236 source_column=15 source_end_column=3}
  %and.1319 = pred[129,1]{1,0} and(%ge.1317, %le.1318), metadata={op_name="and" source_file="/home/eporat/benchmarking_qwen_omni_tpu/.venv/lib/python3.11/site-packages/jax/experimental/pallas/ops/tpu/megablox/gmm.py" source_line=232 source_end_line=236 source_column=15 source_end_column=3}
  %constant.1310 = pred[] constant(true)
  %reduce_and.1324 = pred[129]{0} reduce(%and.1319, %constant.1310), dimensions={1}, to_apply=%region_24.1323, metadata={op_name="reduce_and" source_file="/home/eporat/benchmarking_qwen_omni_tpu/.venv/lib/python3.11/site-packages/jax/experimental/pallas/ops/tpu/megablox/gmm.py" source_line=232 source_end_line=236 source_column=15 source_end_column=3}
  %Arg_0.1300 = s32[2]{0} parameter(0)
  %gather.1325 = s32[129]{0} gather(%Arg_0.1300, %broadcast_in_dim.1316), offset_dims={}, collapsed_slice_dims={0}, start_index_map={0}, index_vector_dim=1, slice_sizes={1}, metadata={op_name="gather" source_file="/home/eporat/benchmarking_qwen_omni_tpu/.venv/lib/python3.11/site-packages/jax/experimental/pallas/ops/tpu/megablox/gmm.py" source_line=232 source_end_line=236 source_column=15 source_end_column=3}
  %constant.1302 = s32[] constant(-2147483648)
  %broadcast_in_dim.1303 = s32[129]{0} broadcast(%constant.1302), dimensions={}, metadata={op_name="broadcast_in_dim" source_file="/home/eporat/benchmarking_qwen_omni_tpu/.venv/lib/python3.11/site-packages/jax/experimental/pallas/ops/tpu/megablox/gmm.py" source_line=232 source_end_line=236 source_column=15 source_end_column=3}
  ROOT %select_n.1326 = s32[129]{0} select(%reduce_and.1324, %gather.1325, %broadcast_in_dim.1303), metadata={op_name="select_n" source_file="/home/eporat/benchmarking_qwen_omni_tpu/.venv/lib/python3.11/site-packages/jax/experimental/pallas/ops/tpu/megablox/gmm.py" source_line=232 source_end_line=236 source_column=15 source_end_column=3}
}

%region_25.1335 (reduce_sum.1332: s32[], reduce_sum.1333: s32[]) -> s32[] {
  %reduce_sum.1332 = s32[] parameter(0), metadata={op_name="reduce_sum"}
  %reduce_sum.1333 = s32[] parameter(1), metadata={op_name="reduce_sum"}
  ROOT %reduce_sum.1334 = s32[] add(%reduce_sum.1332, %reduce_sum.1333), metadata={op_name="reduce_sum" source_file="/home/eporat/benchmarking_qwen_omni_tpu/.venv/lib/python3.11/site-packages/jax/experimental/pallas/ops/tpu/megablox/gmm.py" source_line=244 source_end_line=244 source_column=24 source_end_column=55}
}

%remainder_243.1357 (Arg_0.1343: s32[], Arg_1.1344: s32[]) -> s32[] {
  %Arg_0.1343 = s32[] parameter(0)
  %Arg_1.1344 = s32[] parameter(1)
  %constant.1346 = s32[] constant(0)
  %eq.1347 = pred[] compare(%Arg_1.1344, %constant.1346), direction=EQ, metadata={op_name="eq" source_file="/home/eporat/benchmarking_qwen_omni_tpu/.venv/lib/python3.11/site-packages/jax/experimental/pallas/ops/tpu/megablox/gmm.py" source_line=245 source_end_line=245 source_column=14 source_end_column=69}
  %constant.1345 = s32[] constant(1)
  %jit__where_.1348 = s32[] call(%eq.1347, %constant.1345, %Arg_1.1344), to_apply=%_where_169.1093, metadata={op_name="jit(_where)" source_file="/home/eporat/benchmarking_qwen_omni_tpu/.venv/lib/python3.11/site-packages/jax/experimental/pallas/ops/tpu/megablox/gmm.py" source_line=245 source_end_line=245 source_column=14 source_end_column=69}
  %rem.1349 = s32[] remainder(%Arg_0.1343, %jit__where_.1348), metadata={op_name="rem" source_file="/home/eporat/benchmarking_qwen_omni_tpu/.venv/lib/python3.11/site-packages/jax/experimental/pallas/ops/tpu/megablox/gmm.py" source_line=245 source_end_line=245 source_column=14 source_end_column=69}
  %lt.1351 = pred[] compare(%rem.1349, %constant.1346), direction=LT, metadata={op_name="lt" source_file="/home/eporat/benchmarking_qwen_omni_tpu/.venv/lib/python3.11/site-packages/jax/experimental/pallas/ops/tpu/megablox/gmm.py" source_line=245 source_end_line=245 source_column=14 source_end_column=69}
  %lt.1352 = pred[] compare(%jit__where_.1348, %constant.1346), direction=LT, metadata={op_name="lt" source_file="/home/eporat/benchmarking_qwen_omni_tpu/.venv/lib/python3.11/site-packages/jax/experimental/pallas/ops/tpu/megablox/gmm.py" source_line=245 source_end_line=245 source_column=14 source_end_column=69}
  %ne.1353 = pred[] compare(%lt.1351, %lt.1352), direction=NE, metadata={op_name="ne" source_file="/home/eporat/benchmarking_qwen_omni_tpu/.venv/lib/python3.11/site-packages/jax/experimental/pallas/ops/tpu/megablox/gmm.py" source_line=245 source_end_line=245 source_column=14 source_end_column=69}
  %ne.1350 = pred[] compare(%rem.1349, %constant.1346), direction=NE, metadata={op_name="ne" source_file="/home/eporat/benchmarking_qwen_omni_tpu/.venv/lib/python3.11/site-packages/jax/experimental/pallas/ops/tpu/megablox/gmm.py" source_line=245 source_end_line=245 source_column=14 source_end_column=69}
  %and.1354 = pred[] and(%ne.1353, %ne.1350), metadata={op_name="and" source_file="/home/eporat/benchmarking_qwen_omni_tpu/.venv/lib/python3.11/site-packages/jax/experimental/pallas/ops/tpu/megablox/gmm.py" source_line=245 source_end_line=245 source_column=14 source_end_column=69}
  %add.1355 = s32[] add(%rem.1349, %jit__where_.1348), metadata={op_name="add" source_file="/home/eporat/benchmarking_qwen_omni_tpu/.venv/lib/python3.11/site-packages/jax/experimental/pallas/ops/tpu/megablox/gmm.py" source_line=245 source_end_line=245 source_column=14 source_end_column=69}
  ROOT %select_n.1356 = s32[] select(%and.1354, %add.1355, %rem.1349), metadata={op_name="select_n" source_file="/home/eporat/benchmarking_qwen_omni_tpu/.venv/lib/python3.11/site-packages/jax/experimental/pallas/ops/tpu/megablox/gmm.py" source_line=245 source_end_line=245 source_column=14 source_end_column=69}
}

%_roll_dynamic.1365 (Arg_0.1338: s32[129], Arg_1.1339: s32[]) -> s32[129] {
  %Arg_0.1338 = s32[129]{0} parameter(0)
  %concatenate.1359 = s32[258]{0} concatenate(%Arg_0.1338, %Arg_0.1338), dimensions={0}, metadata={op_name="concatenate" source_file="/home/eporat/benchmarking_qwen_omni_tpu/.venv/lib/python3.11/site-packages/jax/experimental/pallas/ops/tpu/megablox/gmm.py" source_line=245 source_end_line=245 source_column=14 source_end_column=69}
  %constant.1342 = s32[] constant(129)
  %Arg_1.1339 = s32[] parameter(1)
  %jit_remainder_.1358 = s32[] call(%Arg_1.1339, %constant.1342), to_apply=%remainder_243.1357, metadata={op_name="jit(remainder)" source_file="/home/eporat/benchmarking_qwen_omni_tpu/.venv/lib/python3.11/site-packages/jax/experimental/pallas/ops/tpu/megablox/gmm.py" source_line=245 source_end_line=245 source_column=14 source_end_column=69}
  %sub.1360 = s32[] subtract(%constant.1342, %jit_remainder_.1358), metadata={op_name="sub" source_file="/home/eporat/benchmarking_qwen_omni_tpu/.venv/lib/python3.11/site-packages/jax/experimental/pallas/ops/tpu/megablox/gmm.py" source_line=245 source_end_line=245 source_column=14 source_end_column=69}
  %constant.1341 = s32[] constant(0)
  %lt.1361 = pred[] compare(%sub.1360, %constant.1341), direction=LT, metadata={op_name="lt" source_file="/home/eporat/benchmarking_qwen_omni_tpu/.venv/lib/python3.11/site-packages/jax/experimental/pallas/ops/tpu/megablox/gmm.py" source_line=245 source_end_line=245 source_column=14 source_end_column=69}
  %constant.1340 = s32[] constant(258)
  %add.1362 = s32[] add(%sub.1360, %constant.1340), metadata={op_name="add" source_file="/home/eporat/benchmarking_qwen_omni_tpu/.venv/lib/python3.11/site-packages/jax/experimental/pallas/ops/tpu/megablox/gmm.py" source_line=245 source_end_line=245 source_column=14 source_end_column=69}
  %select_n.1363 = s32[] select(%lt.1361, %add.1362, %sub.1360), metadata={op_name="select_n" source_file="/home/eporat/benchmarking_qwen_omni_tpu/.venv/lib/python3.11/site-packages/jax/experimental/pallas/ops/tpu/megablox/gmm.py" source_line=245 source_end_line=245 source_column=14 source_end_column=69}
  ROOT %dynamic_slice.1364 = s32[129]{0} dynamic-slice(%concatenate.1359, %select_n.1363), dynamic_slice_sizes={129}, metadata={op_name="dynamic_slice" source_file="/home/eporat/benchmarking_qwen_omni_tpu/.venv/lib/python3.11/site-packages/jax/experimental/pallas/ops/tpu/megablox/gmm.py" source_line=245 source_end_line=245 source_column=14 source_end_column=69}
}

%_where_255.1380 (Arg_0.1375: pred[128], Arg_1.1376: s32[128], Arg_2.1377: s32[]) -> s32[128] {
  %Arg_0.1375 = pred[128]{0} parameter(0)
  %Arg_1.1376 = s32[128]{0} parameter(1)
  %Arg_2.1377 = s32[] parameter(2)
  %broadcast_in_dim.1378 = s32[128]{0} broadcast(%Arg_2.1377), dimensions={}, metadata={op_name="broadcast_in_dim" source_file="/home/eporat/benchmarking_qwen_omni_tpu/.venv/lib/python3.11/site-packages/jax/experimental/pallas/ops/tpu/megablox/gmm.py" source_line=253 source_end_line=253 source_column=16 source_end_column=60}
  ROOT %select_n.1379 = s32[128]{0} select(%Arg_0.1375, %Arg_1.1376, %broadcast_in_dim.1378), metadata={op_name="select_n" source_file="/home/eporat/benchmarking_qwen_omni_tpu/.venv/lib/python3.11/site-packages/jax/experimental/pallas/ops/tpu/megablox/gmm.py" source_line=253 source_end_line=253 source_column=16 source_end_column=60}
}

%region_26.1385 (reduce_sum.1382: s32[], reduce_sum.1383: s32[]) -> s32[] {
  %reduce_sum.1382 = s32[] parameter(0), metadata={op_name="reduce_sum"}
  %reduce_sum.1383 = s32[] parameter(1), metadata={op_name="reduce_sum"}
  ROOT %reduce_sum.1384 = s32[] add(%reduce_sum.1382, %reduce_sum.1383), metadata={op_name="reduce_sum" source_file="/home/eporat/benchmarking_qwen_omni_tpu/.venv/lib/python3.11/site-packages/jax/experimental/pallas/ops/tpu/megablox/gmm.py" source_line=254 source_end_line=254 source_column=14 source_end_column=31}
}

%gmm.1388 (Arg_0.915: bf16[256,2048], Arg_1.916: bf16[128,384,2048], Arg_2.917: s32[128], Arg_3.918: s32[]) -> bf16[256,384] {
  %iota.1369 = s32[128]{0} iota(), iota_dimension=0, metadata={op_name="iota" source_file="/home/eporat/benchmarking_qwen_omni_tpu/.venv/lib/python3.11/site-packages/jax/experimental/pallas/ops/tpu/megablox/gmm.py" source_line=251 source_end_line=251 source_column=9 source_end_column=48}
  %Arg_3.918 = s32[] parameter(3)
  %constant.953 = s32[] constant(128)
  %add.956 = s32[] add(%Arg_3.918, %constant.953), metadata={op_name="add" source_file="/home/eporat/benchmarking_qwen_omni_tpu/.venv/lib/python3.11/site-packages/jax/experimental/pallas/ops/tpu/megablox/gmm.py" source_line=116 source_end_line=116 source_column=14 source_end_column=46}
  %constant.952 = s32[] constant(1)
  %sub.957 = s32[] subtract(%add.956, %constant.952), metadata={op_name="sub" source_file="/home/eporat/benchmarking_qwen_omni_tpu/.venv/lib/python3.11/site-packages/jax/experimental/pallas/ops/tpu/megablox/gmm.py" source_line=116 source_end_line=116 source_column=14 source_end_column=46}
  %le.1370 = s32[128]{0} broadcast(%sub.957), dimensions={}, metadata={op_name="le" source_file="/home/eporat/benchmarking_qwen_omni_tpu/.venv/lib/python3.11/site-packages/jax/experimental/pallas/ops/tpu/megablox/gmm.py" source_line=252 source_end_line=252 source_column=38 source_end_column=55}
  %le.1371 = pred[128]{0} compare(%iota.1369, %le.1370), direction=LE, metadata={op_name="le" source_file="/home/eporat/benchmarking_qwen_omni_tpu/.venv/lib/python3.11/site-packages/jax/experimental/pallas/ops/tpu/megablox/gmm.py" source_line=252 source_end_line=252 source_column=38 source_end_column=55}
  %ge.1372 = s32[128]{0} broadcast(%Arg_3.918), dimensions={}, metadata={op_name="ge" source_file="/home/eporat/benchmarking_qwen_omni_tpu/.venv/lib/python3.11/site-packages/jax/experimental/pallas/ops/tpu/megablox/gmm.py" source_line=252 source_end_line=252 source_column=57 source_end_column=76}
  %ge.1373 = pred[128]{0} compare(%iota.1369, %ge.1372), direction=GE, metadata={op_name="ge" source_file="/home/eporat/benchmarking_qwen_omni_tpu/.venv/lib/python3.11/site-packages/jax/experimental/pallas/ops/tpu/megablox/gmm.py" source_line=252 source_end_line=252 source_column=57 source_end_column=76}
  %and.1374 = pred[128]{0} and(%le.1371, %ge.1373), metadata={op_name="and" source_file="/home/eporat/benchmarking_qwen_omni_tpu/.venv/lib/python3.11/site-packages/jax/experimental/pallas/ops/tpu/megablox/gmm.py" source_line=252 source_end_line=252 source_column=22 source_end_column=77}
  %Arg_2.917 = s32[128]{0} parameter(2)
  %constant.942 = s32[] constant(0)
  %broadcast.943 = s32[128]{0} broadcast(%constant.942), dimensions={}
  %eq.1004 = pred[128]{0} compare(%Arg_2.917, %broadcast.943), direction=EQ, metadata={op_name="eq" source_file="/home/eporat/benchmarking_qwen_omni_tpu/.venv/lib/python3.11/site-packages/jax/experimental/pallas/ops/tpu/megablox/gmm.py" source_line=154 source_end_line=154 source_column=34 source_end_column=50}
  %constant.951 = s32[] constant(0)
  %jit_cumsum_.969 = s32[128]{0} call(%Arg_2.917), to_apply=%cumsum.968, metadata={op_name="jit(cumsum)" source_file="/home/eporat/benchmarking_qwen_omni_tpu/.venv/lib/python3.11/site-packages/jax/experimental/pallas/ops/tpu/megablox/gmm.py" source_line=126 source_end_line=126 source_column=15 source_end_column=38}
  %constant.946 = s32[] constant(128)
  %broadcast.947 = s32[128]{0} broadcast(%constant.946), dimensions={}
  %add.971 = s32[128]{0} add(%jit_cumsum_.969, %broadcast.947), metadata={op_name="add" source_file="/home/eporat/benchmarking_qwen_omni_tpu/.venv/lib/python3.11/site-packages/jax/experimental/pallas/ops/tpu/megablox/gmm.py" source_line=140 source_end_line=140 source_column=25 source_end_column=40}
  %constant.944 = s32[] constant(1)
  %broadcast.945 = s32[128]{0} broadcast(%constant.944), dimensions={}
  %sub.972 = s32[128]{0} subtract(%add.971, %broadcast.945), metadata={op_name="sub" source_file="/home/eporat/benchmarking_qwen_omni_tpu/.venv/lib/python3.11/site-packages/jax/experimental/pallas/ops/tpu/megablox/gmm.py" source_line=140 source_end_line=140 source_column=25 source_end_column=40}
  %jit_floor_divide_.997 = s32[128]{0} call(%sub.972, %constant.953), to_apply=%floor_divide.996, metadata={op_name="jit(floor_divide)" source_file="/home/eporat/benchmarking_qwen_omni_tpu/.venv/lib/python3.11/site-packages/jax/experimental/pallas/ops/tpu/megablox/gmm.py" source_line=140 source_end_line=140 source_column=24 source_end_column=51}
  %mul.998 = s32[128]{0} multiply(%jit_floor_divide_.997, %broadcast.947), metadata={op_name="mul" source_file="/home/eporat/benchmarking_qwen_omni_tpu/.venv/lib/python3.11/site-packages/jax/experimental/pallas/ops/tpu/megablox/gmm.py" source_line=140 source_end_line=140 source_column=24 source_end_column=51}
  %constant.948 = s32[1]{0} constant({0})
  %slice.999 = s32[127]{0} slice(%jit_cumsum_.969), slice={[0:127]}, metadata={op_name="slice" source_file="/home/eporat/benchmarking_qwen_omni_tpu/.venv/lib/python3.11/site-packages/jax/experimental/pallas/ops/tpu/megablox/gmm.py" source_line=144 source_end_line=144 source_column=38 source_end_column=53}
  %concatenate.1000 = s32[128]{0} concatenate(%constant.948, %slice.999), dimensions={0}, metadata={op_name="concatenate" source_file="/home/eporat/benchmarking_qwen_omni_tpu/.venv/lib/python3.11/site-packages/jax/experimental/pallas/ops/tpu/megablox/gmm.py" source_line=143 source_end_line=145 source_column=17 source_end_column=3}
  %jit_floor_divide_.1001 = s32[128]{0} call(%concatenate.1000, %constant.953), to_apply=%floor_divide.996, metadata={op_name="jit(floor_divide)" source_file="/home/eporat/benchmarking_qwen_omni_tpu/.venv/lib/python3.11/site-packages/jax/experimental/pallas/ops/tpu/megablox/gmm.py" source_line=146 source_end_line=146 source_column=25 source_end_column=43}
  %mul.1002 = s32[128]{0} multiply(%jit_floor_divide_.1001, %broadcast.947), metadata={op_name="mul" source_file="/home/eporat/benchmarking_qwen_omni_tpu/.venv/lib/python3.11/site-packages/jax/experimental/pallas/ops/tpu/megablox/gmm.py" source_line=146 source_end_line=146 source_column=25 source_end_column=43}
  %sub.1003 = s32[128]{0} subtract(%mul.998, %mul.1002), metadata={op_name="sub" source_file="/home/eporat/benchmarking_qwen_omni_tpu/.venv/lib/python3.11/site-packages/jax/experimental/pallas/ops/tpu/megablox/gmm.py" source_line=153 source_end_line=153 source_column=24 source_end_column=65}
  %jit__where_.1011 = s32[128]{0} call(%eq.1004, %constant.951, %sub.1003), to_apply=%_where_136.1010, metadata={op_name="jit(_where)" source_file="/home/eporat/benchmarking_qwen_omni_tpu/.venv/lib/python3.11/site-packages/jax/experimental/pallas/ops/tpu/megablox/gmm.py" source_line=154 source_end_line=154 source_column=24 source_end_column=75}
  %jit_floor_divide_.1012 = s32[128]{0} call(%jit__where_.1011, %constant.953), to_apply=%floor_divide.996, metadata={op_name="jit(floor_divide)" source_file="/home/eporat/benchmarking_qwen_omni_tpu/.venv/lib/python3.11/site-packages/jax/experimental/pallas/ops/tpu/megablox/gmm.py" source_line=174 source_end_line=174 source_column=16 source_end_column=41}
  %jit__where_.1381 = s32[128]{0} call(%and.1374, %jit_floor_divide_.1012, %constant.951), to_apply=%_where_255.1380, metadata={op_name="jit(_where)" source_file="/home/eporat/benchmarking_qwen_omni_tpu/.venv/lib/python3.11/site-packages/jax/experimental/pallas/ops/tpu/megablox/gmm.py" source_line=253 source_end_line=253 source_column=16 source_end_column=60}
  %reduce_sum.1386 = s32[] reduce(%jit__where_.1381, %constant.951), dimensions={0}, to_apply=%region_26.1385, metadata={op_name="reduce_sum" source_file="/home/eporat/benchmarking_qwen_omni_tpu/.venv/lib/python3.11/site-packages/jax/experimental/pallas/ops/tpu/megablox/gmm.py" source_line=254 source_end_line=254 source_column=14 source_end_column=31}
  %concatenate.970 = s32[129]{0} concatenate(%constant.948, %jit_cumsum_.969), dimensions={0}, metadata={op_name="concatenate" source_file="/home/eporat/benchmarking_qwen_omni_tpu/.venv/lib/python3.11/site-packages/jax/experimental/pallas/ops/tpu/megablox/gmm.py" source_line=127 source_end_line=127 source_column=18 source_end_column=78}
  %iota.1013 = s32[128]{0} iota(), iota_dimension=0, metadata={op_name="iota" source_file="/home/eporat/benchmarking_qwen_omni_tpu/.venv/lib/python3.11/site-packages/jax/experimental/pallas/ops/tpu/megablox/gmm.py" source_line=188 source_end_line=188 source_column=6 source_end_column=45}
  %constant.940 = s32[] constant(0)
  %broadcast.941 = s32[129]{0} broadcast(%constant.940), dimensions={}
  %jit__roll_static_.1019 = s32[128]{0} call(%jit_floor_divide_.1012), to_apply=%_roll_static.1018, metadata={op_name="jit(_roll_static)" source_file="/home/eporat/benchmarking_qwen_omni_tpu/.venv/lib/python3.11/site-packages/jax/experimental/pallas/ops/tpu/megablox/gmm.py" source_line=187 source_end_line=191 source_column=14 source_end_column=3}
  %scatter.1023 = s32[128]{0} scatter(%jit__roll_static_.1019, %constant.948, %constant.951), update_window_dims={}, inserted_window_dims={0}, scatter_dims_to_operand_dims={0}, index_vector_dim=0, indices_are_sorted=true, unique_indices=true, to_apply=%region_12.1022, metadata={op_name="scatter" source_file="/home/eporat/benchmarking_qwen_omni_tpu/.venv/lib/python3.11/site-packages/jax/experimental/pallas/ops/tpu/megablox/gmm.py" source_line=187 source_end_line=191 source_column=14 source_end_column=3}
  %jit_cumsum_.1024 = s32[128]{0} call(%scatter.1023), to_apply=%cumsum.968, metadata={op_name="jit(cumsum)" source_file="/home/eporat/benchmarking_qwen_omni_tpu/.venv/lib/python3.11/site-packages/jax/experimental/pallas/ops/tpu/megablox/gmm.py" source_line=187 source_end_line=191 source_column=14 source_end_column=3}
  %lt.1025 = pred[128]{0} compare(%jit_cumsum_.1024, %broadcast.943), direction=LT, metadata={op_name="lt" source_file="/home/eporat/benchmarking_qwen_omni_tpu/.venv/lib/python3.11/site-packages/jax/experimental/pallas/ops/tpu/megablox/gmm.py" source_line=187 source_end_line=191 source_column=14 source_end_column=3}
  %constant.938 = s32[] constant(129)
  %add.939 = s32[128]{0} broadcast(%constant.938), dimensions={}, metadata={op_name="add" source_file="/home/eporat/benchmarking_qwen_omni_tpu/.venv/lib/python3.11/site-packages/jax/experimental/pallas/ops/tpu/megablox/gmm.py" source_line=187 source_end_line=191 source_column=14 source_end_column=3}
  %add.1026 = s32[128]{0} add(%jit_cumsum_.1024, %add.939), metadata={op_name="add" source_file="/home/eporat/benchmarking_qwen_omni_tpu/.venv/lib/python3.11/site-packages/jax/experimental/pallas/ops/tpu/megablox/gmm.py" source_line=187 source_end_line=191 source_column=14 source_end_column=3}
  %select_n.1027 = s32[128]{0} select(%lt.1025, %add.1026, %jit_cumsum_.1024), metadata={op_name="select_n" source_file="/home/eporat/benchmarking_qwen_omni_tpu/.venv/lib/python3.11/site-packages/jax/experimental/pallas/ops/tpu/megablox/gmm.py" source_line=187 source_end_line=191 source_column=14 source_end_column=3}
  %broadcast_in_dim.1028 = s32[128,1]{1,0} reshape(%select_n.1027), metadata={op_name="broadcast_in_dim" source_file="/home/eporat/benchmarking_qwen_omni_tpu/.venv/lib/python3.11/site-packages/jax/experimental/pallas/ops/tpu/megablox/gmm.py" source_line=187 source_end_line=191 source_column=14 source_end_column=3}
  %scatter-add.1033 = s32[129]{0} scatter(%broadcast.941, %broadcast_in_dim.1028, %broadcast.945), update_window_dims={}, inserted_window_dims={0}, scatter_dims_to_operand_dims={0}, index_vector_dim=1, to_apply=%region_13.1032, metadata={op_name="scatter-add" source_file="/home/eporat/benchmarking_qwen_omni_tpu/.venv/lib/python3.11/site-packages/jax/experimental/pallas/ops/tpu/megablox/gmm.py" source_line=187 source_end_line=191 source_column=14 source_end_column=3}
  %jit_cumsum_.1045 = s32[129]{0} call(%scatter-add.1033), to_apply=%cumsum_149.1044, metadata={op_name="jit(cumsum)" source_file="/home/eporat/benchmarking_qwen_omni_tpu/.venv/lib/python3.11/site-packages/jax/experimental/pallas/ops/tpu/megablox/gmm.py" source_line=187 source_end_line=191 source_column=14 source_end_column=3}
  %constant.936 = s32[] constant(1)
  %broadcast.937 = s32[129]{0} broadcast(%constant.936), dimensions={}
  %sub.1046 = s32[129]{0} subtract(%jit_cumsum_.1045, %broadcast.937), metadata={op_name="sub" source_file="/home/eporat/benchmarking_qwen_omni_tpu/.venv/lib/python3.11/site-packages/jax/experimental/pallas/ops/tpu/megablox/gmm.py" source_line=187 source_end_line=191 source_column=14 source_end_column=3}
  %jit__take_.1080 = s32[129]{0} call(%iota.1013, %sub.1046), to_apply=%_take_153.1079, metadata={op_name="jit(_take)" source_file="/home/eporat/benchmarking_qwen_omni_tpu/.venv/lib/python3.11/site-packages/jax/experimental/pallas/ops/tpu/megablox/gmm.py" source_line=187 source_end_line=191 source_column=14 source_end_column=3}
  %lt.1329 = s32[129]{0} broadcast(%Arg_3.918), dimensions={}, metadata={op_name="lt" source_file="/home/eporat/benchmarking_qwen_omni_tpu/.venv/lib/python3.11/site-packages/jax/experimental/pallas/ops/tpu/megablox/gmm.py" source_line=244 source_end_line=244 source_column=25 source_end_column=48}
  %lt.1330 = pred[129]{0} compare(%jit__take_.1080, %lt.1329), direction=LT, metadata={op_name="lt" source_file="/home/eporat/benchmarking_qwen_omni_tpu/.venv/lib/python3.11/site-packages/jax/experimental/pallas/ops/tpu/megablox/gmm.py" source_line=244 source_end_line=244 source_column=25 source_end_column=48}
  %convert_element_type.1331 = s32[129]{0} convert(%lt.1330), metadata={op_name="convert_element_type" source_file="/home/eporat/benchmarking_qwen_omni_tpu/.venv/lib/python3.11/site-packages/jax/experimental/pallas/ops/tpu/megablox/gmm.py" source_line=244 source_end_line=244 source_column=24 source_end_column=55}
  %reduce_sum.1336 = s32[] reduce(%convert_element_type.1331, %constant.951), dimensions={0}, to_apply=%region_25.1335, metadata={op_name="reduce_sum" source_file="/home/eporat/benchmarking_qwen_omni_tpu/.venv/lib/python3.11/site-packages/jax/experimental/pallas/ops/tpu/megablox/gmm.py" source_line=244 source_end_line=244 source_column=24 source_end_column=55}
  %neg.1337 = s32[] negate(%reduce_sum.1336), metadata={op_name="neg" source_file="/home/eporat/benchmarking_qwen_omni_tpu/.venv/lib/python3.11/site-packages/jax/experimental/pallas/ops/tpu/megablox/gmm.py" source_line=245 source_end_line=245 source_column=40 source_end_column=60}
  %jit__roll_dynamic_.1366 = s32[129]{0} call(%jit__take_.1080, %neg.1337), to_apply=%_roll_dynamic.1365, metadata={op_name="jit(_roll_dynamic)" source_file="/home/eporat/benchmarking_qwen_omni_tpu/.venv/lib/python3.11/site-packages/jax/experimental/pallas/ops/tpu/megablox/gmm.py" source_line=245 source_end_line=245 source_column=14 source_end_column=69}
  %iota.1265 = s32[2]{0} iota(), iota_dimension=0, metadata={op_name="iota" source_file="/home/eporat/benchmarking_qwen_omni_tpu/.venv/lib/python3.11/site-packages/jax/experimental/pallas/ops/tpu/megablox/gmm.py" source_line=233 source_end_line=233 source_column=6 source_end_column=42}
  %constant.929 = f32[] constant(0)
  %broadcast.930 = f32[3]{0} broadcast(%constant.929), dimensions={}
  %slice.1081 = s32[128]{0} slice(%concatenate.970), slice={[0:128]}, metadata={op_name="slice" source_file="/home/eporat/benchmarking_qwen_omni_tpu/.venv/lib/python3.11/site-packages/jax/experimental/pallas/ops/tpu/megablox/gmm.py" source_line=213 source_end_line=213 source_column=7 source_end_column=25}
  %jit_remainder_.1107 = s32[128]{0} call(%slice.1081, %constant.953), to_apply=%remainder.1106, metadata={op_name="jit(remainder)" source_file="/home/eporat/benchmarking_qwen_omni_tpu/.venv/lib/python3.11/site-packages/jax/experimental/pallas/ops/tpu/megablox/gmm.py" source_line=213 source_end_line=213 source_column=7 source_end_column=25}
  %eq.1108 = pred[128]{0} compare(%jit_remainder_.1107, %broadcast.943), direction=EQ, metadata={op_name="eq" source_file="/home/eporat/benchmarking_qwen_omni_tpu/.venv/lib/python3.11/site-packages/jax/experimental/pallas/ops/tpu/megablox/gmm.py" source_line=213 source_end_line=213 source_column=6 source_end_column=36}
  %eq.1109 = pred[128]{0} compare(%Arg_2.917, %broadcast.943), direction=EQ, metadata={op_name="eq" source_file="/home/eporat/benchmarking_qwen_omni_tpu/.venv/lib/python3.11/site-packages/jax/experimental/pallas/ops/tpu/megablox/gmm.py" source_line=213 source_end_line=213 source_column=38 source_end_column=54}
  %or.1110 = pred[128]{0} or(%eq.1108, %eq.1109), metadata={op_name="or" source_file="/home/eporat/benchmarking_qwen_omni_tpu/.venv/lib/python3.11/site-packages/jax/experimental/pallas/ops/tpu/megablox/gmm.py" source_line=212 source_end_line=214 source_column=22 source_end_column=3}
  %constant.950 = s32[] constant(2)
  %slice.1111 = s32[128]{0} slice(%concatenate.970), slice={[0:128]}, metadata={op_name="slice" source_file="/home/eporat/benchmarking_qwen_omni_tpu/.venv/lib/python3.11/site-packages/jax/experimental/pallas/ops/tpu/megablox/gmm.py" source_line=222 source_end_line=222 source_column=34 source_end_column=52}
  %jit_floor_divide_.1112 = s32[128]{0} call(%slice.1111, %constant.953), to_apply=%floor_divide.996, metadata={op_name="jit(floor_divide)" source_file="/home/eporat/benchmarking_qwen_omni_tpu/.venv/lib/python3.11/site-packages/jax/experimental/pallas/ops/tpu/megablox/gmm.py" source_line=222 source_end_line=222 source_column=34 source_end_column=52}
  %jit__where_.1113 = s32[128]{0} call(%or.1110, %constant.950, %jit_floor_divide_.1112), to_apply=%_where_136.1010, metadata={op_name="jit(_where)" source_file="/home/eporat/benchmarking_qwen_omni_tpu/.venv/lib/python3.11/site-packages/jax/experimental/pallas/ops/tpu/megablox/gmm.py" source_line=221 source_end_line=223 source_column=21 source_end_column=3}
  %convert_element_type.1114 = f32[128]{0} convert(%jit__where_.1113), metadata={op_name="convert_element_type" source_file="/home/eporat/benchmarking_qwen_omni_tpu/.venv/lib/python3.11/site-packages/jax/experimental/pallas/ops/tpu/megablox/gmm.py" source_line=226 source_end_line=227 source_column=6 source_end_column=9}
  %constant.954 = f32[2]{0} constant({0, 1})
  %jit__ptp_.1130 = f32[] call(%constant.954), to_apply=%_ptp.1129, metadata={op_name="jit(_ptp)" source_file="/home/eporat/benchmarking_qwen_omni_tpu/.venv/lib/python3.11/site-packages/jax/experimental/pallas/ops/tpu/megablox/gmm.py" source_line=226 source_end_line=227 source_column=6 source_end_column=9}
  %constant.949 = f32[] constant(0)
  %eq.1131 = pred[] compare(%jit__ptp_.1130, %constant.949), direction=EQ, metadata={op_name="eq" source_file="/home/eporat/benchmarking_qwen_omni_tpu/.venv/lib/python3.11/site-packages/jax/experimental/pallas/ops/tpu/megablox/gmm.py" source_line=226 source_end_line=227 source_column=6 source_end_column=9}
  %constant.933 = f32[] constant(-0.5)
  %jit__where_.1137 = f32[] call(%eq.1131, %constant.933, %constant.949), to_apply=%_where_182.1136, metadata={op_name="jit(_where)" source_file="/home/eporat/benchmarking_qwen_omni_tpu/.venv/lib/python3.11/site-packages/jax/experimental/pallas/ops/tpu/megablox/gmm.py" source_line=226 source_end_line=227 source_column=6 source_end_column=9}
  %jit__ptp_.1138 = f32[] call(%constant.954), to_apply=%_ptp.1129, metadata={op_name="jit(_ptp)" source_file="/home/eporat/benchmarking_qwen_omni_tpu/.venv/lib/python3.11/site-packages/jax/experimental/pallas/ops/tpu/megablox/gmm.py" source_line=226 source_end_line=227 source_column=6 source_end_column=9}
  %eq.1139 = pred[] compare(%jit__ptp_.1138, %constant.949), direction=EQ, metadata={op_name="eq" source_file="/home/eporat/benchmarking_qwen_omni_tpu/.venv/lib/python3.11/site-packages/jax/experimental/pallas/ops/tpu/megablox/gmm.py" source_line=226 source_end_line=227 source_column=6 source_end_column=9}
  %constant.932 = f32[] constant(1.5)
  %constant.931 = f32[] constant(1)
  %jit__where_.1140 = f32[] call(%eq.1139, %constant.932, %constant.931), to_apply=%_where_182.1136, metadata={op_name="jit(_where)" source_file="/home/eporat/benchmarking_qwen_omni_tpu/.venv/lib/python3.11/site-packages/jax/experimental/pallas/ops/tpu/megablox/gmm.py" source_line=226 source_end_line=227 source_column=6 source_end_column=9}
  %jit__linspace_.1164 = f32[3]{0} call(%jit__where_.1137, %jit__where_.1140), to_apply=%_linspace.1163, metadata={op_name="jit(_linspace)" source_file="/home/eporat/benchmarking_qwen_omni_tpu/.venv/lib/python3.11/site-packages/jax/experimental/pallas/ops/tpu/megablox/gmm.py" source_line=226 source_end_line=227 source_column=6 source_end_column=9}
  %dynamic_slice.1249 = f32[1]{0} slice(%jit__linspace_.1164), slice={[2:3]}, metadata={op_name="dynamic_slice" source_file="/home/eporat/benchmarking_qwen_omni_tpu/.venv/lib/python3.11/site-packages/jax/experimental/pallas/ops/tpu/megablox/gmm.py" source_line=226 source_end_line=227 source_column=6 source_end_column=9}
  %squeeze.1250 = f32[] reshape(%dynamic_slice.1249), metadata={op_name="squeeze" source_file="/home/eporat/benchmarking_qwen_omni_tpu/.venv/lib/python3.11/site-packages/jax/experimental/pallas/ops/tpu/megablox/gmm.py" source_line=226 source_end_line=227 source_column=6 source_end_column=9}
  %eq.1251 = f32[128]{0} broadcast(%squeeze.1250), dimensions={}, metadata={op_name="eq" source_file="/home/eporat/benchmarking_qwen_omni_tpu/.venv/lib/python3.11/site-packages/jax/experimental/pallas/ops/tpu/megablox/gmm.py" source_line=226 source_end_line=227 source_column=6 source_end_column=9}
  %eq.1252 = pred[128]{0} compare(%convert_element_type.1114, %eq.1251), direction=EQ, metadata={op_name="eq" source_file="/home/eporat/benchmarking_qwen_omni_tpu/.venv/lib/python3.11/site-packages/jax/experimental/pallas/ops/tpu/megablox/gmm.py" source_line=226 source_end_line=227 source_column=6 source_end_column=9}
  %jit_searchsorted_.1248 = s32[128]{0} call(%jit__linspace_.1164, %convert_element_type.1114), to_apply=%searchsorted.1247, metadata={op_name="jit(searchsorted)" source_file="/home/eporat/benchmarking_qwen_omni_tpu/.venv/lib/python3.11/site-packages/jax/experimental/pallas/ops/tpu/megablox/gmm.py" source_line=226 source_end_line=227 source_column=6 source_end_column=9}
  %jit__where_.1253 = s32[128]{0} call(%eq.1252, %constant.950, %jit_searchsorted_.1248), to_apply=%_where_136.1010, metadata={op_name="jit(_where)" source_file="/home/eporat/benchmarking_qwen_omni_tpu/.venv/lib/python3.11/site-packages/jax/experimental/pallas/ops/tpu/megablox/gmm.py" source_line=226 source_end_line=227 source_column=6 source_end_column=9}
  %lt.1254 = pred[128]{0} compare(%jit__where_.1253, %broadcast.943), direction=LT, metadata={op_name="lt" source_file="/home/eporat/benchmarking_qwen_omni_tpu/.venv/lib/python3.11/site-packages/jax/experimental/pallas/ops/tpu/megablox/gmm.py" source_line=226 source_end_line=227 source_column=6 source_end_column=9}
  %constant.927 = s32[] constant(3)
  %add.928 = s32[128]{0} broadcast(%constant.927), dimensions={}, metadata={op_name="add" source_file="/home/eporat/benchmarking_qwen_omni_tpu/.venv/lib/python3.11/site-packages/jax/experimental/pallas/ops/tpu/megablox/gmm.py" source_line=226 source_end_line=227 source_column=6 source_end_column=9}
  %add.1255 = s32[128]{0} add(%jit__where_.1253, %add.928), metadata={op_name="add" source_file="/home/eporat/benchmarking_qwen_omni_tpu/.venv/lib/python3.11/site-packages/jax/experimental/pallas/ops/tpu/megablox/gmm.py" source_line=226 source_end_line=227 source_column=6 source_end_column=9}
  %select_n.1256 = s32[128]{0} select(%lt.1254, %add.1255, %jit__where_.1253), metadata={op_name="select_n" source_file="/home/eporat/benchmarking_qwen_omni_tpu/.venv/lib/python3.11/site-packages/jax/experimental/pallas/ops/tpu/megablox/gmm.py" source_line=226 source_end_line=227 source_column=6 source_end_column=9}
…
source_end_line=265 source_column=9 source_end_column=43}
  %broadcast_in_dim.8910 = f32[32,32,1]{2,1,0} reshape(%reduce_sum.8909), metadata={op_name="jit(step_fun)/aten::mean.dim/broadcast_in_dim" source_file="/home/eporat/benchmarking_qwen_omni_tpu/.venv/lib/python3.11/site-packages/torchax/ops/jaten.py" source_line=265 source_end_line=265 source_column=9 source_end_column=43}
  %div.8911 = f32[32,32,1]{2,1,0} divide(%broadcast_in_dim.8910, %broadcast.503), metadata={op_name="jit(step_fun)/aten::mean.dim/div" source_file="/home/eporat/benchmarking_qwen_omni_tpu/.venv/lib/python3.11/site-packages/torchax/ops/jaten.py" source_line=265 source_end_line=265 source_column=9 source_end_column=43}
  %add.8912 = f32[32,32,1]{2,1,0} add(%div.8911, %broadcast.501), metadata={op_name="jit(step_fun)/aten::add.Tensor/add" source_file="/home/eporat/benchmarking_qwen_omni_tpu/.venv/lib/python3.11/site-packages/torchax/ops/jaten.py" source_line=65 source_end_line=65 source_column=8 source_end_column=21}
  %rsqrt.8913 = f32[32,32,1]{2,1,0} rsqrt(%add.8912), metadata={op_name="jit(step_fun)/aten::rsqrt/rsqrt" source_file="/home/eporat/benchmarking_qwen_omni_tpu/.venv/lib/python3.11/site-packages/torchax/ops/jaten.py" source_line=656 source_end_line=656 source_column=9 source_end_column=25}
  %mul.8914 = f32[32,32,1]{2,1,0} broadcast(%rsqrt.8913), dimensions={0,1,2}, metadata={op_name="jit(step_fun)/aten::mul.Tensor/mul" source_file="/home/eporat/benchmarking_qwen_omni_tpu/.venv/lib/python3.11/site-packages/torchax/ops/jaten.py" source_line=325 source_end_line=325 source_column=8 source_end_column=13}
  %mul.8915 = f32[32,32]{1,0} reshape(%mul.8914), metadata={op_name="jit(step_fun)/aten::mul.Tensor/mul" source_file="/home/eporat/benchmarking_qwen_omni_tpu/.venv/lib/python3.11/site-packages/torchax/ops/jaten.py" source_line=325 source_end_line=325 source_column=8 source_end_column=13}
  %mul.8916 = f32[32,32,128]{2,1,0} broadcast(%mul.8915), dimensions={0,1}, metadata={op_name="jit(step_fun)/aten::mul.Tensor/mul" source_file="/home/eporat/benchmarking_qwen_omni_tpu/.venv/lib/python3.11/site-packages/torchax/ops/jaten.py" source_line=325 source_end_line=325 source_column=8 source_end_column=13}
  %mul.8917 = f32[32,32,128]{2,1,0} multiply(%convert_element_type.8903, %mul.8916), metadata={op_name="jit(step_fun)/aten::mul.Tensor/mul" source_file="/home/eporat/benchmarking_qwen_omni_tpu/.venv/lib/python3.11/site-packages/torchax/ops/jaten.py" source_line=325 source_end_line=325 source_column=8 source_end_column=13}
  %convert_element_type.8918 = bf16[32,32,128]{2,1,0} convert(%mul.8917), metadata={op_name="jit(step_fun)/convert_element_type" source_file="/home/eporat/benchmarking_qwen_omni_tpu/.venv/lib/python3.11/site-packages/torchax/tensor.py" source_line=154 source_end_line=154 source_column=10 source_end_column=51}
  %params_and_buffers__vllm_model_language_model_model_layers_47_self_attn_q_norm_weight__.388 = bf16[128]{0} parameter(387), sharding={replicated}, frontend_attributes={xla.sdy.sharding="#sdy.sharding<@mesh, [{}]>"}, metadata={op_name="params_and_buffers[\'vllm_model.language_model.model.layers.47.self_attn.q_norm.weight\']"}
  %broadcast_in_dim.8919 = bf16[1,1,128]{2,1,0} reshape(%params_and_buffers__vllm_model_language_model_model_layers_47_self_attn_q_norm_weight__.388), metadata={op_name="jit(step_fun)/aten::mul.Tensor/broadcast_in_dim" source_file="/home/eporat/benchmarking_qwen_omni_tpu/.venv/lib/python3.11/site-packages/torchax/ops/jaten.py" source_line=325 source_end_line=325 source_column=8 source_end_column=13}
  %mul.8920 = bf16[1,1,128]{2,1,0} broadcast(%broadcast_in_dim.8919), dimensions={0,1,2}, metadata={op_name="jit(step_fun)/aten::mul.Tensor/mul" source_file="/home/eporat/benchmarking_qwen_omni_tpu/.venv/lib/python3.11/site-packages/torchax/ops/jaten.py" source_line=325 source_end_line=325 source_column=8 source_end_column=13}
  %mul.8921 = bf16[128]{0} reshape(%mul.8920), metadata={op_name="jit(step_fun)/aten::mul.Tensor/mul" source_file="/home/eporat/benchmarking_qwen_omni_tpu/.venv/lib/python3.11/site-packages/torchax/ops/jaten.py" source_line=325 source_end_line=325 source_column=8 source_end_column=13}
  %mul.8922 = bf16[32,32,128]{2,1,0} broadcast(%mul.8921), dimensions={2}, metadata={op_name="jit(step_fun)/aten::mul.Tensor/mul" source_file="/home/eporat/benchmarking_qwen_omni_tpu/.venv/lib/python3.11/site-packages/torchax/ops/jaten.py" source_line=325 source_end_line=325 source_column=8 source_end_column=13}
  %mul.8923 = bf16[32,32,128]{2,1,0} multiply(%convert_element_type.8918, %mul.8922), metadata={op_name="jit(step_fun)/aten::mul.Tensor/mul" source_file="/home/eporat/benchmarking_qwen_omni_tpu/.venv/lib/python3.11/site-packages/torchax/ops/jaten.py" source_line=325 source_end_line=325 source_column=8 source_end_column=13}
  %slice.8954 = bf16[32,32,64]{2,1,0} slice(%mul.8923), slice={[0:32], [0:32], [0:64]}, metadata={op_name="jit(step_fun)/aten::split.Tensor/slice" source_file="/home/eporat/benchmarking_qwen_omni_tpu/.venv/lib/python3.11/site-packages/torchax/ops/jaten.py" source_line=784 source_end_line=784 source_column=6 source_end_column=42}
  %lt.8945 = pred[32]{0} compare(%attn_metadata_input_positions.485, %broadcast.493), direction=LT, metadata={op_name="jit(step_fun)/__getitem__/lt" source_file="/home/eporat/benchmarking_qwen_omni_tpu/.venv/lib/python3.11/site-packages/torchax/ops/jtorch.py" source_line=291 source_end_line=291 source_column=31 source_end_column=50}
  %add.8946 = s32[32]{0} add(%attn_metadata_input_positions.485, %broadcast.491), metadata={op_name="jit(step_fun)/__getitem__/add" source_file="/home/eporat/benchmarking_qwen_omni_tpu/.venv/lib/python3.11/site-packages/torchax/ops/jtorch.py" source_line=291 source_end_line=291 source_column=31 source_end_column=50}
  %select_n.8947 = s32[32]{0} select(%lt.8945, %add.8946, %attn_metadata_input_positions.485), metadata={op_name="jit(step_fun)/__getitem__/select_n" source_file="/home/eporat/benchmarking_qwen_omni_tpu/.venv/lib/python3.11/site-packages/torchax/ops/jtorch.py" source_line=291 source_end_line=291 source_column=31 source_end_column=50}
  %broadcast_in_dim.8948 = s32[32,1]{1,0} reshape(%select_n.8947), metadata={op_name="jit(step_fun)/__getitem__/broadcast_in_dim" source_file="/home/eporat/benchmarking_qwen_omni_tpu/.venv/lib/python3.11/site-packages/torchax/ops/jtorch.py" source_line=291 source_end_line=291 source_column=31 source_end_column=50}
  %gather.8949 = bf16[32,128]{1,0} gather(%params_and_buffers__vllm_model_language_model_model_layers_0_self_attn_rotary_emb_cos_sin_cache__.11, %broadcast_in_dim.8948), offset_dims={1}, collapsed_slice_dims={0}, start_index_map={0}, index_vector_dim=1, slice_sizes={1,128}, metadata={op_name="jit(step_fun)/__getitem__/gather" source_file="/home/eporat/benchmarking_qwen_omni_tpu/.venv/lib/python3.11/site-packages/torchax/ops/jtorch.py" source_line=291 source_end_line=291 source_column=31 source_end_column=50}
  %slice.8950 = bf16[32,64]{1,0} slice(%gather.8949), slice={[0:32], [0:64]}, metadata={op_name="jit(step_fun)/aten::split.Tensor/slice" source_file="/home/eporat/benchmarking_qwen_omni_tpu/.venv/lib/python3.11/site-packages/torchax/ops/jaten.py" source_line=784 source_end_line=784 source_column=6 source_end_column=42}
  %broadcast_in_dim.8952 = bf16[32,1,64]{2,1,0} reshape(%slice.8950), metadata={op_name="jit(step_fun)/aten::unsqueeze/broadcast_in_dim" source_file="/home/eporat/benchmarking_qwen_omni_tpu/.venv/lib/python3.11/site-packages/torchax/ops/jaten.py" source_line=801 source_end_line=801 source_column=9 source_end_column=35}
  %mul.8956 = bf16[32,1,64]{2,1,0} broadcast(%broadcast_in_dim.8952), dimensions={0,1,2}, metadata={op_name="jit(step_fun)/aten::mul.Tensor/mul" source_file="/home/eporat/benchmarking_qwen_omni_tpu/.venv/lib/python3.11/site-packages/torchax/ops/jaten.py" source_line=325 source_end_line=325 source_column=8 source_end_column=13}
  %mul.8957 = bf16[32,64]{1,0} reshape(%mul.8956), metadata={op_name="jit(step_fun)/aten::mul.Tensor/mul" source_file="/home/eporat/benchmarking_qwen_omni_tpu/.venv/lib/python3.11/site-packages/torchax/ops/jaten.py" source_line=325 source_end_line=325 source_column=8 source_end_column=13}
  %mul.8958 = bf16[32,32,64]{2,1,0} broadcast(%mul.8957), dimensions={0,2}, metadata={op_name="jit(step_fun)/aten::mul.Tensor/mul" source_file="/home/eporat/benchmarking_qwen_omni_tpu/.venv/lib/python3.11/site-packages/torchax/ops/jaten.py" source_line=325 source_end_line=325 source_column=8 source_end_column=13}
  %mul.8959 = bf16[32,32,64]{2,1,0} multiply(%slice.8954, %mul.8958), metadata={op_name="jit(step_fun)/aten::mul.Tensor/mul" source_file="/home/eporat/benchmarking_qwen_omni_tpu/.venv/lib/python3.11/site-packages/torchax/ops/jaten.py" source_line=325 source_end_line=325 source_column=8 source_end_column=13}
  %slice.8955 = bf16[32,32,64]{2,1,0} slice(%mul.8923), slice={[0:32], [0:32], [64:128]}, metadata={op_name="jit(step_fun)/aten::split.Tensor/slice" source_file="/home/eporat/benchmarking_qwen_omni_tpu/.venv/lib/python3.11/site-packages/torchax/ops/jaten.py" source_line=784 source_end_line=784 source_column=6 source_end_column=42}
  %slice.8951 = bf16[32,64]{1,0} slice(%gather.8949), slice={[0:32], [64:128]}, metadata={op_name="jit(step_fun)/aten::split.Tensor/slice" source_file="/home/eporat/benchmarking_qwen_omni_tpu/.venv/lib/python3.11/site-packages/torchax/ops/jaten.py" source_line=784 source_end_line=784 source_column=6 source_end_column=42}
  %broadcast_in_dim.8953 = bf16[32,1,64]{2,1,0} reshape(%slice.8951), metadata={op_name="jit(step_fun)/aten::unsqueeze/broadcast_in_dim" source_file="/home/eporat/benchmarking_qwen_omni_tpu/.venv/lib/python3.11/site-packages/torchax/ops/jaten.py" source_line=801 source_end_line=801 source_column=9 source_end_column=35}
  %mul.8960 = bf16[32,1,64]{2,1,0} broadcast(%broadcast_in_dim.8953), dimensions={0,1,2}, metadata={op_name="jit(step_fun)/aten::mul.Tensor/mul" source_file="/home/eporat/benchmarking_qwen_omni_tpu/.venv/lib/python3.11/site-packages/torchax/ops/jaten.py" source_line=325 source_end_line=325 source_column=8 source_end_column=13}
  %mul.8961 = bf16[32,64]{1,0} reshape(%mul.8960), metadata={op_name="jit(step_fun)/aten::mul.Tensor/mul" source_file="/home/eporat/benchmarking_qwen_omni_tpu/.venv/lib/python3.11/site-packages/torchax/ops/jaten.py" source_line=325 source_end_line=325 source_column=8 source_end_column=13}
  %mul.8962 = bf16[32,32,64]{2,1,0} broadcast(%mul.8961), dimensions={0,2}, metadata={op_name="jit(step_fun)/aten::mul.Tensor/mul" source_file="/home/eporat/benchmarking_qwen_omni_tpu/.venv/lib/python3.11/site-packages/torchax/ops/jaten.py" source_line=325 source_end_line=325 source_column=8 source_end_column=13}
  %mul.8963 = bf16[32,32,64]{2,1,0} multiply(%slice.8955, %mul.8962), metadata={op_name="jit(step_fun)/aten::mul.Tensor/mul" source_file="/home/eporat/benchmarking_qwen_omni_tpu/.venv/lib/python3.11/site-packages/torchax/ops/jaten.py" source_line=325 source_end_line=325 source_column=8 source_end_column=13}
  %sub.8964 = bf16[32,32,64]{2,1,0} subtract(%mul.8959, %mul.8963), metadata={op_name="jit(step_fun)/aten::sub.Tensor/sub" source_file="/home/eporat/benchmarking_qwen_omni_tpu/.venv/lib/python3.11/site-packages/torchax/ops/jaten.py" source_line=299 source_end_line=299 source_column=9 source_end_column=22}
  %mul.8965 = bf16[32,1,64]{2,1,0} broadcast(%broadcast_in_dim.8952), dimensions={0,1,2}, metadata={op_name="jit(step_fun)/aten::mul.Tensor/mul" source_file="/home/eporat/benchmarking_qwen_omni_tpu/.venv/lib/python3.11/site-packages/torchax/ops/jaten.py" source_line=325 source_end_line=325 source_column=8 source_end_column=13}
  %mul.8966 = bf16[32,64]{1,0} reshape(%mul.8965), metadata={op_name="jit(step_fun)/aten::mul.Tensor/mul" source_file="/home/eporat/benchmarking_qwen_omni_tpu/.venv/lib/python3.11/site-packages/torchax/ops/jaten.py" source_line=325 source_end_line=325 source_column=8 source_end_column=13}
  %mul.8967 = bf16[32,32,64]{2,1,0} broadcast(%mul.8966), dimensions={0,2}, metadata={op_name="jit(step_fun)/aten::mul.Tensor/mul" source_file="/home/eporat/benchmarking_qwen_omni_tpu/.venv/lib/python3.11/site-packages/torchax/ops/jaten.py" source_line=325 source_end_line=325 source_column=8 source_end_column=13}
  %mul.8968 = bf16[32,32,64]{2,1,0} multiply(%slice.8955, %mul.8967), metadata={op_name="jit(step_fun)/aten::mul.Tensor/mul" source_file="/home/eporat/benchmarking_qwen_omni_tpu/.venv/lib/python3.11/site-packages/torchax/ops/jaten.py" source_line=325 source_end_line=325 source_column=8 source_end_column=13}
  %mul.8969 = bf16[32,1,64]{2,1,0} broadcast(%broadcast_in_dim.8953), dimensions={0,1,2}, metadata={op_name="jit(step_fun)/aten::mul.Tensor/mul" source_file="/home/eporat/benchmarking_qwen_omni_tpu/.venv/lib/python3.11/site-packages/torchax/ops/jaten.py" source_line=325 source_end_line=325 source_column=8 source_end_column=13}
  %mul.8970 = bf16[32,64]{1,0} reshape(%mul.8969), metadata={op_name="jit(step_fun)/aten::mul.Tensor/mul" source_file="/home/eporat/benchmarking_qwen_omni_tpu/.venv/lib/python3.11/site-packages/torchax/ops/jaten.py" source_line=325 source_end_line=325 source_column=8 source_end_column=13}
  %mul.8971 = bf16[32,32,64]{2,1,0} broadcast(%mul.8970), dimensions={0,2}, metadata={op_name="jit(step_fun)/aten::mul.Tensor/mul" source_file="/home/eporat/benchmarking_qwen_omni_tpu/.venv/lib/python3.11/site-packages/torchax/ops/jaten.py" source_line=325 source_end_line=325 source_column=8 source_end_column=13}
  %mul.8972 = bf16[32,32,64]{2,1,0} multiply(%slice.8954, %mul.8971), metadata={op_name="jit(step_fun)/aten::mul.Tensor/mul" source_file="/home/eporat/benchmarking_qwen_omni_tpu/.venv/lib/python3.11/site-packages/torchax/ops/jaten.py" source_line=325 source_end_line=325 source_column=8 source_end_column=13}
  %add.8973 = bf16[32,32,64]{2,1,0} add(%mul.8968, %mul.8972), metadata={op_name="jit(step_fun)/aten::add.Tensor/add" source_file="/home/eporat/benchmarking_qwen_omni_tpu/.venv/lib/python3.11/site-packages/torchax/ops/jaten.py" source_line=65 source_end_line=65 source_column=8 source_end_column=21}
  %concatenate.8974 = bf16[32,32,128]{2,1,0} concatenate(%sub.8964, %add.8973), dimensions={2}, metadata={op_name="jit(step_fun)/aten::cat/concatenate" source_file="/home/eporat/benchmarking_qwen_omni_tpu/.venv/lib/python3.11/site-packages/torchax/ops/jaten.py" source_line=1211 source_end_line=1211 source_column=11 source_end_column=50}
  %reshape.8975 = bf16[32,4096]{1,0} reshape(%concatenate.8974), metadata={op_name="jit(step_fun)/aten::view/reshape" source_file="/home/eporat/benchmarking_qwen_omni_tpu/.venv/lib/python3.11/site-packages/torchax/ops/jaten.py" source_line=55 source_end_line=55 source_column=9 source_end_column=30}
  %slice.8899 = bf16[32,4,128]{2,1,0} slice(%reshape.8897), slice={[0:32], [0:4], [1024:1152]}, metadata={op_name="jit(step_fun)/QKVParallelLinear/slice" source_file="/home/eporat/benchmarking_qwen_omni_tpu/.venv/lib/python3.11/site-packages/tpu_inference/layers/vllm/linear_common.py" source_line=107 source_end_line=107 source_column=23 source_end_column=67}
  %convert_element_type.8924 = f32[32,4,128]{2,1,0} convert(%slice.8899), metadata={op_name="jit(step_fun)/convert_element_type" source_file="/home/eporat/benchmarking_qwen_omni_tpu/.venv/lib/python3.11/site-packages/torchax/tensor.py" source_line=154 source_end_line=154 source_column=10 source_end_column=51}
  %pow.8925 = f32[32,4,128]{2,1,0} power(%convert_element_type.8924, %broadcast.499), metadata={op_name="jit(step_fun)/aten::pow.Tensor_Scalar/pow" source_file="/home/eporat/benchmarking_qwen_omni_tpu/.venv/lib/python3.11/site-packages/torchax/ops/jaten.py" source_line=487 source_end_line=487 source_column=8 source_end_column=23}
  %reduce_sum.8930 = f32[32,4]{1,0} reduce(%pow.8925, %constant.512), dimensions={2}, to_apply=%region_222.8929, metadata={op_name="jit(step_fun)/aten::mean.dim/reduce_sum" source_file="/home/eporat/benchmarking_qwen_omni_tpu/.venv/lib/python3.11/site-packages/torchax/ops/jaten.py" source_line=265 source_end_line=265 source_column=9 source_end_column=43}
  %broadcast_in_dim.8931 = f32[32,4,1]{2,1,0} reshape(%reduce_sum.8930), metadata={op_name="jit(step_fun)/aten::mean.dim/broadcast_in_dim" source_file="/home/eporat/benchmarking_qwen_omni_tpu/.venv/lib/python3.11/site-packages/torchax/ops/jaten.py" source_line=265 source_end_line=265 source_column=9 source_end_column=43}
  %div.8932 = f32[32,4,1]{2,1,0} divide(%broadcast_in_dim.8931, %broadcast.497), metadata={op_name="jit(step_fun)/aten::mean.dim/div" source_file="/home/eporat/benchmarking_qwen_omni_tpu/.venv/lib/python3.11/site-packages/torchax/ops/jaten.py" source_line=265 source_end_line=265 source_column=9 source_end_column=43}
  %add.8933 = f32[32,4,1]{2,1,0} add(%div.8932, %broadcast.495), metadata={op_name="jit(step_fun)/aten::add.Tensor/add" source_file="/home/eporat/benchmarking_qwen_omni_tpu/.venv/lib/python3.11/site-packages/torchax/ops/jaten.py" source_line=65 source_end_line=65 source_column=8 source_end_column=21}
  %rsqrt.8934 = f32[32,4,1]{2,1,0} rsqrt(%add.8933), metadata={op_name="jit(step_fun)/aten::rsqrt/rsqrt" source_file="/home/eporat/benchmarking_qwen_omni_tpu/.venv/lib/python3.11/site-packages/torchax/ops/jaten.py" source_line=656 source_end_line=656 source_column=9 source_end_column=25}
  %mul.8935 = f32[32,4,1]{2,1,0} broadcast(%rsqrt.8934), dimensions={0,1,2}, metadata={op_name="jit(step_fun)/aten::mul.Tensor/mul" source_file="/home/eporat/benchmarking_qwen_omni_tpu/.venv/lib/python3.11/site-packages/torchax/ops/jaten.py" source_line=325 source_end_line=325 source_column=8 source_end_column=13}
  %mul.8936 = f32[32,4]{1,0} reshape(%mul.8935), metadata={op_name="jit(step_fun)/aten::mul.Tensor/mul" source_file="/home/eporat/benchmarking_qwen_omni_tpu/.venv/lib/python3.11/site-packages/torchax/ops/jaten.py" source_line=325 source_end_line=325 source_column=8 source_end_column=13}
  %mul.8937 = f32[32,4,128]{2,1,0} broadcast(%mul.8936), dimensions={0,1}, metadata={op_name="jit(step_fun)/aten::mul.Tensor/mul" source_file="/home/eporat/benchmarking_qwen_omni_tpu/.venv/lib/python3.11/site-packages/torchax/ops/jaten.py" source_line=325 source_end_line=325 source_column=8 source_end_column=13}
  %mul.8938 = f32[32,4,128]{2,1,0} multiply(%convert_element_type.8924, %mul.8937), metadata={op_name="jit(step_fun)/aten::mul.Tensor/mul" source_file="/home/eporat/benchmarking_qwen_omni_tpu/.venv/lib/python3.11/site-packages/torchax/ops/jaten.py" source_line=325 source_end_line=325 source_column=8 source_end_column=13}
  %convert_element_type.8939 = bf16[32,4,128]{2,1,0} convert(%mul.8938), metadata={op_name="jit(step_fun)/convert_element_type" source_file="/home/eporat/benchmarking_qwen_omni_tpu/.venv/lib/python3.11/site-packages/torchax/tensor.py" source_line=154 source_end_line=154 source_column=10 source_end_column=51}
  %params_and_buffers__vllm_model_language_model_model_layers_47_self_attn_k_norm_weight__.386 = bf16[128]{0} parameter(385), sharding={replicated}, frontend_attributes={xla.sdy.sharding="#sdy.sharding<@mesh, [{}]>"}, metadata={op_name="params_and_buffers[\'vllm_model.language_model.model.layers.47.self_attn.k_norm.weight\']"}
  %broadcast_in_dim.8940 = bf16[1,1,128]{2,1,0} reshape(%params_and_buffers__vllm_model_language_model_model_layers_47_self_attn_k_norm_weight__.386), metadata={op_name="jit(step_fun)/aten::mul.Tensor/broadcast_in_dim" source_file="/home/eporat/benchmarking_qwen_omni_tpu/.venv/lib/python3.11/site-packages/torchax/ops/jaten.py" source_line=325 source_end_line=325 source_column=8 source_end_column=13}
  %mul.8941 = bf16[1,1,128]{2,1,0} broadcast(%broadcast_in_dim.8940), dimensions={0,1,2}, metadata={op_name="jit(step_fun)/aten::mul.Tensor/mul" source_file="/home/eporat/benchmarking_qwen_omni_tpu/.venv/lib/python3.11/site-packages/torchax/ops/jaten.py" source_line=325 source_end_line=325 source_column=8 source_end_column=13}
  %mul.8942 = bf16[128]{0} reshape(%mul.8941), metadata={op_name="jit(step_fun)/aten::mul.Tensor/mul" source_file="/home/eporat/benchmarking_qwen_omni_tpu/.venv/lib/python3.11/site-packages/torchax/ops/jaten.py" source_line=325 source_end_line=325 source_column=8 source_end_column=13}
  %mul.8943 = bf16[32,4,128]{2,1,0} broadcast(%mul.8942), dimensions={2}, metadata={op_name="jit(step_fun)/aten::mul.Tensor/mul" source_file="/home/eporat/benchmarking_qwen_omni_tpu/.venv/lib/python3.11/site-packages/torchax/ops/jaten.py" source_line=325 source_end_line=325 source_column=8 source_end_column=13}
  %mul.8944 = bf16[32,4,128]{2,1,0} multiply(%convert_element_type.8939, %mul.8943), metadata={op_name="jit(step_fun)/aten::mul.Tensor/mul" source_file="/home/eporat/benchmarking_qwen_omni_tpu/.venv/lib/python3.11/site-packages/torchax/ops/jaten.py" source_line=325 source_end_line=325 source_column=8 source_end_column=13}
  %slice.8978 = bf16[32,4,64]{2,1,0} slice(%mul.8944), slice={[0:32], [0:4], [0:64]}, metadata={op_name="jit(step_fun)/aten::split.Tensor/slice" source_file="/home/eporat/benchmarking_qwen_omni_tpu/.venv/lib/python3.11/site-packages/torchax/ops/jaten.py" source_line=784 source_end_line=784 source_column=6 source_end_column=42}
  %broadcast_in_dim.8976 = bf16[32,1,64]{2,1,0} reshape(%slice.8950), metadata={op_name="jit(step_fun)/aten::unsqueeze/broadcast_in_dim" source_file="/home/eporat/benchmarking_qwen_omni_tpu/.venv/lib/python3.11/site-packages/torchax/ops/jaten.py" source_line=801 source_end_line=801 source_column=9 source_end_column=35}
  %mul.8980 = bf16[32,1,64]{2,1,0} broadcast(%broadcast_in_dim.8976), dimensions={0,1,2}, metadata={op_name="jit(step_fun)/aten::mul.Tensor/mul" source_file="/home/eporat/benchmarking_qwen_omni_tpu/.venv/lib/python3.11/site-packages/torchax/ops/jaten.py" source_line=325 source_end_line=325 source_column=8 source_end_column=13}
  %mul.8981 = bf16[32,64]{1,0} reshape(%mul.8980), metadata={op_name="jit(step_fun)/aten::mul.Tensor/mul" source_file="/home/eporat/benchmarking_qwen_omni_tpu/.venv/lib/python3.11/site-packages/torchax/ops/jaten.py" source_line=325 source_end_line=325 source_column=8 source_end_column=13}
  %mul.8982 = bf16[32,4,64]{2,1,0} broadcast(%mul.8981), dimensions={0,2}, metadata={op_name="jit(step_fun)/aten::mul.Tensor/mul" source_file="/home/eporat/benchmarking_qwen_omni_tpu/.venv/lib/python3.11/site-packages/torchax/ops/jaten.py" source_line=325 source_end_line=325 source_column=8 source_end_column=13}
  %mul.8983 = bf16[32,4,64]{2,1,0} multiply(%slice.8978, %mul.8982), metadata={op_name="jit(step_fun)/aten::mul.Tensor/mul" source_file="/home/eporat/benchmarking_qwen_omni_tpu/.venv/lib/python3.11/site-packages/torchax/ops/jaten.py" source_line=325 source_end_line=325 source_column=8 source_end_column=13}
  %slice.8979 = bf16[32,4,64]{2,1,0} slice(%mul.8944), slice={[0:32], [0:4], [64:128]}, metadata={op_name="jit(step_fun)/aten::split.Tensor/slice" source_file="/home/eporat/benchmarking_qwen_omni_tpu/.venv/lib/python3.11/site-packages/torchax/ops/jaten.py" source_line=784 source_end_line=784 source_column=6 source_end_column=42}
  %broadcast_in_dim.8977 = bf16[32,1,64]{2,1,0} reshape(%slice.8951), metadata={op_name="jit(step_fun)/aten::unsqueeze/broadcast_in_dim" source_file="/home/eporat/benchmarking_qwen_omni_tpu/.venv/lib/python3.11/site-packages/torchax/ops/jaten.py" source_line=801 source_end_line=801 source_column=9 source_end_column=35}
  %mul.8984 = bf16[32,1,64]{2,1,0} broadcast(%broadcast_in_dim.8977), dimensions={0,1,2}, metadata={op_name="jit(step_fun)/aten::mul.Tensor/mul" source_file="/home/eporat/benchmarking_qwen_omni_tpu/.venv/lib/python3.11/site-packages/torchax/ops/jaten.py" source_line=325 source_end_line=325 source_column=8 source_end_column=13}
  %mul.8985 = bf16[32,64]{1,0} reshape(%mul.8984), metadata={op_name="jit(step_fun)/aten::mul.Tensor/mul" source_file="/home/eporat/benchmarking_qwen_omni_tpu/.venv/lib/python3.11/site-packages/torchax/ops/jaten.py" source_line=325 source_end_line=325 source_column=8 source_end_column=13}
  %mul.8986 = bf16[32,4,64]{2,1,0} broadcast(%mul.8985), dimensions={0,2}, metadata={op_name="jit(step_fun)/aten::mul.Tensor/mul" source_file="/home/eporat/benchmarking_qwen_omni_tpu/.venv/lib/python3.11/site-packages/torchax/ops/jaten.py" source_line=325 source_end_line=325 source_column=8 source_end_column=13}
  %mul.8987 = bf16[32,4,64]{2,1,0} multiply(%slice.8979, %mul.8986), metadata={op_name="jit(step_fun)/aten::mul.Tensor/mul" source_file="/home/eporat/benchmarking_qwen_omni_tpu/.venv/lib/python3.11/site-packages/torchax/ops/jaten.py" source_line=325 source_end_line=325 source_column=8 source_end_column=13}
  %sub.8988 = bf16[32,4,64]{2,1,0} subtract(%mul.8983, %mul.8987), metadata={op_name="jit(step_fun)/aten::sub.Tensor/sub" source_file="/home/eporat/benchmarking_qwen_omni_tpu/.venv/lib/python3.11/site-packages/torchax/ops/jaten.py" source_line=299 source_end_line=299 source_column=9 source_end_column=22}
  %mul.8989 = bf16[32,1,64]{2,1,0} broadcast(%broadcast_in_dim.8976), dimensions={0,1,2}, metadata={op_name="jit(step_fun)/aten::mul.Tensor/mul" source_file="/home/eporat/benchmarking_qwen_omni_tpu/.venv/lib/python3.11/site-packages/torchax/ops/jaten.py" source_line=325 source_end_line=325 source_column=8 source_end_column=13}
  %mul.8990 = bf16[32,64]{1,0} reshape(%mul.8989), metadata={op_name="jit(step_fun)/aten::mul.Tensor/mul" source_file="/home/eporat/benchmarking_qwen_omni_tpu/.venv/lib/python3.11/site-packages/torchax/ops/jaten.py" source_line=325 source_end_line=325 source_column=8 source_end_column=13}
  %mul.8991 = bf16[32,4,64]{2,1,0} broadcast(%mul.8990), dimensions={0,2}, metadata={op_name="jit(step_fun)/aten::mul.Tensor/mul" source_file="/home/eporat/benchmarking_qwen_omni_tpu/.venv/lib/python3.11/site-packages/torchax/ops/jaten.py" source_line=325 source_end_line=325 source_column=8 source_end_column=13}
  %mul.8992 = bf16[32,4,64]{2,1,0} multiply(%slice.8979, %mul.8991), metadata={op_name="jit(step_fun)/aten::mul.Tensor/mul" source_file="/home/eporat/benchmarking_qwen_omni_tpu/.venv/lib/python3.11/site-packages/torchax/ops/jaten.py" source_line=325 source_end_line=325 source_column=8 source_end_column=13}
  %mul.8993 = bf16[32,1,64]{2,1,0} broadcast(%broadcast_in_dim.8977), dimensions={0,1,2}, metadata={op_name="jit(step_fun)/aten::mul.Tensor/mul" source_file="/home/eporat/benchmarking_qwen_omni_tpu/.venv/lib/python3.11/site-packages/torchax/ops/jaten.py" source_line=325 source_end_line=325 source_column=8 source_end_column=13}
  %mul.8994 = bf16[32,64]{1,0} reshape(%mul.8993), metadata={op_name="jit(step_fun)/aten::mul.Tensor/mul" source_file="/home/eporat/benchmarking_qwen_omni_tpu/.venv/lib/python3.11/site-packages/torchax/ops/jaten.py" source_line=325 source_end_line=325 source_column=8 source_end_column=13}
  %mul.8995 = bf16[32,4,64]{2,1,0} broadcast(%mul.8994), dimensions={0,2}, metadata={op_name="jit(step_fun)/aten::mul.Tensor/mul" source_file="/home/eporat/benchmarking_qwen_omni_tpu/.venv/lib/python3.11/site-packages/torchax/ops/jaten.py" source_line=325 source_end_line=325 source_column=8 source_end_column=13}
  %mul.8996 = bf16[32,4,64]{2,1,0} multiply(%slice.8978, %mul.8995), metadata={op_name="jit(step_fun)/aten::mul.Tensor/mul" source_file="/home/eporat/benchmarking_qwen_omni_tpu/.venv/lib/python3.11/site-packages/torchax/ops/jaten.py" source_line=325 source_end_line=325 source_column=8 source_end_column=13}
  %add.8997 = bf16[32,4,64]{2,1,0} add(%mul.8992, %mul.8996), metadata={op_name="jit(step_fun)/aten::add.Tensor/add" source_file="/home/eporat/benchmarking_qwen_omni_tpu/.venv/lib/python3.11/site-packages/torchax/ops/jaten.py" source_line=65 source_end_line=65 source_column=8 source_end_column=21}
  %concatenate.8998 = bf16[32,4,128]{2,1,0} concatenate(%sub.8988, %add.8997), dimensions={2}, metadata={op_name="jit(step_fun)/aten::cat/concatenate" source_file="/home/eporat/benchmarking_qwen_omni_tpu/.venv/lib/python3.11/site-packages/torchax/ops/jaten.py" source_line=1211 source_end_line=1211 source_column=11 source_end_column=50}
  %reshape.8999 = bf16[32,512]{1,0} reshape(%concatenate.8998), metadata={op_name="jit(step_fun)/aten::view/reshape" source_file="/home/eporat/benchmarking_qwen_omni_tpu/.venv/lib/python3.11/site-packages/torchax/ops/jaten.py" source_line=55 source_end_line=55 source_column=9 source_end_column=30}
  %slice.8900 = bf16[32,4,128]{2,1,0} slice(%reshape.8897), slice={[0:32], [0:4], [1152:1280]}, metadata={op_name="jit(step_fun)/QKVParallelLinear/slice" source_file="/home/eporat/benchmarking_qwen_omni_tpu/.venv/lib/python3.11/site-packages/tpu_inference/layers/vllm/linear_common.py" source_line=107 source_end_line=107 source_column=23 source_end_column=67}
  %reshape.8901 = bf16[32,512]{1,0} reshape(%slice.8900), metadata={op_name="jit(step_fun)/QKVParallelLinear/reshape" source_file="/home/eporat/benchmarking_qwen_omni_tpu/.venv/lib/python3.11/site-packages/tpu_inference/layers/vllm/linear_common.py" source_line=108 source_end_line=108 source_column=29 source_end_column=74}
  %jit__jax_attn_func_.9000 = (bf16[14813,32,4,2,128]{4,3,2,1,0}, bf16[32,4096]{1,0}) call(%kv_caches_47_.483, %reshape.8975, %reshape.8999, %reshape.8901, %attn_metadata_block_tables.486, /*index=5*/%attn_metadata_seq_lens.487, %attn_metadata_query_start_loc.488, %attn_metadata_request_distribution.489), to_apply=%_jax_attn_func.763, metadata={op_name="jit(step_fun)/jit(_jax_attn_func)" source_file="/home/eporat/benchmarking_qwen_omni_tpu/.venv/lib/python3.11/site-packages/tpu_inference/layers/vllm/attention.py" source_line=118 source_end_line=122 source_column=32 source_end_column=64}
  %jit__jax_attn_func_.9001 = bf16[14813,32,4,2,128]{4,3,2,1,0} get-tuple-element(%jit__jax_attn_func_.9000), index=0, metadata={op_name="jit(step_fun)/jit(_jax_attn_func)" source_file="/home/eporat/benchmarking_qwen_omni_tpu/.venv/lib/python3.11/site-packages/tpu_inference/layers/vllm/attention.py" source_line=118 source_end_line=122 source_column=32 source_end_column=64}
  %jit__jax_attn_func_.9002 = bf16[32,4096]{1,0} get-tuple-element(%jit__jax_attn_func_.9000), index=1, metadata={op_name="jit(step_fun)/jit(_jax_attn_func)" source_file="/home/eporat/benchmarking_qwen_omni_tpu/.venv/lib/python3.11/site-packages/tpu_inference/layers/vllm/attention.py" source_line=118 source_end_line=122 source_column=32 source_end_column=64}
  %params_and_buffers__vllm_model_language_model_model_layers_47_self_attn_o_proj_weight__.387 = bf16[2048,4096]{1,0} parameter(386), sharding={devices=[1,4]<=[4]}, frontend_attributes={xla.sdy.sharding="#sdy.sharding<@mesh, [{}, {\"model\"}]>"}, metadata={op_name="params_and_buffers[\'vllm_model.language_model.model.layers.47.self_attn.o_proj.weight\']"}
  %dot_general.9003 = bf16[32,2048]{1,0} dot(%jit__jax_attn_func_.9002, %params_and_buffers__vllm_model_language_model_model_layers_47_self_attn_o_proj_weight__.387), lhs_contracting_dims={1}, rhs_contracting_dims={1}, metadata={op_name="jit(step_fun)/RowParallelLinear/mn,pn->mp/dot_general" source_file="/home/eporat/benchmarking_qwen_omni_tpu/.venv/lib/python3.11/site-packages/tpu_inference/layers/vllm/quantization/unquantized.py" source_line=129 source_end_line=129 source_column=15 source_end_column=57}
  %convert_element_type.9004 = f32[32,2048]{1,0} convert(%dot_general.9003), metadata={op_name="jit(step_fun)/convert_element_type" source_file="/home/eporat/benchmarking_qwen_omni_tpu/.venv/lib/python3.11/site-packages/torchax/tensor.py" source_line=154 source_end_line=154 source_column=10 source_end_column=51}
  %convert_element_type.8875 = bf16[32,2048]{1,0} convert(%add.8874), metadata={op_name="jit(step_fun)/convert_element_type" source_file="/home/eporat/benchmarking_qwen_omni_tpu/.venv/lib/python3.11/site-packages/torchax/tensor.py" source_line=154 source_end_line=154 source_column=10 source_end_column=51}
  %convert_element_type.9005 = f32[32,2048]{1,0} convert(%convert_element_type.8875), metadata={op_name="jit(step_fun)/convert_element_type" source_file="/home/eporat/benchmarking_qwen_omni_tpu/.venv/lib/python3.11/site-packages/torchax/tensor.py" source_line=154 source_end_line=154 source_column=10 source_end_column=51}
  %add.9006 = f32[32,2048]{1,0} add(%convert_element_type.9004, %convert_element_type.9005), metadata={op_name="jit(step_fun)/aten::add.Tensor/add" source_file="/home/eporat/benchmarking_qwen_omni_tpu/.venv/lib/python3.11/site-packages/torchax/ops/jaten.py" source_line=65 source_end_line=65 source_column=8 source_end_column=21}
  %pow.9008 = f32[32,2048]{1,0} power(%add.9006, %broadcast.511), metadata={op_name="jit(step_fun)/aten::pow.Tensor_Scalar/pow" source_file="/home/eporat/benchmarking_qwen_omni_tpu/.venv/lib/python3.11/site-packages/torchax/ops/jaten.py" source_line=487 source_end_line=487 source_column=8 source_end_column=23}
  %reduce_sum.9013 = f32[32]{0} reduce(%pow.9008, %constant.512), dimensions={1}, to_apply=%region_223.9012, metadata={op_name="jit(step_fun)/aten::mean.dim/reduce_sum" source_file="/home/eporat/benchmarking_qwen_omni_tpu/.venv/lib/python3.11/site-packages/torchax/ops/jaten.py" source_line=265 source_end_line=265 source_column=9 source_end_column=43}
  %broadcast_in_dim.9014 = f32[32,1]{1,0} reshape(%reduce_sum.9013), metadata={op_name="jit(step_fun)/aten::mean.dim/broadcast_in_dim" source_file="/home/eporat/benchmarking_qwen_omni_tpu/.venv/lib/python3.11/site-packages/torchax/ops/jaten.py" source_line=265 source_end_line=265 source_column=9 source_end_column=43}
  %div.9015 = f32[32,1]{1,0} divide(%broadcast_in_dim.9014, %broadcast.509), metadata={op_name="jit(step_fun)/aten::mean.dim/div" source_file="/home/eporat/benchmarking_qwen_omni_tpu/.venv/lib/python3.11/site-packages/torchax/ops/jaten.py" source_line=265 source_end_line=265 source_column=9 source_end_column=43}
  %add.9016 = f32[32,1]{1,0} add(%div.9015, %broadcast.507), metadata={op_name="jit(step_fun)/aten::add.Tensor/add" source_file="/home/eporat/benchmarking_qwen_omni_tpu/.venv/lib/python3.11/site-packages/torchax/ops/jaten.py" source_line=65 source_end_line=65 source_column=8 source_end_column=21}
  %rsqrt.9017 = f32[32,1]{1,0} rsqrt(%add.9016), metadata={op_name="jit(step_fun)/aten::rsqrt/rsqrt" source_file="/home/eporat/benchmarking_qwen_omni_tpu/.venv/lib/python3.11/site-packages/torchax/ops/jaten.py" source_line=656 source_end_line=656 source_column=9 source_end_column=25}
  %mul.9018 = f32[32,1]{1,0} broadcast(%rsqrt.9017), dimensions={0,1}, metadata={op_name="jit(step_fun)/aten::mul.Tensor/mul" source_file="/home/eporat/benchmarking_qwen_omni_tpu/.venv/lib/python3.11/site-packages/torchax/ops/jaten.py" source_line=325 source_end_line=325 source_column=8 source_end_column=13}
  %mul.9019 = f32[32]{0} reshape(%mul.9018), metadata={op_name="jit(step_fun)/aten::mul.Tensor/mul" source_file="/home/eporat/benchmarking_qwen_omni_tpu/.venv/lib/python3.11/site-packages/torchax/ops/jaten.py" source_line=325 source_end_line=325 source_column=8 source_end_column=13}
  %mul.9020 = f32[32,2048]{1,0} broadcast(%mul.9019), dimensions={0}, metadata={op_name="jit(step_fun)/aten::mul.Tensor/mul" source_file="/home/eporat/benchmarking_qwen_omni_tpu/.venv/lib/python3.11/site-packages/torchax/ops/jaten.py" source_line=325 source_end_line=325 source_column=8 source_end_column=13}
  %mul.9021 = f32[32,2048]{1,0} multiply(%add.9006, %mul.9020), metadata={op_name="jit(step_fun)/aten::mul.Tensor/mul" source_file="/home/eporat/benchmarking_qwen_omni_tpu/.venv/lib/python3.11/site-packages/torchax/ops/jaten.py" source_line=325 source_end_line=325 source_column=8 source_end_column=13}
  %convert_element_type.9022 = bf16[32,2048]{1,0} convert(%mul.9021), metadata={op_name="jit(step_fun)/convert_element_type" source_file="/home/eporat/benchmarking_qwen_omni_tpu/.venv/lib/python3.11/site-packages/torchax/tensor.py" source_line=154 source_end_line=154 source_column=10 source_end_column=51}
  %params_and_buffers__vllm_model_language_model_model_layers_47_post_attention_layernorm_weight__.385 = bf16[2048]{0} parameter(384), sharding={replicated}, frontend_attributes={xla.sdy.sharding="#sdy.sharding<@mesh, [{}]>"}, metadata={op_name="params_and_buffers[\'vllm_model.language_model.model.layers.47.post_attention_layernorm.weight\']"}
  %broadcast_in_dim.9023 = bf16[1,2048]{1,0} reshape(%params_and_buffers__vllm_model_language_model_model_layers_47_post_attention_layernorm_weight__.385), metadata={op_name="jit(step_fun)/aten::mul.Tensor/broadcast_in_dim" source_file="/home/eporat/benchmarking_qwen_omni_tpu/.venv/lib/python3.11/site-packages/torchax/ops/jaten.py" source_line=325 source_end_line=325 source_column=8 source_end_column=13}
  %mul.9024 = bf16[1,2048]{1,0} broadcast(%broadcast_in_dim.9023), dimensions={0,1}, metadata={op_name="jit(step_fun)/aten::mul.Tensor/mul" source_file="/home/eporat/benchmarking_qwen_omni_tpu/.venv/lib/python3.11/site-packages/torchax/ops/jaten.py" source_line=325 source_end_line=325 source_column=8 source_end_column=13}
  %mul.9025 = bf16[2048]{0} reshape(%mul.9024), metadata={op_name="jit(step_fun)/aten::mul.Tensor/mul" source_file="/home/eporat/benchmarking_qwen_omni_tpu/.venv/lib/python3.11/site-packages/torchax/ops/jaten.py" source_line=325 source_end_line=325 source_column=8 source_end_column=13}
  %mul.9026 = bf16[32,2048]{1,0} broadcast(%mul.9025), dimensions={1}, metadata={op_name="jit(step_fun)/aten::mul.Tensor/mul" source_file="/home/eporat/benchmarking_qwen_omni_tpu/.venv/lib/python3.11/site-packages/torchax/ops/jaten.py" source_line=325 source_end_line=325 source_column=8 source_end_column=13}
  %mul.9027 = bf16[32,2048]{1,0} multiply(%convert_element_type.9022, %mul.9026), metadata={op_name="jit(step_fun)/aten::mul.Tensor/mul" source_file="/home/eporat/benchmarking_qwen_omni_tpu/.venv/lib/python3.11/site-packages/torchax/ops/jaten.py" source_line=325 source_end_line=325 source_column=8 source_end_column=13}
  %params_and_buffers__vllm_model_language_model_model_layers_47_mlp_experts_w13_weight__.382 = bf16[128,1536,2048]{2,1,0} parameter(381), sharding={devices=[1,4,1]<=[4]}, frontend_attributes={xla.sdy.sharding="#sdy.sharding<@mesh, [{}, {\"model\"}, {}]>"}, metadata={op_name="params_and_buffers[\'vllm_model.language_model.model.layers.47.mlp.experts.w13_weight\']"}
  %params_and_buffers__vllm_model_language_model_model_layers_47_mlp_experts_w2_weight__.383 = bf16[128,2048,768]{2,1,0} parameter(382), sharding={devices=[1,1,4]<=[4]}, frontend_attributes={xla.sdy.sharding="#sdy.sharding<@mesh, [{}, {}, {\"model\"}]>"}, metadata={op_name="params_and_buffers[\'vllm_model.language_model.model.layers.47.mlp.experts.w2_weight\']"}
  %params_and_buffers__vllm_model_language_model_model_layers_47_mlp_gate_weight__.384 = bf16[128,2048]{1,0} parameter(383), sharding={replicated}, frontend_attributes={xla.sdy.sharding="#sdy.sharding<@mesh, [{}, {}]>"}, metadata={op_name="params_and_buffers[\'vllm_model.language_model.model.layers.47.mlp.gate.weight\']"}
  %dot_general.9028 = bf16[32,128]{1,0} dot(%mul.9027, %params_and_buffers__vllm_model_language_model_model_layers_47_mlp_gate_weight__.384), lhs_contracting_dims={1}, rhs_contracting_dims={1}, metadata={op_name="jit(step_fun)/ReplicatedLinear/mn,pn->mp/dot_general" source_file="/home/eporat/benchmarking_qwen_omni_tpu/.venv/lib/python3.11/site-packages/tpu_inference/layers/vllm/quantization/unquantized.py" source_line=129 source_end_line=129 source_column=15 source_end_column=57}
  %jit_jax_fused_moe_func_padded_.9029 = bf16[32,2048]{1,0} call(%mul.9027, %params_and_buffers__vllm_model_language_model_model_layers_47_mlp_experts_w13_weight__.382, %params_and_buffers__vllm_model_language_model_model_layers_47_mlp_experts_w2_weight__.383, %dot_general.9028), to_apply=%jax_fused_moe_func_padded.1602, metadata={op_name="jit(step_fun)/jit(jax_fused_moe_func_padded)" source_file="/home/eporat/benchmarking_qwen_omni_tpu/.venv/lib/python3.11/site-packages/tpu_inference/layers/vllm/quantization/unquantized.py" source_line=256 source_end_line=261 source_column=17 source_end_column=9}
  %convert_element_type.9030 = f32[32,2048]{1,0} convert(%jit_jax_fused_moe_func_padded_.9029), metadata={op_name="jit(step_fun)/convert_element_type" source_file="/home/eporat/benchmarking_qwen_omni_tpu/.venv/lib/python3.11/site-packages/torchax/tensor.py" source_line=154 source_end_line=154 source_column=10 source_end_column=51}
  %convert_element_type.9007 = bf16[32,2048]{1,0} convert(%add.9006), metadata={op_name="jit(step_fun)/convert_element_type" source_file="/home/eporat/benchmarking_qwen_omni_tpu/.venv/lib/python3.11/site-packages/torchax/tensor.py" source_line=154 source_end_line=154 source_column=10 source_end_column=51}
  %convert_element_type.9031 = f32[32,2048]{1,0} convert(%convert_element_type.9007), metadata={op_name="jit(step_fun)/convert_element_type" source_file="/home/eporat/benchmarking_qwen_omni_tpu/.venv/lib/python3.11/site-packages/torchax/tensor.py" source_line=154 source_end_line=154 source_column=10 source_end_column=51}
  %add.9032 = f32[32,2048]{1,0} add(%convert_element_type.9030, %convert_element_type.9031), metadata={op_name="jit(step_fun)/aten::add.Tensor/add" source_file="/home/eporat/benchmarking_qwen_omni_tpu/.venv/lib/python3.11/site-packages/torchax/ops/jaten.py" source_line=65 source_end_line=65 source_column=8 source_end_column=21}
  %pow.9033 = f32[32,2048]{1,0} power(%add.9032, %broadcast.511), metadata={op_name="jit(step_fun)/aten::pow.Tensor_Scalar/pow" source_file="/home/eporat/benchmarking_qwen_omni_tpu/.venv/lib/python3.11/site-packages/torchax/ops/jaten.py" source_line=487 source_end_line=487 source_column=8 source_end_column=23}
  %reduce_sum.9038 = f32[32]{0} reduce(%pow.9033, %constant.512), dimensions={1}, to_apply=%region_224.9037, metadata={op_name="jit(step_fun)/aten::mean.dim/reduce_sum" source_file="/home/eporat/benchmarking_qwen_omni_tpu/.venv/lib/python3.11/site-packages/torchax/ops/jaten.py" source_line=265 source_end_line=265 source_column=9 source_end_column=43}
  %broadcast_in_dim.9039 = f32[32,1]{1,0} reshape(%reduce_sum.9038), metadata={op_name="jit(step_fun)/aten::mean.dim/broadcast_in_dim" source_file="/home/eporat/benchmarking_qwen_omni_tpu/.venv/lib/python3.11/site-packages/torchax/ops/jaten.py" source_line=265 source_end_line=265 source_column=9 source_end_column=43}
  %div.9040 = f32[32,1]{1,0} divide(%broadcast_in_dim.9039, %broadcast.509), metadata={op_name="jit(step_fun)/aten::mean.dim/div" source_file="/home/eporat/benchmarking_qwen_omni_tpu/.venv/lib/python3.11/site-packages/torchax/ops/jaten.py" source_line=265 source_end_line=265 source_column=9 source_end_column=43}
  %add.9041 = f32[32,1]{1,0} add(%div.9040, %broadcast.507), metadata={op_name="jit(step_fun)/aten::add.Tensor/add" source_file="/home/eporat/benchmarking_qwen_omni_tpu/.venv/lib/python3.11/site-packages/torchax/ops/jaten.py" source_line=65 source_end_line=65 source_column=8 source_end_column=21}
  %rsqrt.9042 = f32[32,1]{1,0} rsqrt(%add.9041), metadata={op_name="jit(step_fun)/aten::rsqrt/rsqrt" source_file="/home/eporat/benchmarking_qwen_omni_tpu/.venv/lib/python3.11/site-packages/torchax/ops/jaten.py" source_line=656 source_end_line=656 source_column=9 source_end_column=25}
  %mul.9043 = f32[32,1]{1,0} broadcast(%rsqrt.9042), dimensions={0,1}, metadata={op_name="jit(step_fun)/aten::mul.Tensor/mul" source_file="/home/eporat/benchmarking_qwen_omni_tpu/.venv/lib/python3.11/site-packages/torchax/ops/jaten.py" source_line=325 source_end_line=325 source_column=8 source_end_column=13}
  %mul.9044 = f32[32]{0} reshape(%mul.9043), metadata={op_name="jit(step_fun)/aten::mul.Tensor/mul" source_file="/home/eporat/benchmarking_qwen_omni_tpu/.venv/lib/python3.11/site-packages/torchax/ops/jaten.py" source_line=325 source_end_line=325 source_column=8 source_end_column=13}
  %mul.9045 = f32[32,2048]{1,0} broadcast(%mul.9044), dimensions={0}, metadata={op_name="jit(step_fun)/aten::mul.Tensor/mul" source_file="/home/eporat/benchmarking_qwen_omni_tpu/.venv/lib/python3.11/site-packages/torchax/ops/jaten.py" source_line=325 source_end_line=325 source_column=8 source_end_column=13}
  %mul.9046 = f32[32,2048]{1,0} multiply(%add.9032, %mul.9045), metadata={op_name="jit(step_fun)/aten::mul.Tensor/mul" source_file="/home/eporat/benchmarking_qwen_omni_tpu/.venv/lib/python3.11/site-packages/torchax/ops/jaten.py" source_line=325 source_end_line=325 source_column=8 source_end_column=13}
  %convert_element_type.9047 = bf16[32,2048]{1,0} convert(%mul.9046), metadata={op_name="jit(step_fun)/convert_element_type" source_file="/home/eporat/benchmarking_qwen_omni_tpu/.venv/lib/python3.11/site-packages/torchax/tensor.py" source_line=154 source_end_line=154 source_column=10 source_end_column=51}
  %params_and_buffers__vllm_model_language_model_model_norm_weight__.435 = bf16[2048]{0} parameter(434), sharding={replicated}, frontend_attributes={xla.sdy.sharding="#sdy.sharding<@mesh, [{}]>"}, metadata={op_name="params_and_buffers[\'vllm_model.language_model.model.norm.weight\']"}
  %broadcast_in_dim.9048 = bf16[1,2048]{1,0} reshape(%params_and_buffers__vllm_model_language_model_model_norm_weight__.435), metadata={op_name="jit(step_fun)/aten::mul.Tensor/broadcast_in_dim" source_file="/home/eporat/benchmarking_qwen_omni_tpu/.venv/lib/python3.11/site-packages/torchax/ops/jaten.py" source_line=325 source_end_line=325 source_column=8 source_end_column=13}
  %mul.9049 = bf16[1,2048]{1,0} broadcast(%broadcast_in_dim.9048), dimensions={0,1}, metadata={op_name="jit(step_fun)/aten::mul.Tensor/mul" source_file="/home/eporat/benchmarking_qwen_omni_tpu/.venv/lib/python3.11/site-packages/torchax/ops/jaten.py" source_line=325 source_end_line=325 source_column=8 source_end_column=13}
  %mul.9050 = bf16[2048]{0} reshape(%mul.9049), metadata={op_name="jit(step_fun)/aten::mul.Tensor/mul" source_file="/home/eporat/benchmarking_qwen_omni_tpu/.venv/lib/python3.11/site-packages/torchax/ops/jaten.py" source_line=325 source_end_line=325 source_column=8 source_end_column=13}
  %mul.9051 = bf16[32,2048]{1,0} broadcast(%mul.9050), dimensions={1}, metadata={op_name="jit(step_fun)/aten::mul.Tensor/mul" source_file="/home/eporat/benchmarking_qwen_omni_tpu/.venv/lib/python3.11/site-packages/torchax/ops/jaten.py" source_line=325 source_end_line=325 source_column=8 source_end_column=13}
  %mul.9052 = bf16[32,2048]{1,0} multiply(%convert_element_type.9047, %mul.9051), metadata={op_name="jit(step_fun)/aten::mul.Tensor/mul" source_file="/home/eporat/benchmarking_qwen_omni_tpu/.venv/lib/python3.11/site-packages/torchax/ops/jaten.py" source_line=325 source_end_line=325 source_column=8 source_end_column=13}
  ROOT %tuple.9053 = (bf16[14813,32,4,2,128]{4,3,2,1,0}, bf16[14813,32,4,2,128]{4,3,2,1,0}, bf16[14813,32,4,2,128]{4,3,2,1,0}, bf16[14813,32,4,2,128]{4,3,2,1,0}, bf16[14813,32,4,2,128]{4,3,2,1,0}, /*index=5*/bf16[14813,32,4,2,128]{4,3,2,1,0}, bf16[14813,32,4,2,128]{4,3,2,1,0}, bf16[14813,32,4,2,128]{4,3,2,1,0}, bf16[14813,32,4,2,128]{4,3,2,1,0}, bf16[14813,32,4,2,128]{4,3,2,1,0}, /*index=10*/bf16[14813,32,4,2,128]{4,3,2,1,0}, bf16[14813,32,4,2,128]{4,3,2,1,0}, bf16[14813,32,4,2,128]{4,3,2,1,0}, bf16[14813,32,4,2,128]{4,3,2,1,0}, bf16[14813,32,4,2,128]{4,3,2,1,0}, /*index=15*/bf16[14813,32,4,2,128]{4,3,2,1,0}, bf16[14813,32,4,2,128]{4,3,2,1,0}, bf16[14813,32,4,2,128]{4,3,2,1,0}, bf16[14813,32,4,2,128]{4,3,2,1,0}, bf16[14813,32,4,2,128]{4,3,2,1,0}, /*index=20*/bf16[14813,32,4,2,128]{4,3,2,1,0}, bf16[14813,32,4,2,128]{4,3,2,1,0}, bf16[14813,32,4,2,128]{4,3,2,1,0}, bf16[14813,32,4,2,128]{4,3,2,1,0}, bf16[14813,32,4,2,128]{4,3,2,1,0}, /*index=25*/bf16[14813,32,4,2,128]{4,3,2,1,0}, bf16[14813,32,4,2,128]{4,3,2,1,0}, bf16[14813,32,4,2,128]{4,3,2,1,0}, bf16[14813,32,4,2,128]{4,3,2,1,0}, bf16[14813,32,4,2,128]{4,3,2,1,0}, /*index=30*/bf16[14813,32,4,2,128]{4,3,2,1,0}, bf16[14813,32,4,2,128]{4,3,2,1,0}, bf16[14813,32,4,2,128]{4,3,2,1,0}, bf16[14813,32,4,2,128]{4,3,2,1,0}, bf16[14813,32,4,2,128]{4,3,2,1,0}, /*index=35*/bf16[14813,32,4,2,128]{4,3,2,1,0}, bf16[14813,32,4,2,128]{4,3,2,1,0}, bf16[14813,32,4,2,128]{4,3,2,1,0}, bf16[14813,32,4,2,128]{4,3,2,1,0}, bf16[14813,32,4,2,128]{4,3,2,1,0}, /*index=40*/bf16[14813,32,4,2,128]{4,3,2,1,0}, bf16[14813,32,4,2,128]{4,3,2,1,0}, bf16[14813,32,4,2,128]{4,3,2,1,0}, bf16[14813,32,4,2,128]{4,3,2,1,0}, bf16[14813,32,4,2,128]{4,3,2,1,0}, /*index=45*/bf16[14813,32,4,2,128]{4,3,2,1,0}, bf16[14813,32,4,2,128]{4,3,2,1,0}, bf16[14813,32,4,2,128]{4,3,2,1,0}, bf16[32,2048]{1,0}) tuple(%jit__jax_attn_func_.765, %jit__jax_attn_func_.1733, %jit__jax_attn_func_.1891, %jit__jax_attn_func_.2049, %jit__jax_attn_func_.2207, /*index=5*/%jit__jax_attn_func_.2365, %jit__jax_attn_func_.2523, %jit__jax_attn_func_.2681, %jit__jax_attn_func_.2839, %jit__jax_attn_func_.2997, /*index=10*/%jit__jax_attn_func_.3155, %jit__jax_attn_func_.3313, %jit__jax_attn_func_.3471, %jit__jax_attn_func_.3629, %jit__jax_attn_func_.3787, /*index=15*/%jit__jax_attn_func_.3945, %jit__jax_attn_func_.4103, %jit__jax_attn_func_.4261, %jit__jax_attn_func_.4419, %jit__jax_attn_func_.4577, /*index=20*/%jit__jax_attn_func_.4735, %jit__jax_attn_func_.4893, %jit__jax_attn_func_.5051, %jit__jax_attn_func_.5209, %jit__jax_attn_func_.5367, /*index=25*/%jit__jax_attn_func_.5525, %jit__jax_attn_func_.5683, %jit__jax_attn_func_.5841, %jit__jax_attn_func_.5999, %jit__jax_attn_func_.6157, /*index=30*/%jit__jax_attn_func_.6315, %jit__jax_attn_func_.6473, %jit__jax_attn_func_.6631, %jit__jax_attn_func_.6789, %jit__jax_attn_func_.6947, /*index=35*/%jit__jax_attn_func_.7105, %jit__jax_attn_func_.7263, %jit__jax_attn_func_.7421, %jit__jax_attn_func_.7579, %jit__jax_attn_func_.7737, /*index=40*/%jit__jax_attn_func_.7895, %jit__jax_attn_func_.8053, %jit__jax_attn_func_.8211, %jit__jax_attn_func_.8369, %jit__jax_attn_func_.8527, /*index=45*/%jit__jax_attn_func_.8685, %jit__jax_attn_func_.8843, %jit__jax_attn_func_.9001, %mul.9052)
}

