HloModule jit__threefry_fold_in, is_scheduled=true, entry_computation_layout={(u32[2]{0:T(128)}, u32[]{:T(128)})->u32[2]{0:T(128)}}, allow_spmd_sharding_propagation_to_parameters={true,true}, allow_spmd_sharding_propagation_to_output={true}

%fused_computation (param_0.1: u32[1], param_1.3: u32[1]) -> u32[2] {
  %param_1.3 = u32[1]{0:T(128)S(6)} parameter(1)
  %constant.35 = u32[]{:T(128)} constant(0)
  %pad.3 = u32[2]{0:T(128)} pad(%param_1.3, %constant.35), padding=0_1, metadata={op_name="jit(_threefry_fold_in)/concatenate" source_file="/home/eporat/benchmarking_qwen_omni_tpu/.venv/lib/python3.11/site-packages/flax/nnx/rnglib.py" source_line=76 source_end_line=76 source_column=10 source_end_column=60}
  %param_0.1 = u32[1]{0:T(128)S(6)} parameter(0)
  %pad.2 = u32[2]{0:T(128)} pad(%param_0.1, %constant.35), padding=1_0, metadata={op_name="jit(_threefry_fold_in)/concatenate" source_file="/home/eporat/benchmarking_qwen_omni_tpu/.venv/lib/python3.11/site-packages/flax/nnx/rnglib.py" source_line=76 source_end_line=76 source_column=10 source_end_column=60}
  ROOT %add.64 = u32[2]{0:T(128)} add(%pad.3, %pad.2), metadata={op_name="jit(_threefry_fold_in)/concatenate" source_file="/home/eporat/benchmarking_qwen_omni_tpu/.venv/lib/python3.11/site-packages/flax/nnx/rnglib.py" source_line=76 source_end_line=76 source_column=10 source_end_column=60}
}

%fused_computation.1 (param_0.2: u32[2]) -> (u32[1], u32[1]) {
  %param_0.2 = u32[2]{0:T(128)S(1)} parameter(0)
  %slice.0 = u32[1]{0:T(128)} slice(%param_0.2), slice={[1:2]}, metadata={op_name="jit(_threefry_fold_in)/slice" source_file="/home/eporat/benchmarking_qwen_omni_tpu/.venv/lib/python3.11/site-packages/flax/nnx/rnglib.py" source_line=76 source_end_line=76 source_column=10 source_end_column=60}
  %slice.1 = u32[1]{0:T(128)} slice(%param_0.2), slice={[0:1]}, metadata={op_name="jit(_threefry_fold_in)/slice" source_file="/home/eporat/benchmarking_qwen_omni_tpu/.venv/lib/python3.11/site-packages/flax/nnx/rnglib.py" source_line=76 source_end_line=76 source_column=10 source_end_column=60}
  ROOT %tuple.1 = (u32[1]{0:T(128)}, u32[1]{0:T(128)}) tuple(%slice.0, %slice.1)
}

ENTRY %main.168 (key.1: u32[2], data.2: u32[]) -> u32[2] {
  %constant.3 = u32[]{:T(128)} constant(32)
  %constant.1 = u32[1]{0:T(128)} constant({19}), metadata={op_name="jit(_threefry_fold_in)"}
  %constant.0 = u32[1]{0:T(128)} constant({13}), metadata={op_name="jit(_threefry_fold_in)"}
  %constant.4 = u32[1]{0:T(128)} constant({17}), metadata={op_name="jit(_threefry_fold_in)"}
  %constant.2 = u32[1]{0:T(128)} constant({15}), metadata={op_name="jit(_threefry_fold_in)"}
  %constant.6 = u32[1]{0:T(128)} constant({6}), metadata={op_name="jit(_threefry_fold_in)"}
  %constant.5 = u32[1]{0:T(128)} constant({26}), metadata={op_name="jit(_threefry_fold_in)"}
  %constant.33 = u32[1]{0:T(128)} constant({466688986}), metadata={op_name="jit(_threefry_fold_in)"}
  %constant.8 = u32[1]{0:T(128)} constant({1}), metadata={op_name="jit(_threefry_fold_in)"}
  %constant.10 = u32[1]{0:T(128)} constant({3}), metadata={op_name="jit(_threefry_fold_in)"}
  %constant.9 = u32[1]{0:T(128)} constant({29}), metadata={op_name="jit(_threefry_fold_in)"}
  %constant.11 = u32[1]{0:T(128)} constant({16}), metadata={op_name="jit(_threefry_fold_in)"}
  %constant.13 = u32[1]{0:T(128)} constant({8}), metadata={op_name="jit(_threefry_fold_in)"}
  %constant.12 = u32[1]{0:T(128)} constant({24}), metadata={op_name="jit(_threefry_fold_in)"}
  %constant.14 = u32[1]{0:T(128)} constant({2}), metadata={op_name="jit(_threefry_fold_in)"}
  %constant.31 = u32[1]{0:T(128)} constant({4}), metadata={op_name="jit(_threefry_fold_in)"}
  %constant.32 = u32[1]{0:T(128)} constant({5}), metadata={op_name="jit(_threefry_fold_in)"}
  %data.2 = u32[]{:T(128)} parameter(1), metadata={op_name="data"}
  %key.1 = u32[2]{0:T(128)} parameter(0), metadata={op_name="key"}
  %copy = u32[]{:T(128)} copy(%data.2)
  %shift_right_logical.4 = u32[]{:T(128)} shift-right-logical(%copy, %constant.3), metadata={op_name="jit(_threefry_fold_in)/shift_right_logical" source_file="/home/eporat/benchmarking_qwen_omni_tpu/.venv/lib/python3.11/site-packages/flax/nnx/rnglib.py" source_line=76 source_end_line=76 source_column=10 source_end_column=60}
  %copy-start = (u32[2]{0:T(128)S(1)}, u32[2]{0:T(128)}, u32[]{:S(2)}) copy-start(%key.1)
  %copy-done = u32[2]{0:T(128)S(1)} copy-done(%copy-start)
  %fusion = (u32[1]{0:T(128)}, u32[1]{0:T(128)}) fusion(%copy-done), kind=kLoop, calls=%fused_computation.1, metadata={op_name="jit(_threefry_fold_in)/slice" source_file="/home/eporat/benchmarking_qwen_omni_tpu/.venv/lib/python3.11/site-packages/flax/nnx/rnglib.py" source_line=76 source_end_line=76 source_column=10 source_end_column=60}, backend_config={"flag_configs":[],"window_config":{"kernel_window_bounds":[],"output_window_bounds":["1"],"input_window_bounds":[],"estimated_cycles":"2122","iteration_bounds":["1"],"cost_model_type":"COST_MODEL_TYPE_INVALID","ml_estimated_microseconds":0,"is_mask":false},"scoped_memory_configs":[],"used_scoped_memory_configs":[{"memory_space":"1","offset":"0","size":"2048"}],"retry_config":{"retry_count":"0"}}
  %get-tuple-element.1 = u32[1]{0:T(128)} get-tuple-element(%fusion), index=1, metadata={op_name="jit(_threefry_fold_in)/slice" source_file="/home/eporat/benchmarking_qwen_omni_tpu/.venv/lib/python3.11/site-packages/flax/nnx/rnglib.py" source_line=76 source_end_line=76 source_column=10 source_end_column=60}
  %bitcast = u32[1]{0:T(128)} bitcast(%shift_right_logical.4), metadata={op_name="jit(_threefry_fold_in)/broadcast_in_dim" source_file="/home/eporat/benchmarking_qwen_omni_tpu/.venv/lib/python3.11/site-packages/flax/nnx/rnglib.py" source_line=76 source_end_line=76 source_column=10 source_end_column=60}
  %add.1 = u32[1]{0:T(128)S(6)} add(%bitcast, %get-tuple-element.1), metadata={op_name="jit(_threefry_fold_in)/add" source_file="/home/eporat/benchmarking_qwen_omni_tpu/.venv/lib/python3.11/site-packages/flax/nnx/rnglib.py" source_line=76 source_end_line=76 source_column=10 source_end_column=60}
  %get-tuple-element = u32[1]{0:T(128)} get-tuple-element(%fusion), index=0, metadata={op_name="jit(_threefry_fold_in)/slice" source_file="/home/eporat/benchmarking_qwen_omni_tpu/.venv/lib/python3.11/site-packages/flax/nnx/rnglib.py" source_line=76 source_end_line=76 source_column=10 source_end_column=60}
  %bitcast.2 = u32[1]{0:T(128)} bitcast(%copy)
  %add.3 = u32[1]{0:T(128)S(6)} add(%bitcast.2, %get-tuple-element), metadata={op_name="jit(_threefry_fold_in)/add" source_file="/home/eporat/benchmarking_qwen_omni_tpu/.venv/lib/python3.11/site-packages/flax/nnx/rnglib.py" source_line=76 source_end_line=76 source_column=10 source_end_column=60}
  %shift_right_logical.0 = u32[1]{0:T(128)S(6)} shift-right-logical(%add.3, %constant.1), metadata={op_name="jit(_threefry_fold_in)/shift_right_logical" source_file="/home/eporat/benchmarking_qwen_omni_tpu/.venv/lib/python3.11/site-packages/flax/nnx/rnglib.py" source_line=76 source_end_line=76 source_column=10 source_end_column=60}
  %shift_left.0 = u32[1]{0:T(128)S(6)} shift-left(%add.3, %constant.0), metadata={op_name="jit(_threefry_fold_in)/shift_left" source_file="/home/eporat/benchmarking_qwen_omni_tpu/.venv/lib/python3.11/site-packages/flax/nnx/rnglib.py" source_line=76 source_end_line=76 source_column=10 source_end_column=60}
  %or.0 = u32[1]{0:T(128)S(6)} or(%shift_left.0, %shift_right_logical.0), metadata={op_name="jit(_threefry_fold_in)/or" source_file="/home/eporat/benchmarking_qwen_omni_tpu/.venv/lib/python3.11/site-packages/flax/nnx/rnglib.py" source_line=76 source_end_line=76 source_column=10 source_end_column=60}
  %add.4 = u32[1]{0:T(128)S(6)} add(%add.1, %add.3), metadata={op_name="jit(_threefry_fold_in)/add" source_file="/home/eporat/benchmarking_qwen_omni_tpu/.venv/lib/python3.11/site-packages/flax/nnx/rnglib.py" source_line=76 source_end_line=76 source_column=10 source_end_column=60}
  %xor.0 = u32[1]{0:T(128)S(6)} xor(%add.4, %or.0), metadata={op_name="jit(_threefry_fold_in)/xor" source_file="/home/eporat/benchmarking_qwen_omni_tpu/.venv/lib/python3.11/site-packages/flax/nnx/rnglib.py" source_line=76 source_end_line=76 source_column=10 source_end_column=60}
  %shift_right_logical.1 = u32[1]{0:T(128)S(6)} shift-right-logical(%xor.0, %constant.4), metadata={op_name="jit(_threefry_fold_in)/shift_right_logical" source_file="/home/eporat/benchmarking_qwen_omni_tpu/.venv/lib/python3.11/site-packages/flax/nnx/rnglib.py" source_line=76 source_end_line=76 source_column=10 source_end_column=60}
  %shift_left.1 = u32[1]{0:T(128)S(6)} shift-left(%xor.0, %constant.2), metadata={op_name="jit(_threefry_fold_in)/shift_left" source_file="/home/eporat/benchmarking_qwen_omni_tpu/.venv/lib/python3.11/site-packages/flax/nnx/rnglib.py" source_line=76 source_end_line=76 source_column=10 source_end_column=60}
  %or.1 = u32[1]{0:T(128)S(6)} or(%shift_left.1, %shift_right_logical.1), metadata={op_name="jit(_threefry_fold_in)/or" source_file="/home/eporat/benchmarking_qwen_omni_tpu/.venv/lib/python3.11/site-packages/flax/nnx/rnglib.py" source_line=76 source_end_line=76 source_column=10 source_end_column=60}
  %add.5 = u32[1]{0:T(128)S(6)} add(%add.4, %xor.0), metadata={op_name="jit(_threefry_fold_in)/add" source_file="/home/eporat/benchmarking_qwen_omni_tpu/.venv/lib/python3.11/site-packages/flax/nnx/rnglib.py" source_line=76 source_end_line=76 source_column=10 source_end_column=60}
  %xor.1 = u32[1]{0:T(128)S(6)} xor(%add.5, %or.1), metadata={op_name="jit(_threefry_fold_in)/xor" source_file="/home/eporat/benchmarking_qwen_omni_tpu/.venv/lib/python3.11/site-packages/flax/nnx/rnglib.py" source_line=76 source_end_line=76 source_column=10 source_end_column=60}
  %shift_right_logical.2 = u32[1]{0:T(128)S(6)} shift-right-logical(%xor.1, %constant.6), metadata={op_name="jit(_threefry_fold_in)/shift_right_logical" source_file="/home/eporat/benchmarking_qwen_omni_tpu/.venv/lib/python3.11/site-packages/flax/nnx/rnglib.py" source_line=76 source_end_line=76 source_column=10 source_end_column=60}
  %shift_left.2 = u32[1]{0:T(128)S(6)} shift-left(%xor.1, %constant.5), metadata={op_name="jit(_threefry_fold_in)/shift_left" source_file="/home/eporat/benchmarking_qwen_omni_tpu/.venv/lib/python3.11/site-packages/flax/nnx/rnglib.py" source_line=76 source_end_line=76 source_column=10 source_end_column=60}
  %or.2 = u32[1]{0:T(128)S(6)} or(%shift_left.2, %shift_right_logical.2), metadata={op_name="jit(_threefry_fold_in)/or" source_file="/home/eporat/benchmarking_qwen_omni_tpu/.venv/lib/python3.11/site-packages/flax/nnx/rnglib.py" source_line=76 source_end_line=76 source_column=10 source_end_column=60}
  %add.6 = u32[1]{0:T(128)S(6)} add(%add.5, %xor.1), metadata={op_name="jit(_threefry_fold_in)/add" source_file="/home/eporat/benchmarking_qwen_omni_tpu/.venv/lib/python3.11/site-packages/flax/nnx/rnglib.py" source_line=76 source_end_line=76 source_column=10 source_end_column=60}
  %xor.2 = u32[1]{0:T(128)S(6)} xor(%add.6, %or.2), metadata={op_name="jit(_threefry_fold_in)/xor" source_file="/home/eporat/benchmarking_qwen_omni_tpu/.venv/lib/python3.11/site-packages/flax/nnx/rnglib.py" source_line=76 source_end_line=76 source_column=10 source_end_column=60}
  %shift_right_logical.3 = u32[1]{0:T(128)S(6)} shift-right-logical(%xor.2, %constant.5), metadata={op_name="jit(_threefry_fold_in)/shift_right_logical" source_file="/home/eporat/benchmarking_qwen_omni_tpu/.venv/lib/python3.11/site-packages/flax/nnx/rnglib.py" source_line=76 source_end_line=76 source_column=10 source_end_column=60}
  %shift_left.3 = u32[1]{0:T(128)S(6)} shift-left(%xor.2, %constant.6), metadata={op_name="jit(_threefry_fold_in)/shift_left" source_file="/home/eporat/benchmarking_qwen_omni_tpu/.venv/lib/python3.11/site-packages/flax/nnx/rnglib.py" source_line=76 source_end_line=76 source_column=10 source_end_column=60}
  %or.3 = u32[1]{0:T(128)S(6)} or(%shift_left.3, %shift_right_logical.3), metadata={op_name="jit(_threefry_fold_in)/or" source_file="/home/eporat/benchmarking_qwen_omni_tpu/.venv/lib/python3.11/site-packages/flax/nnx/rnglib.py" source_line=76 source_end_line=76 source_column=10 source_end_column=60}
  %add.7 = u32[1]{0:T(128)S(6)} add(%add.6, %xor.2), metadata={op_name="jit(_threefry_fold_in)/add" source_file="/home/eporat/benchmarking_qwen_omni_tpu/.venv/lib/python3.11/site-packages/flax/nnx/rnglib.py" source_line=76 source_end_line=76 source_column=10 source_end_column=60}
  %xor.3 = u32[1]{0:T(128)S(6)} xor(%add.7, %or.3), metadata={op_name="jit(_threefry_fold_in)/xor" source_file="/home/eporat/benchmarking_qwen_omni_tpu/.venv/lib/python3.11/site-packages/flax/nnx/rnglib.py" source_line=76 source_end_line=76 source_column=10 source_end_column=60}
  %add.9 = u32[1]{0:T(128)S(6)} add(%add.7, %get-tuple-element), metadata={op_name="jit(_threefry_fold_in)/add" source_file="/home/eporat/benchmarking_qwen_omni_tpu/.venv/lib/python3.11/site-packages/flax/nnx/rnglib.py" source_line=76 source_end_line=76 source_column=10 source_end_column=60}
  %xor.22 = u32[1]{0:T(128)S(6)} xor(%get-tuple-element.1, %get-tuple-element), metadata={op_name="jit(_threefry_fold_in)/xor" source_file="/home/eporat/benchmarking_qwen_omni_tpu/.venv/lib/python3.11/site-packages/flax/nnx/rnglib.py" source_line=76 source_end_line=76 source_column=10 source_end_column=60}
  %xor.23 = u32[1]{0:T(128)S(6)} xor(%xor.22, %constant.33), metadata={op_name="jit(_threefry_fold_in)/xor" source_file="/home/eporat/benchmarking_qwen_omni_tpu/.venv/lib/python3.11/site-packages/flax/nnx/rnglib.py" source_line=76 source_end_line=76 source_column=10 source_end_column=60}
  %add.11 = u32[1]{0:T(128)S(6)} add(%xor.3, %xor.23), metadata={op_name="jit(_threefry_fold_in)/add" source_file="/home/eporat/benchmarking_qwen_omni_tpu/.venv/lib/python3.11/site-packages/flax/nnx/rnglib.py" source_line=76 source_end_line=76 source_column=10 source_end_column=60}
  %add.12 = u32[1]{0:T(128)S(6)} add(%add.11, %constant.8), metadata={op_name="jit(_threefry_fold_in)/add" source_file="/home/eporat/benchmarking_qwen_omni_tpu/.venv/lib/python3.11/site-packages/flax/nnx/rnglib.py" source_line=76 source_end_line=76 source_column=10 source_end_column=60}
  %shift_right_logical.5 = u32[1]{0:T(128)S(6)} shift-right-logical(%add.12, %constant.2), metadata={op_name="jit(_threefry_fold_in)/shift_right_logical" source_file="/home/eporat/benchmarking_qwen_omni_tpu/.venv/lib/python3.11/site-packages/flax/nnx/rnglib.py" source_line=76 source_end_line=76 source_column=10 source_end_column=60}
  %shift_left.4 = u32[1]{0:T(128)S(6)} shift-left(%add.12, %constant.4), metadata={op_name="jit(_threefry_fold_in)/shift_left" source_file="/home/eporat/benchmarking_qwen_omni_tpu/.venv/lib/python3.11/site-packages/flax/nnx/rnglib.py" source_line=76 source_end_line=76 source_column=10 source_end_column=60}
  %or.4 = u32[1]{0:T(128)S(6)} or(%shift_left.4, %shift_right_logical.5), metadata={op_name="jit(_threefry_fold_in)/or" source_file="/home/eporat/benchmarking_qwen_omni_tpu/.venv/lib/python3.11/site-packages/flax/nnx/rnglib.py" source_line=76 source_end_line=76 source_column=10 source_end_column=60}
  %add.13 = u32[1]{0:T(128)S(6)} add(%add.9, %add.12), metadata={op_name="jit(_threefry_fold_in)/add" source_file="/home/eporat/benchmarking_qwen_omni_tpu/.venv/lib/python3.11/site-packages/flax/nnx/rnglib.py" source_line=76 source_end_line=76 source_column=10 source_end_column=60}
  %xor.6 = u32[1]{0:T(128)S(6)} xor(%add.13, %or.4), metadata={op_name="jit(_threefry_fold_in)/xor" source_file="/home/eporat/benchmarking_qwen_omni_tpu/.venv/lib/python3.11/site-packages/flax/nnx/rnglib.py" source_line=76 source_end_line=76 source_column=10 source_end_column=60}
  %shift_right_logical.6 = u32[1]{0:T(128)S(6)} shift-right-logical(%xor.6, %constant.10), metadata={op_name="jit(_threefry_fold_in)/shift_right_logical" source_file="/home/eporat/benchmarking_qwen_omni_tpu/.venv/lib/python3.11/site-packages/flax/nnx/rnglib.py" source_line=76 source_end_line=76 source_column=10 source_end_column=60}
  %shift_left.5 = u32[1]{0:T(128)S(6)} shift-left(%xor.6, %constant.9), metadata={op_name="jit(_threefry_fold_in)/shift_left" source_file="/home/eporat/benchmarking_qwen_omni_tpu/.venv/lib/python3.11/site-packages/flax/nnx/rnglib.py" source_line=76 source_end_line=76 source_column=10 source_end_column=60}
  %or.5 = u32[1]{0:T(128)S(6)} or(%shift_left.5, %shift_right_logical.6), metadata={op_name="jit(_threefry_fold_in)/or" source_file="/home/eporat/benchmarking_qwen_omni_tpu/.venv/lib/python3.11/site-packages/flax/nnx/rnglib.py" source_line=76 source_end_line=76 source_column=10 source_end_column=60}
  %add.14 = u32[1]{0:T(128)S(6)} add(%add.13, %xor.6), metadata={op_name="jit(_threefry_fold_in)/add" source_file="/home/eporat/benchmarking_qwen_omni_tpu/.venv/lib/python3.11/site-packages/flax/nnx/rnglib.py" source_line=76 source_end_line=76 source_column=10 source_end_column=60}
  %xor.7 = u32[1]{0:T(128)S(6)} xor(%add.14, %or.5), metadata={op_name="jit(_threefry_fold_in)/xor" source_file="/home/eporat/benchmarking_qwen_omni_tpu/.venv/lib/python3.11/site-packages/flax/nnx/rnglib.py" source_line=76 source_end_line=76 source_column=10 source_end_column=60}
  %shift_right_logical.7 = u32[1]{0:T(128)S(6)} shift-right-logical(%xor.7, %constant.11), metadata={op_name="jit(_threefry_fold_in)/shift_right_logical" source_file="/home/eporat/benchmarking_qwen_omni_tpu/.venv/lib/python3.11/site-packages/flax/nnx/rnglib.py" source_line=76 source_end_line=76 source_column=10 source_end_column=60}
  %shift_left.6 = u32[1]{0:T(128)S(6)} shift-left(%xor.7, %constant.11), metadata={op_name="jit(_threefry_fold_in)/shift_left" source_file="/home/eporat/benchmarking_qwen_omni_tpu/.venv/lib/python3.11/site-packages/flax/nnx/rnglib.py" source_line=76 source_end_line=76 source_column=10 source_end_column=60}
  %or.6 = u32[1]{0:T(128)S(6)} or(%shift_left.6, %shift_right_logical.7), metadata={op_name="jit(_threefry_fold_in)/or" source_file="/home/eporat/benchmarking_qwen_omni_tpu/.venv/lib/python3.11/site-packages/flax/nnx/rnglib.py" source_line=76 source_end_line=76 source_column=10 source_end_column=60}
  %add.15 = u32[1]{0:T(128)S(6)} add(%add.14, %xor.7), metadata={op_name="jit(_threefry_fold_in)/add" source_file="/home/eporat/benchmarking_qwen_omni_tpu/.venv/lib/python3.11/site-packages/flax/nnx/rnglib.py" source_line=76 source_end_line=76 source_column=10 source_end_column=60}
  %xor.8 = u32[1]{0:T(128)S(6)} xor(%add.15, %or.6), metadata={op_name="jit(_threefry_fold_in)/xor" source_file="/home/eporat/benchmarking_qwen_omni_tpu/.venv/lib/python3.11/site-packages/flax/nnx/rnglib.py" source_line=76 source_end_line=76 source_column=10 source_end_column=60}
  %shift_right_logical.8 = u32[1]{0:T(128)S(6)} shift-right-logical(%xor.8, %constant.13), metadata={op_name="jit(_threefry_fold_in)/shift_right_logical" source_file="/home/eporat/benchmarking_qwen_omni_tpu/.venv/lib/python3.11/site-packages/flax/nnx/rnglib.py" source_line=76 source_end_line=76 source_column=10 source_end_column=60}
  %shift_left.7 = u32[1]{0:T(128)S(6)} shift-left(%xor.8, %constant.12), metadata={op_name="jit(_threefry_fold_in)/shift_left" source_file="/home/eporat/benchmarking_qwen_omni_tpu/.venv/lib/python3.11/site-packages/flax/nnx/rnglib.py" source_line=76 source_end_line=76 source_column=10 source_end_column=60}
  %or.7 = u32[1]{0:T(128)S(6)} or(%shift_left.7, %shift_right_logical.8), metadata={op_name="jit(_threefry_fold_in)/or" source_file="/home/eporat/benchmarking_qwen_omni_tpu/.venv/lib/python3.11/site-packages/flax/nnx/rnglib.py" source_line=76 source_end_line=76 source_column=10 source_end_column=60}
  %add.16 = u32[1]{0:T(128)S(6)} add(%add.15, %xor.8), metadata={op_name="jit(_threefry_fold_in)/add" source_file="/home/eporat/benchmarking_qwen_omni_tpu/.venv/lib/python3.11/site-packages/flax/nnx/rnglib.py" source_line=76 source_end_line=76 source_column=10 source_end_column=60}
  %xor.9 = u32[1]{0:T(128)S(6)} xor(%add.16, %or.7), metadata={op_name="jit(_threefry_fold_in)/xor" source_file="/home/eporat/benchmarking_qwen_omni_tpu/.venv/lib/python3.11/site-packages/flax/nnx/rnglib.py" source_line=76 source_end_line=76 source_column=10 source_end_column=60}
  %add.20 = u32[1]{0:T(128)S(6)} add(%xor.9, %get-tuple-element.1), metadata={op_name="jit(_threefry_fold_in)/add" source_file="/home/eporat/benchmarking_qwen_omni_tpu/.venv/lib/python3.11/site-packages/flax/nnx/rnglib.py" source_line=76 source_end_line=76 source_column=10 source_end_column=60}
  %add.21 = u32[1]{0:T(128)S(6)} add(%add.20, %constant.14), metadata={op_name="jit(_threefry_fold_in)/add" source_file="/home/eporat/benchmarking_qwen_omni_tpu/.venv/lib/python3.11/site-packages/flax/nnx/rnglib.py" source_line=76 source_end_line=76 source_column=10 source_end_column=60}
  %shift_right_logical.9 = u32[1]{0:T(128)S(6)} shift-right-logical(%add.21, %constant.1), metadata={op_name="jit(_threefry_fold_in)/shift_right_logical" source_file="/home/eporat/benchmarking_qwen_omni_tpu/.venv/lib/python3.11/site-packages/flax/nnx/rnglib.py" source_line=76 source_end_line=76 source_column=10 source_end_column=60}
  %shift_left.8 = u32[1]{0:T(128)S(6)} shift-left(%add.21, %constant.0), metadata={op_name="jit(_threefry_fold_in)/shift_left" source_file="/home/eporat/benchmarking_qwen_omni_tpu/.venv/lib/python3.11/site-packages/flax/nnx/rnglib.py" source_line=76 source_end_line=76 source_column=10 source_end_column=60}
  %or.8 = u32[1]{0:T(128)S(6)} or(%shift_left.8, %shift_right_logical.9), metadata={op_name="jit(_threefry_fold_in)/or" source_file="/home/eporat/benchmarking_qwen_omni_tpu/.venv/lib/python3.11/site-packages/flax/nnx/rnglib.py" source_line=76 source_end_line=76 source_column=10 source_end_column=60}
  %add.18 = u32[1]{0:T(128)S(6)} add(%add.16, %xor.23), metadata={op_name="jit(_threefry_fold_in)/add" source_file="/home/eporat/benchmarking_qwen_omni_tpu/.venv/lib/python3.11/site-packages/flax/nnx/rnglib.py" source_line=76 source_end_line=76 source_column=10 source_end_column=60}
  %add.22 = u32[1]{0:T(128)S(6)} add(%add.18, %add.21), metadata={op_name="jit(_threefry_fold_in)/add" source_file="/home/eporat/benchmarking_qwen_omni_tpu/.venv/lib/python3.11/site-packages/flax/nnx/rnglib.py" source_line=76 source_end_line=76 source_column=10 source_end_column=60}
  %xor.10 = u32[1]{0:T(128)S(6)} xor(%add.22, %or.8), metadata={op_name="jit(_threefry_fold_in)/xor" source_file="/home/eporat/benchmarking_qwen_omni_tpu/.venv/lib/python3.11/site-packages/flax/nnx/rnglib.py" source_line=76 source_end_line=76 source_column=10 source_end_column=60}
  %shift_right_logical.10 = u32[1]{0:T(128)S(6)} shift-right-logical(%xor.10, %constant.4), metadata={op_name="jit(_threefry_fold_in)/shift_right_logical" source_file="/home/eporat/benchmarking_qwen_omni_tpu/.venv/lib/python3.11/site-packages/flax/nnx/rnglib.py" source_line=76 source_end_line=76 source_column=10 source_end_column=60}
  %shift_left.9 = u32[1]{0:T(128)S(6)} shift-left(%xor.10, %constant.2), metadata={op_name="jit(_threefry_fold_in)/shift_left" source_file="/home/eporat/benchmarking_qwen_omni_tpu/.venv/lib/python3.11/site-packages/flax/nnx/rnglib.py" source_line=76 source_end_line=76 source_column=10 source_end_column=60}
  %or.9 = u32[1]{0:T(128)S(6)} or(%shift_left.9, %shift_right_logical.10), metadata={op_name="jit(_threefry_fold_in)/or" source_file="/home/eporat/benchmarking_qwen_omni_tpu/.venv/lib/python3.11/site-packages/flax/nnx/rnglib.py" source_line=76 source_end_line=76 source_column=10 source_end_column=60}
  %add.23 = u32[1]{0:T(128)S(6)} add(%add.22, %xor.10), metadata={op_name="jit(_threefry_fold_in)/add" source_file="/home/eporat/benchmarking_qwen_omni_tpu/.venv/lib/python3.11/site-packages/flax/nnx/rnglib.py" source_line=76 source_end_line=76 source_column=10 source_end_column=60}
  %xor.11 = u32[1]{0:T(128)S(6)} xor(%add.23, %or.9), metadata={op_name="jit(_threefry_fold_in)/xor" source_file="/home/eporat/benchmarking_qwen_omni_tpu/.venv/lib/python3.11/site-packages/flax/nnx/rnglib.py" source_line=76 source_end_line=76 source_column=10 source_end_column=60}
  %shift_right_logical.11 = u32[1]{0:T(128)S(6)} shift-right-logical(%xor.11, %constant.6), metadata={op_name="jit(_threefry_fold_in)/shift_right_logical" source_file="/home/eporat/benchmarking_qwen_omni_tpu/.venv/lib/python3.11/site-packages/flax/nnx/rnglib.py" source_line=76 source_end_line=76 source_column=10 source_end_column=60}
  %shift_left.10 = u32[1]{0:T(128)S(6)} shift-left(%xor.11, %constant.5), metadata={op_name="jit(_threefry_fold_in)/shift_left" source_file="/home/eporat/benchmarking_qwen_omni_tpu/.venv/lib/python3.11/site-packages/flax/nnx/rnglib.py" source_line=76 source_end_line=76 source_column=10 source_end_column=60}
  %or.10 = u32[1]{0:T(128)S(6)} or(%shift_left.10, %shift_right_logical.11), metadata={op_name="jit(_threefry_fold_in)/or" source_file="/home/eporat/benchmarking_qwen_omni_tpu/.venv/lib/python3.11/site-packages/flax/nnx/rnglib.py" source_line=76 source_end_line=76 source_column=10 source_end_column=60}
  %add.24 = u32[1]{0:T(128)S(6)} add(%add.23, %xor.11), metadata={op_name="jit(_threefry_fold_in)/add" source_file="/home/eporat/benchmarking_qwen_omni_tpu/.venv/lib/python3.11/site-packages/flax/nnx/rnglib.py" source_line=76 source_end_line=76 source_column=10 source_end_column=60}
  %xor.12 = u32[1]{0:T(128)S(6)} xor(%add.24, %or.10), metadata={op_name="jit(_threefry_fold_in)/xor" source_file="/home/eporat/benchmarking_qwen_omni_tpu/.venv/lib/python3.11/site-packages/flax/nnx/rnglib.py" source_line=76 source_end_line=76 source_column=10 source_end_column=60}
  %shift_right_logical.12 = u32[1]{0:T(128)S(6)} shift-right-logical(%xor.12, %constant.5), metadata={op_name="jit(_threefry_fold_in)/shift_right_logical" source_file="/home/eporat/benchmarking_qwen_omni_tpu/.venv/lib/python3.11/site-packages/flax/nnx/rnglib.py" source_line=76 source_end_line=76 source_column=10 source_end_column=60}
  %shift_left.11 = u32[1]{0:T(128)S(6)} shift-left(%xor.12, %constant.6), metadata={op_name="jit(_threefry_fold_in)/shift_left" source_file="/home/eporat/benchmarking_qwen_omni_tpu/.venv/lib/python3.11/site-packages/flax/nnx/rnglib.py" source_line=76 source_end_line=76 source_column=10 source_end_column=60}
  %or.11 = u32[1]{0:T(128)S(6)} or(%shift_left.11, %shift_right_logical.12), metadata={op_name="jit(_threefry_fold_in)/or" source_file="/home/eporat/benchmarking_qwen_omni_tpu/.venv/lib/python3.11/site-packages/flax/nnx/rnglib.py" source_line=76 source_end_line=76 source_column=10 source_end_column=60}
  %add.25 = u32[1]{0:T(128)S(6)} add(%add.24, %xor.12), metadata={op_name="jit(_threefry_fold_in)/add" source_file="/home/eporat/benchmarking_qwen_omni_tpu/.venv/lib/python3.11/site-packages/flax/nnx/rnglib.py" source_line=76 source_end_line=76 source_column=10 source_end_column=60}
  %xor.13 = u32[1]{0:T(128)S(6)} xor(%add.25, %or.11), metadata={op_name="jit(_threefry_fold_in)/xor" source_file="/home/eporat/benchmarking_qwen_omni_tpu/.venv/lib/python3.11/site-packages/flax/nnx/rnglib.py" source_line=76 source_end_line=76 source_column=10 source_end_column=60}
  %add.29 = u32[1]{0:T(128)S(6)} add(%xor.13, %get-tuple-element), metadata={op_name="jit(_threefry_fold_in)/add" source_file="/home/eporat/benchmarking_qwen_omni_tpu/.venv/lib/python3.11/site-packages/flax/nnx/rnglib.py" source_line=76 source_end_line=76 source_column=10 source_end_column=60}
  %add.30 = u32[1]{0:T(128)S(6)} add(%add.29, %constant.10), metadata={op_name="jit(_threefry_fold_in)/add" source_file="/home/eporat/benchmarking_qwen_omni_tpu/.venv/lib/python3.11/site-packages/flax/nnx/rnglib.py" source_line=76 source_end_line=76 source_column=10 source_end_column=60}
  %shift_right_logical.13 = u32[1]{0:T(128)S(6)} shift-right-logical(%add.30, %constant.2), metadata={op_name="jit(_threefry_fold_in)/shift_right_logical" source_file="/home/eporat/benchmarking_qwen_omni_tpu/.venv/lib/python3.11/site-packages/flax/nnx/rnglib.py" source_line=76 source_end_line=76 source_column=10 source_end_column=60}
  %shift_left.12 = u32[1]{0:T(128)S(6)} shift-left(%add.30, %constant.4), metadata={op_name="jit(_threefry_fold_in)/shift_left" source_file="/home/eporat/benchmarking_qwen_omni_tpu/.venv/lib/python3.11/site-packages/flax/nnx/rnglib.py" source_line=76 source_end_line=76 source_column=10 source_end_column=60}
  %or.12 = u32[1]{0:T(128)S(6)} or(%shift_left.12, %shift_right_logical.13), metadata={op_name="jit(_threefry_fold_in)/or" source_file="/home/eporat/benchmarking_qwen_omni_tpu/.venv/lib/python3.11/site-packages/flax/nnx/rnglib.py" source_line=76 source_end_line=76 source_column=10 source_end_column=60}
  %add.27 = u32[1]{0:T(128)S(6)} add(%add.25, %get-tuple-element.1), metadata={op_name="jit(_threefry_fold_in)/add" source_file="/home/eporat/benchmarking_qwen_omni_tpu/.venv/lib/python3.11/site-packages/flax/nnx/rnglib.py" source_line=76 source_end_line=76 source_column=10 source_end_column=60}
  %add.31 = u32[1]{0:T(128)S(6)} add(%add.27, %add.30), metadata={op_name="jit(_threefry_fold_in)/add" source_file="/home/eporat/benchmarking_qwen_omni_tpu/.venv/lib/python3.11/site-packages/flax/nnx/rnglib.py" source_line=76 source_end_line=76 source_column=10 source_end_column=60}
  %xor.14 = u32[1]{0:T(128)S(6)} xor(%add.31, %or.12), metadata={op_name="jit(_threefry_fold_in)/xor" source_file="/home/eporat/benchmarking_qwen_omni_tpu/.venv/lib/python3.11/site-packages/flax/nnx/rnglib.py" source_line=76 source_end_line=76 source_column=10 source_end_column=60}
  %shift_right_logical.14 = u32[1]{0:T(128)S(6)} shift-right-logical(%xor.14, %constant.10), metadata={op_name="jit(_threefry_fold_in)/shift_right_logical" source_file="/home/eporat/benchmarking_qwen_omni_tpu/.venv/lib/python3.11/site-packages/flax/nnx/rnglib.py" source_line=76 source_end_line=76 source_column=10 source_end_column=60}
  %shift_left.13 = u32[1]{0:T(128)S(6)} shift-left(%xor.14, %constant.9), metadata={op_name="jit(_threefry_fold_in)/shift_left" source_file="/home/eporat/benchmarking_qwen_omni_tpu/.venv/lib/python3.11/site-packages/flax/nnx/rnglib.py" source_line=76 source_end_line=76 source_column=10 source_end_column=60}
  %or.13 = u32[1]{0:T(128)S(6)} or(%shift_left.13, %shift_right_logical.14), metadata={op_name="jit(_threefry_fold_in)/or" source_file="/home/eporat/benchmarking_qwen_omni_tpu/.venv/lib/python3.11/site-packages/flax/nnx/rnglib.py" source_line=76 source_end_line=76 source_column=10 source_end_column=60}
  %add.32 = u32[1]{0:T(128)S(6)} add(%add.31, %xor.14), metadata={op_name="jit(_threefry_fold_in)/add" source_file="/home/eporat/benchmarking_qwen_omni_tpu/.venv/lib/python3.11/site-packages/flax/nnx/rnglib.py" source_line=76 source_end_line=76 source_column=10 source_end_column=60}
  %xor.15 = u32[1]{0:T(128)S(6)} xor(%add.32, %or.13), metadata={op_name="jit(_threefry_fold_in)/xor" source_file="/home/eporat/benchmarking_qwen_omni_tpu/.venv/lib/python3.11/site-packages/flax/nnx/rnglib.py" source_line=76 source_end_line=76 source_column=10 source_end_column=60}
  %shift_right_logical.15 = u32[1]{0:T(128)S(6)} shift-right-logical(%xor.15, %constant.11), metadata={op_name="jit(_threefry_fold_in)/shift_right_logical" source_file="/home/eporat/benchmarking_qwen_omni_tpu/.venv/lib/python3.11/site-packages/flax/nnx/rnglib.py" source_line=76 source_end_line=76 source_column=10 source_end_column=60}
  %shift_left.14 = u32[1]{0:T(128)S(6)} shift-left(%xor.15, %constant.11), metadata={op_name="jit(_threefry_fold_in)/shift_left" source_file="/home/eporat/benchmarking_qwen_omni_tpu/.venv/lib/python3.11/site-packages/flax/nnx/rnglib.py" source_line=76 source_end_line=76 source_column=10 source_end_column=60}
  %or.14 = u32[1]{0:T(128)S(6)} or(%shift_left.14, %shift_right_logical.15), metadata={op_name="jit(_threefry_fold_in)/or" source_file="/home/eporat/benchmarking_qwen_omni_tpu/.venv/lib/python3.11/site-packages/flax/nnx/rnglib.py" source_line=76 source_end_line=76 source_column=10 source_end_column=60}
  %add.38 = u32[1]{0:T(128)S(6)} add(%add.32, %xor.15), metadata={op_name="jit(_threefry_fold_in)/add" source_file="/home/eporat/benchmarking_qwen_omni_tpu/.venv/lib/python3.11/site-packages/flax/nnx/rnglib.py" source_line=76 source_end_line=76 source_column=10 source_end_column=60}
  %xor.16 = u32[1]{0:T(128)S(6)} xor(%add.38, %or.14), metadata={op_name="jit(_threefry_fold_in)/xor" source_file="/home/eporat/benchmarking_qwen_omni_tpu/.venv/lib/python3.11/site-packages/flax/nnx/rnglib.py" source_line=76 source_end_line=76 source_column=10 source_end_column=60}
  %shift_right_logical.16 = u32[1]{0:T(128)S(6)} shift-right-logical(%xor.16, %constant.13), metadata={op_name="jit(_threefry_fold_in)/shift_right_logical" source_file="/home/eporat/benchmarking_qwen_omni_tpu/.venv/lib/python3.11/site-packages/flax/nnx/rnglib.py" source_line=76 source_end_line=76 source_column=10 source_end_column=60}
  %shift_left.15 = u32[1]{0:T(128)S(6)} shift-left(%xor.16, %constant.12), metadata={op_name="jit(_threefry_fold_in)/shift_left" source_file="/home/eporat/benchmarking_qwen_omni_tpu/.venv/lib/python3.11/site-packages/flax/nnx/rnglib.py" source_line=76 source_end_line=76 source_column=10 source_end_column=60}
  %or.15 = u32[1]{0:T(128)S(6)} or(%shift_left.15, %shift_right_logical.16), metadata={op_name="jit(_threefry_fold_in)/or" source_file="/home/eporat/benchmarking_qwen_omni_tpu/.venv/lib/python3.11/site-packages/flax/nnx/rnglib.py" source_line=76 source_end_line=76 source_column=10 source_end_column=60}
  %add.39 = u32[1]{0:T(128)S(6)} add(%add.38, %xor.16), metadata={op_name="jit(_threefry_fold_in)/add" source_file="/home/eporat/benchmarking_qwen_omni_tpu/.venv/lib/python3.11/site-packages/flax/nnx/rnglib.py" source_line=76 source_end_line=76 source_column=10 source_end_column=60}
  %xor.17 = u32[1]{0:T(128)S(6)} xor(%add.39, %or.15), metadata={op_name="jit(_threefry_fold_in)/xor" source_file="/home/eporat/benchmarking_qwen_omni_tpu/.venv/lib/python3.11/site-packages/flax/nnx/rnglib.py" source_line=76 source_end_line=76 source_column=10 source_end_column=60}
  %add.44 = u32[1]{0:T(128)S(6)} add(%xor.17, %xor.23), metadata={op_name="jit(_threefry_fold_in)/add" source_file="/home/eporat/benchmarking_qwen_omni_tpu/.venv/lib/python3.11/site-packages/flax/nnx/rnglib.py" source_line=76 source_end_line=76 source_column=10 source_end_column=60}
  %add.45 = u32[1]{0:T(128)S(6)} add(%add.44, %constant.31), metadata={op_name="jit(_threefry_fold_in)/add" source_file="/home/eporat/benchmarking_qwen_omni_tpu/.venv/lib/python3.11/site-packages/flax/nnx/rnglib.py" source_line=76 source_end_line=76 source_column=10 source_end_column=60}
  %shift_right_logical.17 = u32[1]{0:T(128)S(6)} shift-right-logical(%add.45, %constant.1), metadata={op_name="jit(_threefry_fold_in)/shift_right_logical" source_file="/home/eporat/benchmarking_qwen_omni_tpu/.venv/lib/python3.11/site-packages/flax/nnx/rnglib.py" source_line=76 source_end_line=76 source_column=10 source_end_column=60}
  %shift_left.16 = u32[1]{0:T(128)S(6)} shift-left(%add.45, %constant.0), metadata={op_name="jit(_threefry_fold_in)/shift_left" source_file="/home/eporat/benchmarking_qwen_omni_tpu/.venv/lib/python3.11/site-packages/flax/nnx/rnglib.py" source_line=76 source_end_line=76 source_column=10 source_end_column=60}
  %or.16 = u32[1]{0:T(128)S(6)} or(%shift_left.16, %shift_right_logical.17), metadata={op_name="jit(_threefry_fold_in)/or" source_file="/home/eporat/benchmarking_qwen_omni_tpu/.venv/lib/python3.11/site-packages/flax/nnx/rnglib.py" source_line=76 source_end_line=76 source_column=10 source_end_column=60}
  %add.41 = u32[1]{0:T(128)S(6)} add(%add.39, %get-tuple-element), metadata={op_name="jit(_threefry_fold_in)/add" source_file="/home/eporat/benchmarking_qwen_omni_tpu/.venv/lib/python3.11/site-packages/flax/nnx/rnglib.py" source_line=76 source_end_line=76 source_column=10 source_end_column=60}
  %add.46 = u32[1]{0:T(128)S(6)} add(%add.41, %add.45), metadata={op_name="jit(_threefry_fold_in)/add" source_file="/home/eporat/benchmarking_qwen_omni_tpu/.venv/lib/python3.11/site-packages/flax/nnx/rnglib.py" source_line=76 source_end_line=76 source_column=10 source_end_column=60}
  %xor.18 = u32[1]{0:T(128)S(6)} xor(%add.46, %or.16), metadata={op_name="jit(_threefry_fold_in)/xor" source_file="/home/eporat/benchmarking_qwen_omni_tpu/.venv/lib/python3.11/site-packages/flax/nnx/rnglib.py" source_line=76 source_end_line=76 source_column=10 source_end_column=60}
  %shift_right_logical.18 = u32[1]{0:T(128)S(6)} shift-right-logical(%xor.18, %constant.4), metadata={op_name="jit(_threefry_fold_in)/shift_right_logical" source_file="/home/eporat/benchmarking_qwen_omni_tpu/.venv/lib/python3.11/site-packages/flax/nnx/rnglib.py" source_line=76 source_end_line=76 source_column=10 source_end_column=60}
  %shift_left.17 = u32[1]{0:T(128)S(6)} shift-left(%xor.18, %constant.2), metadata={op_name="jit(_threefry_fold_in)/shift_left" source_file="/home/eporat/benchmarking_qwen_omni_tpu/.venv/lib/python3.11/site-packages/flax/nnx/rnglib.py" source_line=76 source_end_line=76 source_column=10 source_end_column=60}
  %or.17 = u32[1]{0:T(128)S(6)} or(%shift_left.17, %shift_right_logical.18), metadata={op_name="jit(_threefry_fold_in)/or" source_file="/home/eporat/benchmarking_qwen_omni_tpu/.venv/lib/python3.11/site-packages/flax/nnx/rnglib.py" source_line=76 source_end_line=76 source_column=10 source_end_column=60}
  %add.48 = u32[1]{0:T(128)S(6)} add(%add.46, %xor.18), metadata={op_name="jit(_threefry_fold_in)/add" source_file="/home/eporat/benchmarking_qwen_omni_tpu/.venv/lib/python3.11/site-packages/flax/nnx/rnglib.py" source_line=76 source_end_line=76 source_column=10 source_end_column=60}
  %xor.19 = u32[1]{0:T(128)S(6)} xor(%add.48, %or.17), metadata={op_name="jit(_threefry_fold_in)/xor" source_file="/home/eporat/benchmarking_qwen_omni_tpu/.venv/lib/python3.11/site-packages/flax/nnx/rnglib.py" source_line=76 source_end_line=76 source_column=10 source_end_column=60}
  %shift_right_logical.19 = u32[1]{0:T(128)S(6)} shift-right-logical(%xor.19, %constant.6), metadata={op_name="jit(_threefry_fold_in)/shift_right_logical" source_file="/home/eporat/benchmarking_qwen_omni_tpu/.venv/lib/python3.11/site-packages/flax/nnx/rnglib.py" source_line=76 source_end_line=76 source_column=10 source_end_column=60}
  %shift_left.18 = u32[1]{0:T(128)S(6)} shift-left(%xor.19, %constant.5), metadata={op_name="jit(_threefry_fold_in)/shift_left" source_file="/home/eporat/benchmarking_qwen_omni_tpu/.venv/lib/python3.11/site-packages/flax/nnx/rnglib.py" source_line=76 source_end_line=76 source_column=10 source_end_column=60}
  %or.18 = u32[1]{0:T(128)S(6)} or(%shift_left.18, %shift_right_logical.19), metadata={op_name="jit(_threefry_fold_in)/or" source_file="/home/eporat/benchmarking_qwen_omni_tpu/.venv/lib/python3.11/site-packages/flax/nnx/rnglib.py" source_line=76 source_end_line=76 source_column=10 source_end_column=60}
  %add.49 = u32[1]{0:T(128)S(6)} add(%add.48, %xor.19), metadata={op_name="jit(_threefry_fold_in)/add" source_file="/home/eporat/benchmarking_qwen_omni_tpu/.venv/lib/python3.11/site-packages/flax/nnx/rnglib.py" source_line=76 source_end_line=76 source_column=10 source_end_column=60}
  %xor.20 = u32[1]{0:T(128)S(6)} xor(%add.49, %or.18), metadata={op_name="jit(_threefry_fold_in)/xor" source_file="/home/eporat/benchmarking_qwen_omni_tpu/.venv/lib/python3.11/site-packages/flax/nnx/rnglib.py" source_line=76 source_end_line=76 source_column=10 source_end_column=60}
  %shift_right_logical.20 = u32[1]{0:T(128)S(6)} shift-right-logical(%xor.20, %constant.5), metadata={op_name="jit(_threefry_fold_in)/shift_right_logical" source_file="/home/eporat/benchmarking_qwen_omni_tpu/.venv/lib/python3.11/site-packages/flax/nnx/rnglib.py" source_line=76 source_end_line=76 source_column=10 source_end_column=60}
  %shift_left.19 = u32[1]{0:T(128)S(6)} shift-left(%xor.20, %constant.6), metadata={op_name="jit(_threefry_fold_in)/shift_left" source_file="/home/eporat/benchmarking_qwen_omni_tpu/.venv/lib/python3.11/site-packages/flax/nnx/rnglib.py" source_line=76 source_end_line=76 source_column=10 source_end_column=60}
  %or.19 = u32[1]{0:T(128)S(6)} or(%shift_left.19, %shift_right_logical.20), metadata={op_name="jit(_threefry_fold_in)/or" source_file="/home/eporat/benchmarking_qwen_omni_tpu/.venv/lib/python3.11/site-packages/flax/nnx/rnglib.py" source_line=76 source_end_line=76 source_column=10 source_end_column=60}
  %add.50 = u32[1]{0:T(128)S(6)} add(%add.49, %xor.20), metadata={op_name="jit(_threefry_fold_in)/add" source_file="/home/eporat/benchmarking_qwen_omni_tpu/.venv/lib/python3.11/site-packages/flax/nnx/rnglib.py" source_line=76 source_end_line=76 source_column=10 source_end_column=60}
  %xor.21 = u32[1]{0:T(128)S(6)} xor(%add.50, %or.19), metadata={op_name="jit(_threefry_fold_in)/xor" source_file="/home/eporat/benchmarking_qwen_omni_tpu/.venv/lib/python3.11/site-packages/flax/nnx/rnglib.py" source_line=76 source_end_line=76 source_column=10 source_end_column=60}
  %add.55 = u32[1]{0:T(128)S(6)} add(%xor.21, %get-tuple-element.1), metadata={op_name="jit(_threefry_fold_in)/add" source_file="/home/eporat/benchmarking_qwen_omni_tpu/.venv/lib/python3.11/site-packages/flax/nnx/rnglib.py" source_line=76 source_end_line=76 source_column=10 source_end_column=60}
  %add.56 = u32[1]{0:T(128)S(6)} add(%add.55, %constant.32), metadata={op_name="jit(_threefry_fold_in)/add" source_file="/home/eporat/benchmarking_qwen_omni_tpu/.venv/lib/python3.11/site-packages/flax/nnx/rnglib.py" source_line=76 source_end_line=76 source_column=10 source_end_column=60}
  %add.53 = u32[1]{0:T(128)S(6)} add(%add.50, %xor.23), metadata={op_name="jit(_threefry_fold_in)/add" source_file="/home/eporat/benchmarking_qwen_omni_tpu/.venv/lib/python3.11/site-packages/flax/nnx/rnglib.py" source_line=76 source_end_line=76 source_column=10 source_end_column=60}
  ROOT %pad_add_fusion = u32[2]{0:T(128)} fusion(%add.56, %add.53), kind=kLoop, calls=%fused_computation, metadata={op_name="jit(_threefry_fold_in)/concatenate" source_file="/home/eporat/benchmarking_qwen_omni_tpu/.venv/lib/python3.11/site-packages/flax/nnx/rnglib.py" source_line=76 source_end_line=76 source_column=10 source_end_column=60}, backend_config={"flag_configs":[],"window_config":{"kernel_window_bounds":[],"output_window_bounds":["1"],"input_window_bounds":[],"estimated_cycles":"2121","iteration_bounds":["1"],"cost_model_type":"COST_MODEL_TYPE_INVALID","ml_estimated_microseconds":0,"is_mask":false},"scoped_memory_configs":[],"used_scoped_memory_configs":[{"memory_space":"1","offset":"0","size":"1024"}],"retry_config":{"retry_count":"0"}}
}

